python/models/model_dancedb/ik.pt (torch, 447771 bytes, 24 tensors)

ik_net.sequential_l_leg.0.weight f4 [128, 49]
000000 90 b3 d4 bd d9 92 48 bd ea 5a 9b 3c dd ea ee bd
       -0.10385811 -0.04896817 0.01896425 -0.1166589
000010 96 b0 8e bd 39 94 11 3d 3a 65 a2 bd 77 24 2c bd
       -0.06967275 0.035541747 -0.07929464 -0.042026963
000020 dc 9c 18 bd c8 0a 8b bd 05 06 23 bd 00 dd 30 3d
       -0.037258968 -0.06789166 -0.039800663 0.043179512
000030 2e e3 4d 3e e1 fc b2 b7 7b bf 2d bd 9a 0a 5a bd
       0.20106193 -2.133701e-05 -0.042418938 -0.053232767
000040 b5 99 f5 3c 9a 19 34 bd 06 6a 9d bd 55 90 01 3e
       0.02998052 -0.043969728 -0.07686238 0.12652715
000050 d9 70 e2 3d f3 68 b5 ba eb cb 48 3d ce 36 94 3c
       0.1105668 -0.0013840481 0.049022596 0.01809254
000060 6c a8 af 3d 97 3f 0e 3d 8e 5b a4 bd 0c 1d e0 bd
       0.08577046 0.034728613 -0.08025275 -0.1094304
000070 9d eb 7f bc 97 ee a1 3d 0f ca 01 3e f2 f2 7c 3c
       -0.015620139 0.079068355 0.12674735 0.015438782
000080 5f ca 59 3c fc 14 67 bd f5 79 80 3d e4 0b 9a bd
       0.013292878 -0.056416497 0.062732615 -0.07521799
000090 b2 86 c0 3d 41 63 50 3c 2a 6f 90 3c 6b 16 b8 3b
       0.09400691 0.0127189765 0.017631132 0.005617907
0000a0 24 83 c0 b9 44 68 36 3d 24 5c 46 bd 14 90 3e be
       -0.000367188 0.04453303 -0.048427716 -0.18609649
0000b0 a7 fa 1e bd b3 d0 17 3e ce ec 19 bd 55 34 dc 3d
       -0.03881326 0.14825706 -0.03757935 0.10752169
0000c0 9f ed a6 3e 63 36 bb 3d a5 61 ea 3d 31 e3 9c bb
       0.32603166 0.09141233 0.114444055 -0.0047878255
0000d0 2f a5 41 be 48 a5 a1 3d e1 c9 06 3c 1a aa d8 3d
       -0.18910669 0.07892853 0.008226843 0.10579319
0000e0 6e 30 82 3d ae 2e c4 bc 8c 00 27 bd 60 c5 81 3d
       0.063568935 -0.02394804 -0.040772006 0.063364744
0000f0 5a 0d 73 3c e3 1d 1d bd 45 f5 8e bd 71 25 b1 3a
       0.014834726 -0.03835858 -0.06980375 0.0013515187
000100 fb 7b 1f 3d 55 e8 b7 3c 4e 2b 45 bd d0 35 e2 3d
       0.038936596 0.022449652 -0.048137 0.1104542
000110 65 46 93 bc c9 ec 34 3e ff 34 fb bd 3f b6 2d bd
       -0.017977903 0.17668451 -0.122659676 -0.04241013
000120 27 0d 10 3c 75 05 9e 3c 20 07 95 bc 3c 72 49 be
       0.008792198 0.019289711 -0.018191874 -0.19672483
000130 14 c0 e6 bd 60 be a5 3d f1 96 b0 bc 90 cb 17 3c
       -0.11267105 0.08092952 -0.02155635 0.009264842
000140 a6 29 83 bc a2 5f ac bc 04 6d a8 3a 6c 0a 3e 3a
       -0.01601107 -0.021041695 0.0012849872 0.0007249478
000150 93 59 b7 3c e2 1c d0 39 07 67 89 3d 61 a3 11 bd
       0.02238158 0.0003969437 0.06709104 -0.0355562
000160 0a 4e 92 3d 3a cf bb bd 92 76 9d bc c6 19 fd 3b
       0.07143791 -0.09170385 -0.019221578 0.0077240197
000170 c3 f6 14 3e 38 85 99 bd fa 9b 8a 3e a4 1a 5b 3e
       0.14547257 -0.074961126 0.27072126 0.21396881
000180 ab 9e e6 bd e3 e1 08 3e 70 9b 85 bd ea 5c 20 be
       -0.11260732 0.13367419 -0.06523788 -0.15660444
000190 7c 5a 0b be 5a 10 ea bd 81 78 ee 3b 6f bd 0e be
       -0.13608736 -0.114289 0.007277549 -0.1393945
0001a0 52 d9 28 be 8a 5b db be 4c 49 35 bd 7b dd e5 bd
       -0.16489151 -0.42843276 -0.044259354 -0.11223885
0001b0 29 7e bd bc 2e 20 cb bc 53 a2 c7 3d 7b 12 49 ba
       -0.023131447 -0.024795618 0.09747758 -0.00076702953
0001c0 6b 47 86 3c 00 71 38 bd 2e a0 39 bd 04 39 6f bd
       0.016391477 -0.04502964 -0.045318775 -0.058403984
0001d0 ff 53 1f 3e 6e af a2 bd d0 f8 d0 3c ae d1 f3 bc
       0.15559386 -0.07943617 0.025509268 -0.029763069
0001e0 bc c7 10 3d 16 65 6e be 97 60 3a 3e 03 7d 4d bd
       0.03534673 -0.23280749 0.18200909 -0.05016805
0001f0 d1 1f 59 bd 08 78 df 3d fd f2 d6 bd 5f ff 24 bc
       -0.053008858 0.10911566 -0.10495565 -0.010070651
000200 12 75 9d 3d a8 21 a0 bd 01 81 ab bd 63 c5 37 3c
       0.07688345 -0.078189194 -0.08374215 0.011216494
000210 5a 27 d0 b8 9e f0 aa 3d 35 1a b0 bd b5 18 2f bd
       -9.925543e-05 0.08346675 -0.085987486 -0.04274817
000220 9c f7 24 bd 03 cb 96 3d b6 4a b4 3d 01 2c 0d 3d
       -0.0402752 0.0736294 0.088033125 0.034465794
000230 e0 ff 6c be 43 bc 13 3b 7a ed 55 3d 17 22 52 3d
       -0.23144484 0.0022542633 0.05222843 0.05130204
000240 be 5c 72 3c 4f 1e b1 bd 06 86 e5 3d 0e 32 29 be
       0.014792619 -0.08648359 0.112072036 -0.16523
000250 d1 b7 4d bd bb 64 0e 3d 00 ac 2e be 6d 7c 4a be
       -0.05022413 0.034764033 -0.170578 -0.19774027
000260 81 69 0b 3d b5 28 22 bd bc 97 a9 be e4 cc fe 3b
       0.034036163 -0.039589603 -0.33123577 0.0077758897
000270 e7 97 89 3c fd 3c 84 3d cf 4a 38 3e 90 53 05 3e
       0.016796065 0.06456945 0.17997287 0.13020158
000280 12 a2 03 3d b7 4e 2c bd 63 6d 62 3a 7e 87 c2 3d
       0.032136984 -0.042067256 0.0008637516 0.09498499
000290 8a de 8a 3d de 23 a9 bb e4 55 af bd cf bf 8f bd
       0.06780727 -0.0051617464 -0.08561304 -0.070190065
0002a0 13 06 ae bb 96 5f 43 bd 0c d4 f8 ba c1 71 b9 3c
       -0.0053107827 -0.04769858 -0.0018984093 0.02263725
0002b0 62 32 73 bc ca 46 58 bd 13 9e 3a bd 82 15 7d bd
       -0.014843555 -0.052801885 -0.045560908 -0.06178809
0002c0 26 c7 2c 3d 57 e3 23 bd a1 46 14 bd 64 9b 30 bd
       0.04218211 -0.04001173 -0.03620017 -0.043116942
0002d0 6e be 25 bd 16 8e 56 3c b8 e0 80 bd 63 40 77 3d
       -0.04046481 0.013095399 -0.06292862 0.06036414
0002e0 50 9d b3 bd 2d 34 ca bd cf 43 dc 3c 22 4b 0d 3d
       -0.08770239 -0.09873233 0.026887802 0.03449548
0002f0 1f 40 d2 3d 71 66 fd ba af 9c a5 3d 5d e8 f8 3c
       0.102661364 -0.0019332898 0.08086526 0.030384237
000300 43 c6 c6 bd 98 ef 5b 3e 07 8e 11 3e 3f 95 27 be
       -0.09705784 0.21478117 0.14214335 -0.16365527
000310 3e 8e a3 3d 2c ad 23 3e ea 9a 27 3b 61 68 2e 3d
       0.07986115 0.15984029 0.0025574514 0.042580012
000320 0d 14 25 3e 44 0b 5d 3d 9b fb 2a 3d 38 2a 36 bd
       0.1612093 0.05396582 0.041743856 -0.044473857
000330 da 6d 03 3d b6 c9 40 3d 1e 2d 31 bd d9 72 b9 3d
       0.032087184 0.047067367 -0.043255918 0.090551086
000340 a0 c5 57 bd b8 d6 59 bd ef 46 a7 bd d7 1f 96 3d
       -0.052678704 -0.053183287 -0.081678264 0.07330292
000350 70 be 3a 3d c5 4f 03 bc 29 d5 92 3d ca 80 7a 3c
       0.04559177 -0.008014624 0.07169563 0.015289495
000360 67 c5 83 bc fa 29 22 bd 8f b2 92 bc 0e 79 04 bc
       -0.01608534 -0.039590813 -0.017907409 -0.008085502
000370 85 32 54 3d 2a 51 f1 3d 39 b0 26 3e d5 f0 fa bd
       0.05180599 0.11783059 0.16278161 -0.12252966
000380 6f 97 65 3d d9 25 ad bd a5 2f 40 3d 81 33 10 3c
       0.05605262 -0.084544845 0.046920437 0.008801342
000390 2f 23 48 bd 1b a0 c4 bc 6f 0f 93 3c 23 67 68 bc
       -0.04886168 -0.024002125 0.017951695 -0.014184746
0003a0 5a c2 2b 3d 5a 1a 9e bd 0a 10 96 bc e8 50 61 be
       0.041933395 -0.0771987 -0.018318195 -0.2200352
0003b0 cf 6a a2 3d d6 4d aa bd ed 36 99 3e f5 7f 79 3e
       0.07930528 -0.08315627 0.29924718 0.24365218
0003c0 f7 7b 28 3e 9a 0f 9c 3d 32 06 ae 3d 01 cf f5 bd
       0.16453539 0.07620163 0.084972754 -0.120023735
0003d0 e0 bb 2d be ba 4a ff bd be 89 cb bd 79 fa c3 3d
       -0.169662 -0.12465425 -0.099383816 0.09569258
0003e0 c2 04 25 3d 6d 89 82 be 63 37 c8 bd bf eb 16 3e
       0.04028774 -0.25495473 -0.09776189 0.14738367
0003f0 ff 33 82 be 5d 2a c4 3b cc 59 9d 3c a9 8e 91 be
       -0.25430295 0.0059864954 0.019207858 -0.28429154

ik_net.sequential_l_leg.0.bias f4 [128]
000000 c3 60 1f bd 6b 70 cf 3c 77 93 1c be 8a 44 3b 3d
       -0.03891064 0.02532216 -0.15290628 0.04571966
000010 3e e1 4c 3d 70 13 0d 3d 71 57 6c bc b0 27 2c 3c
       0.050019495 0.034442365 -0.0144251445 0.010507509
000020 27 f0 8d 3c c3 82 39 3e 36 bc 93 3d f1 ba d0 bd
       0.017326428 0.18116288 0.07213633 -0.10191906
000030 52 b2 0f be 44 e2 2a 3e ac 25 39 be 89 aa f3 bc
       -0.14032868 0.16687876 -0.18080777 -0.029744403
000040 ca 89 f1 3c a7 35 0f 3e 4f 44 44 be 03 83 48 be
       0.029484648 0.1398531 -0.19166683 -0.19581227
000050 53 5a 59 3d 72 37 37 3d 07 aa 5c bd 53 1a 8d 3d
       0.053064656 0.04473061 -0.05387309 0.068897866
000060 f9 c8 d2 3d 40 88 87 3b 56 be 38 bc c9 8c 75 bd
       0.10292239 0.0041361153 -0.011275848 -0.059948716
000070 4a be ca 3d 60 5b c5 3b f2 13 c8 bd c8 d6 97 3d
       0.09899576 0.0060228556 -0.09769429 0.07414013
000080 ab a1 e6 3c fb c3 2f be 27 d9 df bc 80 07 79 3d
       0.028153261 -0.17164604 -0.027325226 0.06079817
000090 8e 8d 0b 3e 8e e9 1f 3e 04 f9 30 be 9a 79 47 3e
       0.13628218 0.15616438 -0.17282492 0.19479981
0000a0 90 c3 b0 3d f6 9e 38 bd 0f 49 3f be 61 a9 42 3e
       0.086310506 -0.045073472 -0.18680213 0.19009925
0000b0 59 e7 74 3d 4c 15 a2 3d 53 ce 76 3d 91 3f 5e be
       0.059790943 0.07914218 0.06025536 -0.21703936
0000c0 29 97 9d 3d 04 ff 04 be 9f f6 b7 3d 85 9c 82 be
       0.07694847 -0.12987906 0.08982586 -0.2551004
0000d0 a8 9b 63 be 79 3c da bd 44 4c c2 bd 16 72 c0 bd
       -0.22227347 -0.106560655 -0.09487203 -0.0939676
0000e0 8c 22 0a bd aa 80 1d bd 14 50 c5 bc 1e c7 37 be
       -0.033724353 -0.03845278 -0.024086036 -0.17947051
0000f0 fd c8 14 3e 93 2b 59 bb eb 54 23 bd 49 9d 1a 3e
       0.14529796 -0.0033137545 -0.039875906 0.15099062
000100 8a d6 2a 3e b2 e9 80 bd 5d 5f 2c bd a4 cb 6e bd
       0.16683403 -0.06294574 -0.042083133 -0.058299676
000110 d4 f9 f0 bd 48 a9 0c be be 08 b7 bc ad 75 12 3e
       -0.11766401 -0.1373645 -0.022343036 0.14302702
000120 7d a9 d9 3c fc f5 a0 3c 85 55 04 be 42 3b 37 3e
       0.026570076 0.019648544 -0.12923248 0.17893699
000130 4a 4b 65 bd 80 d6 05 3e 25 d7 36 3d 16 9e fa bd
       -0.055980004 0.13070107 0.04463877 -0.12237184
000140 33 01 c5 bd 76 0e 3b bd 94 d2 1b be 1c 6a 4e 3e
       -0.09619369 -0.045668088 -0.15217048 0.20157665
000150 d5 73 5b 3e 06 9e 77 3e dd 2c 9c bd ea bb 32 3e
       0.21430905 0.24181375 -0.076257445 0.17454496
000160 c8 c4 68 3d f3 8e c0 3c 3b 0e 4e bd 44 41 f8 3c
       0.05682829 0.023505663 -0.05030654 0.030304559
000170 8b a1 d1 3d 48 49 6a bc 49 d3 41 be 18 ee c5 3c
       0.1023589 -0.014299698 -0.18928255 0.024161384
000180 45 bd bb bc 51 58 00 bd 4f 9d ad 3c 7e 7a a3 3d
       -0.0229174 -0.031334225 0.021193175 0.07982348
000190 ba a2 07 be f3 34 b8 bd 85 61 59 be ab 08 b0 3d
       -0.13245669 -0.08994474 -0.21228607 0.08595403
0001a0 66 cf ca 3d b1 d4 0e bd d3 2d 53 be 6b 9f a3 bd
       0.09902839 -0.034870807 -0.2062295 -0.07989391
0001b0 6a 59 53 bd 5f 9a a0 3d c6 e4 0f 3e 0c c7 36 3e
       -0.051598944 0.07841944 0.14052114 0.17849368
0001c0 39 21 93 bd 48 9f 96 3c 7c 86 1f be f0 6b 28 be
       -0.07184071 0.018386498 -0.15578645 -0.16447425
0001d0 50 3b ff 3d c8 ae cf 3d ac 09 f3 bc 30 79 3f be
       0.12462485 0.10140759 -0.029667698 -0.18698573
0001e0 fb ce 7d bd 19 cc 29 3c a7 9f a1 3c d5 8f 79 3d
       -0.06196497 0.010363602 0.019729448 0.060928185
0001f0 c4 e8 9a bd e6 3e 1a 3e f0 32 a1 3c c0 4e a0 3e
       -0.07563928 0.15063056 0.01967761 0.3131008

ik_net.sequential_l_leg.2.weight f4 [128, 128]
000000 d9 9c 9b bd 26 28 f5 bd aa ad d0 3c c7 75 20 bc
       -0.07598276 -0.11970548 0.025473434 -0.009793705
000010 8c 30 10 bd 16 fa c8 3c 05 7c e2 3d 50 37 98 3d
       -0.035202548 0.024533313 0.11058811 0.07432425
000020 c7 cf bb bc bc e0 8d 3c 42 db ae 3d 2f 48 c4 bd
       -0.022926224 0.017319076 0.08537914 -0.095840804
000030 e7 4c 7c bd 42 85 5d bd 01 f7 04 3e ed 71 9f bb
       -0.061596777 -0.054082163 0.1298485 -0.004865876
000040 20 a3 87 bd 0f f9 8f bd 10 a0 d1 bd 26 53 9c 3c
       -0.066229105 -0.07029926 -0.102356076 0.019082617
000050 32 78 d8 3b 71 03 9b 3d 06 83 f7 bd 1b ee 67 bc
       0.0066061253 0.07569016 -0.120855376 -0.01415589
000060 f9 9d ae 3c 2f 10 9c 3d c1 73 c5 3d ed d8 48 bd
       0.021315562 0.07620274 0.09641219 -0.049035
000070 f0 e8 63 bc 2e a8 9d 3d bb 09 3f bc 4a 32 d3 3d
       -0.013910517 0.07698093 -0.011660035 0.10312326
000080 d8 a3 a0 bc 79 ff 9c bd 79 91 06 bd 8d fc 6d bd
       -0.019609377 -0.07665915 -0.032853577 -0.05810218
000090 52 b2 87 bd 84 58 48 3d d6 f7 90 bd a4 0f f1 3d
       -0.06625809 0.04891254 -0.07078521 0.11770561
0000a0 26 c8 9e 3c 17 7e 8e ba 33 03 4f 3d 1a f3 61 bd
       0.019382548 -0.0010871318 0.05054016 -0.05516348
0000b0 7b 98 3f be 32 02 c4 3c ce 5f 0a 3e 4d 72 66 be
       -0.1871051 0.023926828 0.13513109 -0.2250454
0000c0 28 43 7f 3b cf 4e c1 3d 53 de 13 bd d4 4a 83 be
       0.003894994 0.0943886 -0.036100697 -0.25643027
0000d0 91 4e e3 3b 8a f5 19 3e e6 5d be 3d 35 ce a9 3d
       0.006936856 0.15035072 0.092952535 0.08291284
0000e0 43 52 da 3d 16 16 5b bd 01 f2 60 bd 4e ff 4f bd
       0.106602214 -0.05348786 -0.054918293 -0.050780587
0000f0 a2 fd 3b bb 8a 39 5b bb 69 98 e2 bd 69 90 d0 3b
       -0.0028685112 -0.0033451044 -0.11064226 0.0063648713
000100 5c 91 27 3b f9 86 be 3d 51 4a 65 bd f8 b6 48 bd
       0.0025568819 0.09303088 -0.055979077 -0.049002618
000110 9d cb c3 bc 99 02 7e 3d 71 78 00 be 10 dd f3 bd
       -0.023900801 0.062014196 -0.12545945 -0.11907399
000120 a0 30 40 3c be b6 ee 3c e9 68 05 3e 51 68 dd bc
       0.011730343 0.029139873 0.13028301 -0.027027281
000130 63 64 c1 bd 7d a9 a2 3b a2 38 f0 3d e8 7e b9 bc
       -0.09442975 0.0049640522 0.11729552 -0.022643521
000140 f4 7a 28 ba c6 b6 ed 3d f6 f3 94 3c e3 27 1c be
       -0.0006427013 0.11607127 0.018182736 -0.1524959
000150 88 c4 a8 bd 8a 2c 17 3e 0d 65 af bd b0 43 ba bd
       -0.0824061 0.14763084 -0.08564196 -0.090949416
000160 98 fb 64 bd 92 43 97 3d 13 f3 2a 3d 1f d8 b1 bd
       -0.055904 0.07385935 0.04173572 -0.086838
000170 e2 5c b4 3d 62 fe 2e 3e 14 c8 c9 bd ee 79 3d 3d
       0.088067785 0.17089227 -0.09852615 0.04625886
000180 7b 29 ad 3c 4d 86 07 3e 4f 42 99 3c d1 90 32 bd
       0.021137943 0.13234825 0.018708376 -0.04359514
000190 c7 30 bf bd 62 43 02 bd b3 33 cf bd 0d ad 08 be
       -0.093354754 -0.031802543 -0.10117283 -0.13347264
0001a0 b7 29 cb bd 81 a6 4d 3d 88 4c 59 3c c1 0b 72 3d
       -0.09920066 0.05020762 0.013262875 0.05909324
0001b0 f6 aa 71 be cf 49 45 3c 47 2c 4a bc 57 fe c1 3d
       -0.23600373 0.012041523 -0.012339658 0.094723396
0001c0 ec d8 a3 bd 9c 09 84 3d 54 50 d8 bd ea 84 ad bd
       -0.08000359 0.06447145 -0.105621964 -0.08472617
0001d0 6c db 33 3c 89 cb 22 bd 78 6e 9c 3d c4 74 84 bd
       0.010977607 -0.039744888 0.07638258 -0.06467584
0001e0 b2 8b e5 3d 76 25 5f 3d d5 53 ed bc 86 b3 36 bd
       0.112082854 0.054479085 -0.028970638 -0.0446048
0001f0 78 34 d7 bb ca 05 15 be 3f 6f 4c 3c a6 6a 61 3d
       -0.006567534 -0.1455299 0.012477695 0.05503335
000200 a2 9d 63 bd ae c7 ba 3c d3 d5 8f 3d 1d ce 76 bb
       -0.055570252 0.022800293 0.070232056 -0.0037659474
000210 81 23 7f bc 50 94 47 3c fd 60 cb bc 17 c2 00 be
       -0.01557243 0.012181357 -0.024826521 -0.1257404
000220 a5 88 e4 3d b8 60 c6 bd c9 be c4 3d 51 82 19 bb
       0.111588754 -0.096864164 0.09606702 -0.0023423622
000230 39 a2 a3 3d 71 e5 4b be 3b 96 50 bd 01 2e ce bd
       0.07989926 -0.19911744 -0.05092452 -0.10067368
000240 22 c5 40 3c a4 9f 88 bd d7 b9 0b 3d 87 5d f6 3d
       0.01176575 -0.06671074 0.034112778 0.12029558
000250 57 83 92 bc 0a cf 11 bd 31 28 ad bc c2 c2 50 3c
       -0.017884893 -0.03559784 -0.021137329 0.012741746
000260 4f 52 39 bc 21 31 c0 3d d7 18 36 3d 0c 66 af bd
       -0.011311128 0.093843706 0.044457283 -0.08564386
000270 fc e9 90 bc 6b 91 fc bc bf 3d 5b 3c f0 0e 1a 3e
       -0.017689697 -0.03083106 0.013381421 0.1504476
000280 e6 ef 66 bc 2a 5d d8 ba cd 12 c1 bc 54 05 8a bd
       -0.014095282 -0.0016507257 -0.023568535 -0.067392975
000290 8a dc e9 bc 3f ed 3d 3d c8 fd 1d 3d 7a bd 43 3d
       -0.028547544 0.046368834 0.038572103 0.04778812
0002a0 21 b5 3b 3d 28 01 11 be 95 ec 79 3d 9c 37 82 3d
       0.045827035 -0.14160597 0.061016638 0.06358263
0002b0 21 f0 31 bd 6b 1e be 3d f5 de 74 bd 97 a3 c6 ba
       -0.043441895 0.092831455 -0.05978294 -0.0015154955
0002c0 b8 e0 cb bb c3 fd a1 3d 4f e5 31 bd 83 b2 68 3b
       -0.006221857 0.07909729 -0.043431576 0.0035506792
0002d0 ea cd e8 3c fa 80 44 3d a3 2f 01 3e 79 2b 4a bd
       0.0284185 0.047974564 0.12615828 -0.049357865
0002e0 b4 4e 96 3d 92 4a 4e bd bd a1 ce bb a6 ca da bb
       0.0733923 -0.050364085 -0.006305902 -0.0066769896
0002f0 20 e7 d7 bc a9 98 2e bc b1 8f 50 bd c9 75 59 bd
       -0.026355326 -0.010656514 -0.050918285 -0.053090844
000300 b8 fe 1c be 08 d8 58 3c 3d 18 3d 3d a6 a8 f0 3c
       -0.15331542 0.0132351 0.046165694 0.029377293
000310 db d7 c7 3d 14 52 42 bc 91 aa 2d 3e ff eb 2b be
       0.09757968 -0.011860389 0.16959597 -0.16789244
000320 9b d5 69 bd 44 42 9e 3d 48 52 37 3d 4e e8 1f bd
       -0.057088476 0.07727483 0.044756204 -0.039039902
000330 c2 dc c5 3c a6 03 3e bd cb 06 f6 bd 4f c9 86 3d
       0.024153117 -0.0463902 -0.120130144 0.06581365
000340 4e 37 be bc 3b 7b 8a 3d 18 d3 4e 3d 9a f0 c2 3d
       -0.02321973 0.067617856 0.050494283 0.09518547
000350 e4 82 bc 3d 8e c6 87 3d c4 77 2c bd a0 f0 54 3d
       0.09204653 0.06629668 -0.042106405 0.05198729
000360 ae 71 dc bd 80 11 95 bd 51 f3 86 3d 0d 10 51 bd
       -0.1076387 -0.072787285 0.06589378 -0.051040698
000370 8f 9f 23 3d aa 46 f3 3d cb ce 20 3c b1 61 51 3d
       0.03994709 0.118787125 0.009814928 0.051118556
000380 6d 41 f5 3b fd 65 c2 bb 7b b0 b6 3d 77 32 9e bd
       0.007484606 -0.005932568 0.0892038 -0.07724469
000390 80 72 49 bd df 65 e8 3a 3f a3 b1 3c 5d fc d1 3b
       -0.04918146 0.0017730555 0.021684287 0.006408258
0003a0 d9 91 aa bc 6a 89 ae bd 27 ab 0d bd fc f2 ab 3c
       -0.020821499 -0.085223034 -0.03458705 0.020989887
0003b0 d7 6f 8a bd 32 1f ba bd 3b fb 17 be c1 79 c7 bd
       -0.06759613 -0.09087981 -0.1484193 -0.097400196
0003c0 3e ee 29 be f2 b3 8a 3b 7c 8a 4b be 34 88 b2 3c
       -0.16594788 0.004232877 -0.19877046 0.021793462
0003d0 a4 a2 ac bd 36 e2 5c be a6 ad b7 bd ca 9d 9e bd
       -0.08429459 -0.21570668 -0.08968668 -0.077449396
0003e0 65 a1 41 3d 4c a2 3e 3b 63 69 5c 3d b4 70 fa 3c
       0.04727306 0.0029088436 0.053811442 0.03057132
0003f0 73 0d 6c 3d f8 b8 0b be b3 43 82 3d 56 15 cd 3b
       0.057630014 -0.13644779 0.06360569 0.006258647

ik_net.sequential_l_leg.2.bias f4 [128]
000000 4c c6 7a 3c 10 28 33 3b 7e c1 16 3d 5d e4 cc 3d
       0.015306067 0.0027337112 0.036805622 0.10004494
000010 d2 55 57 bc 4c 37 cf bc 07 88 25 3b 05 68 d3 bb
       -0.01314302 -0.025294922 0.002525808 -0.006451609
000020 ae 27 78 3c 08 74 81 bc b0 24 b7 bd 9c 64 a6 bd
       0.015146179 -0.015802398 -0.089425445 -0.081246585
000030 85 e1 d2 3d ad c3 98 3d 68 96 20 3e 5c da 57 3d
       0.10296921 0.07459197 0.15682375 0.052698478
000040 34 72 bc 3c 82 f6 d6 3c 66 6a 96 bd c5 e7 a8 3b
       0.023003675 0.026240591 -0.07344513 0.005154582
000050 46 e0 68 3d 6a 3d b5 3d 25 52 33 3d 8c 12 4d bd
       0.05685451 0.088496044 0.04377951 -0.050066516
000060 db b1 c0 3d 9f bb 29 3d 55 f5 16 3b 42 53 0e 3e
       0.09408923 0.041438695 0.0023034413 0.13898948
000070 d0 07 4d bc 6b 27 98 3d 1b e3 b6 bd e6 c6 64 3c
       -0.01251407 0.074293934 -0.08930036 0.013963437
000080 6f 10 4e 3d 89 26 ba bc 47 b4 f5 3d 42 dc f8 3c
       0.05030864 -0.022723453 0.11997276 0.030378465
000090 a1 04 d7 bc cb 33 ad bc 91 b7 8e 3d 88 22 60 bd
       -0.026247324 -0.02114286 0.06968606 -0.05472043
0000a0 00 9a 4c 3d 96 91 34 3d 1b c3 05 3e 47 d6 05 3e
       0.049951553 0.044084154 0.13062708 0.13070022
0000b0 3a 88 91 3c ff bc eb 3b 15 1b 89 3d 02 8f bd 3d
       0.017765153 0.007194161 0.066946186 0.09255792
0000c0 6e 0b 39 3d fc b9 ff bd 5a d5 b1 bd 32 98 a9 3d
       0.045176916 -0.124866456 -0.08683272 0.08280982
0000d0 7c d1 a7 bd 85 13 8f 3b 0d 51 a4 3c c7 c2 88 bc
       -0.08194253 0.0043663406 0.02005818 -0.01669444
0000e0 e7 12 34 3c 35 a9 25 3d 61 26 08 bd 6e dc 98 bd
       0.010990835 0.04044457 -0.033239726 -0.074639186
0000f0 50 70 dd 3d ad a9 9a 3c b7 fd b3 3d 5b 0e cb bc
       0.108124375 0.018879736 0.08788627 -0.024787119
000100 27 6b 33 bb e4 cc 99 3d f2 7f 6a bd c7 63 ff 3d
       -0.00273771 0.07509783 -0.057250924 0.12470203
000110 1f 2c 7f 3d a2 32 ff bc 87 8c cd 3d 4f 8f 30 3d
       0.062297937 -0.031152073 0.10036569 0.04310542
000120 b5 16 47 3d 98 1d 26 bd 01 c3 65 3d 68 78 94 3c
       0.04860564 -0.040555567 0.056094173 0.01812382
000130 3f 11 99 3d e3 10 b6 bd 9c 98 0a bd 43 44 22 3d
       0.074739926 -0.0888994 -0.033836946 0.03961588
000140 4c 60 29 bb 7a 5c 4a bc 93 fc 19 3c b3 e9 30 bd
       -0.002584475 -0.01235115 0.009398597 -0.043191623
000150 ca 85 8a bd 9a 95 e2 3c 4c dd 5d 3d 7f bd 38 bd
       -0.067637995 0.027659226 0.054166123 -0.045102593
000160 6c 83 3d 3d 2d 31 16 bc 45 17 37 3d 44 16 41 3b
       0.04626791 -0.009166998 0.044699926 0.0029462734
000170 d0 5e 04 3e 06 6e 9a 3d c7 ea e1 3d 27 51 3f 3d
       0.12926793 0.075405166 0.11031108 0.046708252
000180 86 c8 1a be 11 28 2a bd 9f fa bb 3d 34 35 ff 3c
       -0.15115556 -0.041542117 0.091786616 0.031153299
000190 17 95 df 3d b4 04 63 3c 4d 60 eb bb e3 2a 76 3d
       0.109171085 0.013856102 -0.007183111 0.060099494
0001a0 c7 3b 66 3d 50 1c 92 ba 74 54 12 be da 97 28 bc
       0.056209352 -0.0011147354 -0.14290029 -0.0102901105
0001b0 61 33 57 bd 66 f8 2c 3e d1 15 de 3d ca c3 da 3d
       -0.052539233 0.16891631 0.10844005 0.10681875
0001c0 86 f5 83 3d 15 f0 96 bd ee ed 21 3e 4f b5 eb 3d
       0.06443314 -0.07370011 0.15813419 0.11509191
0001d0 6c a3 8d 3d 1d f0 b5 bd 17 5e 77 bd a9 cd 52 3d
       0.06915936 -0.088836886 -0.060392465 0.051465664
0001e0 9b 60 f7 3c 02 c3 a4 3c 85 82 8f bd 37 11 9e bd
       0.030197432 0.020112518 -0.070073165 -0.07718127
0001f0 c5 2f 43 3d f6 9e 7b 3d d8 1e 89 bc dc 08 04 3d
       0.04765298 0.061430894 -0.01673834 0.03223501

ik_net.sequential_l_leg.4.weight f4 [24, 128]
000000 90 b1 a4 bd 0a 58 84 bd 01 ce 01 3e e2 ab a6 3d
       -0.0804168 -0.064621046 0.1267624 0.08138253
000010 02 47 6b bd 18 0e c9 bd fc 28 b8 3d 3e ed 79 3d
       -0.057440765 -0.09817141 0.08992192 0.061017267
000020 0b 58 f3 bd 4a 26 30 be 05 5d 04 3d f6 3b 05 be
       -0.11882027 -0.17202106 0.032315273 -0.13011155
000030 b3 13 fa 3c 7b d5 a8 bd 53 d1 4a 3e 4f d1 6b 3e
       0.030526971 -0.08243843 0.19806413 0.23029064
000040 68 e3 87 be 71 81 53 be 02 cb 46 be 7a 71 7d be
       -0.26540685 -0.20654847 -0.19413379 -0.24750319
000050 df d1 83 3d f4 5b 8f 3d d0 16 2c bc 8e a4 41 3d
       0.06436514 0.069999605 -0.010503486 0.047276072
000060 ea d9 91 bd 4e 72 01 be 00 9f 94 be 49 e6 25 be
       -0.07121642 -0.1264126 -0.29027557 -0.16201128
000070 b1 1e c1 bc 51 70 20 bd 12 78 a6 bd 9a d4 cf 3d
       -0.023574205 -0.039169613 -0.0812837 0.101479724
000080 a7 e2 30 be 34 e6 84 3d 4b 32 c6 3d 2b 14 40 be
       -0.17273961 0.0648922 0.09677561 -0.18757693
000090 b9 0e 7d bd 49 95 2d be 10 1d 14 be a5 6c 1c bc
       -0.06178162 -0.16951479 -0.14464211 -0.009547387
0000a0 26 d4 37 be bb c9 1d be 90 ed 3d bb 1e 36 cd 3c
       -0.17952022 -0.15408985 -0.002898071 0.02505022
0000b0 2f 6c 0a 3d ad 88 79 bd 29 4d 4c 3d 1d c4 fe bd
       0.03379458 -0.06092136 0.049878273 -0.124397494
0000c0 a7 ce cd bd e8 af 26 3d 5b 4d 57 bd f6 73 d8 bb
       -0.100491814 0.0406951 -0.052564006 -0.0066056205
0000d0 74 6b 45 be 03 35 4d bd 64 a3 17 be e2 06 64 bd
       -0.19279271 -0.050099384 -0.14808422 -0.055670626
0000e0 0d 9a 1d bd 29 3e 5c bb b2 f2 9e 3d c0 ee 23 be
       -0.038476992 -0.0033606386 0.07761134 -0.16009045
0000f0 a5 ec eb bd e4 90 98 bd 15 19 a6 bd 04 2a 4f 3d
       -0.11519746 -0.07449511 -0.08110253 0.05057718
000100 14 94 cf bc 81 bf 8f bd 7e c3 bb bd 62 60 b2 ba
       -0.025339164 -0.07018948 -0.091681466 -0.0013609047
000110 5a 09 a0 3d 15 8f b2 3d d5 7c 9f ba c5 e7 e2 3c
       0.07814284 0.08718697 -0.001216794 0.027698407
000120 94 59 9f 3d 5e 0c f3 3c ce a2 f8 bd 55 cd d0 bd
       0.077807575 0.029668983 -0.121404275 -0.10195414
000130 c0 d9 c3 bd 6c 86 8b be 8d e6 2e 3e 15 2f 30 bd
       -0.09563017 -0.27250993 0.17080136 -0.04301365
000140 65 f0 5b bc 43 32 53 bd 88 ca 5b 3d 75 fd b1 3a
       -0.013424014 -0.051561605 0.053659946 0.0013579564
000150 9f 61 25 bb d2 cb e5 bd a1 27 71 3d f3 d6 2e bd
       -0.0025235189 -0.11220516 0.058875684 -0.04268546
000160 d8 17 a2 3c ee ae cc 3c 1b ac 5d be 3d fa 11 3e
       0.01978676 0.024985757 -0.21647684 0.14255615
000170 12 c5 2d bc d6 bc ab 3d 51 09 d5 bd 48 48 67 3e
       -0.010606067 0.08385627 -0.104021676 0.22586167
000180 69 36 70 be b7 2e 0a 3e 4c 6d 5c bd 1e ca 00 be
       -0.23458256 0.13494383 -0.05381517 -0.12577102
000190 dc ed 0a be f1 6c 3f be 6f 8c 99 bd 4c a9 06 3d
       -0.13567299 -0.18693902 -0.07497489 0.032876298
0001a0 72 e7 5c 3d cb 0c 7e 3c 81 85 9f be cb 7b 10 be
       0.05393166 0.01550598 -0.31156543 -0.14109723
0001b0 12 55 0f bd 66 41 2c 3e 8d 4f 79 3e 2d 0a a7 bd
       -0.03499324 0.16821823 0.24346752 -0.08156238
0001c0 95 52 32 be 23 c3 39 bd 7e dd 7c 3d 48 a0 92 3d
       -0.17414315 -0.045352113 0.06173467 0.071594775
0001d0 3a a4 df bd ad 67 5f 3d 1b e6 b4 bd fa 5c 07 be
       -0.109199956 0.054542232 -0.08832952 -0.13219061
0001e0 fd e1 66 bd 0e 9e 84 3b 04 c4 cf bd c3 41 40 3d
       -0.056367863 0.004047162 -0.10144809 0.046937715
0001f0 c6 5a 9d be b5 ee 6a bd 84 4f 31 3d fb c0 8d bc
       -0.30733317 -0.057356555 0.043288723 -0.017303934
000200 32 f3 75 bd f8 a9 e1 bd b0 e4 39 3d b6 ca 9e 3d
       -0.060046382 -0.11018747 0.04538411 0.07753508
000210 bf 33 9e bd c6 11 20 bd f7 fa 75 3c f7 b9 3b 3b
       -0.077247135 -0.03907945 0.015013448 0.002864478
000220 1f 83 b4 bd 52 d8 b6 3c 44 56 ee 3d 94 cf a9 bd
       -0.08814072 0.022319946 0.116375476 -0.082915455
000230 78 e9 cd 3d c5 19 2d bd db 01 93 3d 26 9f b7 3d
       0.10054296 -0.042260904 0.07178088 0.08965902
000240 35 5b 83 3c e8 61 89 bc fe 00 0f be ac 1b 68 3d
       0.016034702 -0.016770318 -0.13965222 0.056667015
000250 87 f4 0e bd 8c 0f 47 3d 2a 31 23 3d 55 ae bf bd
       -0.03490117 0.04859881 0.03984181 -0.09359423
000260 f6 ae 01 3e 3f d2 0b 3c c1 0d 69 bd b8 15 9f bc
       0.12664399 0.008534013 -0.056897882 -0.019419536
000270 25 fb 8a bb f5 92 6e 3d 91 7a 57 bd 34 87 c7 bb
       -0.0042413645 0.058245618 -0.052607123 -0.0060891155
000280 ac 51 cc bc 6f 03 7a bc 2b 74 53 3d 20 0c 81 3d
       -0.024941288 -0.015259608 0.05162446 0.06301141
000290 aa 94 51 bd 5a 46 61 bd e8 98 9e 3c 34 f4 5c bd
       -0.051167168 -0.054998733 0.01936002 -0.053943828
0002a0 dd 08 b1 3d d8 cb 14 3d 0d e3 da 3d 36 65 ba bc
       0.08644269 0.036327213 0.10687838 -0.02275334
0002b0 22 dc c9 bc e7 0e 91 bc 15 b1 8d bc ff 18 ce bd
       -0.0246411 -0.017707301 -0.017296353 -0.100633614
0002c0 bf 8e fe 3c 3b 56 a5 bc 6a e6 7c bd 08 69 ab 3d
       0.031073926 -0.02018272 -0.061743177 0.083696425
0002d0 23 4b 05 bd 74 5d fc 3d 3c b6 d9 bd 4f 14 8e bd
       -0.03254236 0.12322512 -0.106304616 -0.06937467
0002e0 79 9b 8a bd 15 4b ec 3c 73 05 67 3d d3 7e 29 bd
       -0.06767935 0.028844396 0.05640168 -0.041380715
0002f0 70 a3 70 bc e5 91 eb 3c 58 37 de 3d 4c 1a 2f 3c
       -0.014687404 0.028756091 0.108504 0.010687422
000300 18 a0 e5 3c 05 e7 99 bd d6 eb cd bc a3 13 fc 3d
       0.02803044 -0.075147666 -0.02513687 0.12308433
000310 56 41 32 bd fc 1f 05 bd a2 4c 4b 3d 9a 9d 33 3d
       -0.04351934 -0.032501206 0.04963363 0.043851472
000320 37 f4 ed 3d d6 8f ac 3d 3d 06 50 3d f4 6e 8f 3c
       0.11618846 0.08425872 0.0507872 0.017508961
000330 75 8a ea 3c 96 7b 97 bd 0a df 03 3d 14 db 82 3c
       0.028630475 -0.07396619 0.03219513 0.015973605
000340 10 f5 54 bd 98 32 99 3d b3 6a 9d bd a2 65 d7 3d
       -0.051991522 0.07480353 -0.07686367 0.10517432
000350 a4 3c 0f be f6 a0 9f bd 7d a9 d3 bc a9 54 8e 3c
       -0.13987976 -0.07794373 -0.025837654 0.017374353
000360 2b 80 b4 3c 62 74 fd bc 10 df 85 bc a8 73 08 3e
       0.022033771 -0.030939285 -0.016341716 0.1332537
000370 05 7c b2 3d d5 af 6b bd cb bb 1e bd d9 89 c4 3d
       0.08715061 -0.057540733 -0.038753312 0.09596605
000380 62 05 7d bd a2 a0 cc 3c 64 74 c4 3d 4c 45 b7 3d
       -0.06177271 0.02497894 0.09592512 0.08948764
000390 54 b5 82 3d 7b e3 2c 3d 4d 09 21 3d 25 f7 ca 3d
       0.06382242 0.04220913 0.03931551 0.0991042
0003a0 3e 47 ba 3d 04 25 79 ba cd c1 09 be 6e bf 20 be
       0.090956196 -0.0009504112 -0.13452835 -0.15698025
0003b0 6c 8c 2b 3d b3 1d 24 3a 5c aa 88 3d c2 de 65 3c
       0.041881964 0.0006260529 0.066731185 0.01403016
0003c0 4e c1 54 3d a6 4b 48 bb c1 38 e7 bc c1 8f e7 3d
       0.051942162 -0.0030562668 -0.028225305 0.11306716
0003d0 9c fc 8e 3c 65 91 47 bd 29 d4 0a bc 49 2c bd 3c
       0.017454438 -0.048722643 -0.0084734345 0.023092406
0003e0 b4 16 25 3d 47 a4 be bd 3f f5 e1 bd 3a 87 f5 3c
       0.040304855 -0.09308677 -0.11033105 0.029971708
0003f0 06 05 8d 3b 53 c3 d3 3d 0b f2 df bd 5b 16 c4 bd
       0.0043035774 0.103399895 -0.10934838 -0.095745765

ik_net.sequential_l_leg.4.bias f4 [24]
000000 fe 82 09 bd 9c 08 59 3d f3 b2 b6 bc 84 6d c4 bd
       -0.03357219 0.052986726 -0.022302127 -0.09591201
000010 4f 48 b9 3c 33 3e 75 bd a7 23 33 bd a4 50 24 bd
       0.022617487 -0.05987377 -0.043735173 -0.040115967
000020 be 3c 78 3d 7d bb 0f bd d7 a2 20 3d 99 ef 69 bd
       0.060604803 -0.035090912 0.039217796 -0.057113264
000030 91 4c 60 3b a2 51 62 3d 66 f7 8f bd b8 66 c5 bc
       0.0034225325 0.055253632 -0.070296094 -0.024096832
000040 31 de b8 bd c6 c9 91 3c aa 5f 56 3c 46 d8 5e bc
       -0.09026755 0.017796408 0.0130843315 -0.013601368
000050 8b 07 24 3d 28 84 44 3d 63 fe bc 3b f0 27 53 3c
       0.040046256 0.047977597 0.00576763 0.01288794

ik_net.sequential_r_leg.0.weight f4 [128, 49]
000000 d0 d0 66 3c 3d 54 15 be 2f f8 19 be 3f 5d a1 bd
       0.014087871 -0.14582916 -0.15036081 -0.078791134
000010 b8 3f 44 be f9 f3 d5 bd f1 2b 17 be 28 1d d2 bd
       -0.19164932 -0.10446925 -0.14762856 -0.10259467
000020 24 05 04 3d f1 a9 54 bd bc 10 8a 3c ef 2f cc 3e
       0.032231465 -0.05191988 0.016853683 0.3988032
000030 35 82 d1 3d f7 f2 98 3d 2a 34 56 3d fd c0 ae 3d
       0.10229913 0.07468217 0.05229584 0.08532903
000040 2c 20 e9 bc e9 ff a9 bc 4c d8 eb 3b c5 05 7f 3e
       -0.028457724 -0.02075191 0.0071974155 0.24904545
000050 65 bc a1 bc 2f 2f 01 3e e1 a3 83 bc 23 f8 2a 3d
       -0.019743154 0.12615655 -0.016069354 0.041740548
000060 ee 34 7a 3d 60 67 d9 3b 28 9e 9a 3d a4 6d 40 be
       0.061085634 0.0066346377 0.07549697 -0.18791825
000070 07 bc db 3d c0 00 62 3d 11 02 a0 3c 86 d3 b7 3c
       0.10729223 0.055176497 0.019532235 0.02243973
000080 01 7d 66 b9 3f be 4c bd 30 50 06 3d ef 05 a7 3c
       -0.00021981077 -0.04998612 0.032791317 0.020388572
000090 a0 d9 f6 3b da ce de bd d1 91 f4 3d ed ab 09 3e
       0.007533267 -0.108792976 0.11941875 0.1344449
0000a0 d2 c7 16 3e 6e 9a bc bd ea 5e a6 bd 6f 55 07 3d
       0.14724663 -0.092091426 -0.08123572 0.03304046
0000b0 0b b9 d5 ba 21 a3 33 be e1 34 7a bd f7 2d 1d bd
       -0.0016305757 -0.17542697 -0.061085586 -0.038373914
0000c0 1b 99 89 3e a6 72 ee bc fc ae 47 3d 47 2c d8 bd
       0.26874623 -0.029107403 0.048750862 -0.1055532
0000d0 b3 31 0e be d8 cf 0f 3e 85 fa 0e 3e 57 32 88 bc
       -0.13886146 0.1404413 0.13962753 -0.016625566
0000e0 2c c0 15 3f 07 a0 80 3d e9 23 a6 bd b3 0b 8a 3d
       0.58496356 0.06280523 -0.08112318 0.06740513
0000f0 a0 00 16 3d 19 52 11 be 6c d5 86 3c a9 6f 91 bc
       0.03662169 -0.14191474 0.01645919 -0.017753439
000100 b4 ef 6f bb 2d 79 10 3e 7a 93 a5 3b 4b 0c 77 bc
       -0.003661138 0.14108725 0.005052981 -0.0150786145
000110 02 79 e7 bc a0 9d a3 bc 60 80 02 3d 57 7e 85 bd
       -0.028255943 -0.019972622 0.03186071 -0.06518238
000120 80 33 7b 3d 0b da 8d bd 6a 73 2c 3d 46 42 1a 3d
       0.06132841 -0.06926354 0.042102255 0.03766086
000130 1d 4f 40 3d 80 3f 0e 3d c5 6b a5 3d 54 14 96 3d
       0.04695045 0.034728527 0.08077196 0.07328096
000140 a2 d9 a4 3c 8a 1e 68 3c 96 5a 79 bc ed 4c c3 3c
       0.020123307 0.014167437 -0.015219351 0.023840392
000150 e6 ee 42 bd 1c 44 fa 3c c6 e6 db bd 2f ca 21 3e
       -0.047591113 0.030550055 -0.10737376 0.15799783
000160 95 4f b8 3d 00 f2 62 3d ca cc d4 3c ad 0f d7 3d
       0.08999554 0.05540657 0.025976557 0.10501037
000170 cb ee e6 3d 4b 96 02 3e f3 39 1f be 70 90 9d bd
       0.11276015 0.12752645 -0.1554945 -0.07693565
000180 6b 66 37 be 32 30 3a 3e 19 e8 0c 3d da 29 9c 3d
       -0.17910163 0.18182448 0.034401033 0.0762517
000190 2e 5f 7b bb 4b 0d eb bd 8e fd 66 3d fb a1 53 bd
       -0.0038356292 -0.11477145 0.056394152 -0.05166815
0001a0 32 62 b5 3d c9 b9 bf bd fe 12 ba 3d 11 63 a0 bc
       0.0885662 -0.093616076 0.09085654 -0.019578489
0001b0 8c e9 c8 3d 47 5e f9 39 d1 59 b0 bd bc 81 bd 3d
       0.098101705 0.00047563223 -0.08610881 0.092532605
0001c0 b4 5e 6e bd cf 8b 9d bd 50 7b bc bd f5 d6 a3 bc
       -0.058195785 -0.07692682 -0.092032075 -0.01999996
0001d0 b4 7d 00 3e 95 0b 33 3e 12 0f 22 3d 05 f7 5b bc
       0.12547952 0.17484887 0.039565153 -0.013425593
0001e0 1f e4 d5 bd 36 79 d0 bd 6d 42 ae bd 96 b2 79 bb
       -0.10443901 -0.10179369 -0.085087635 -0.003810083
0001f0 cf bd ba 3d 35 26 ea 3d 74 f1 ad 3d 0c 0b 00 bd
       0.09118234 0.11433069 0.08493319 -0.031260535
000200 39 57 a1 3d 09 69 61 3d 8f 00 b3 3d d2 c2 2b 3d
       0.078779645 0.05503181 0.08740341 0.041933842
000210 dc e9 85 39 75 55 64 3c 51 39 35 bc 3d a1 8c 3c
       0.00025541976 0.01393639 -0.011061029 0.017166728
000220 2e a8 47 bd 0d 69 a7 3d 2f 9e 1e bd ab d7 35 bd
       -0.048744373 0.08174334 -0.038725074 -0.04439513
000230 30 e4 4c 3e 9e 68 f2 3c cf ea 32 bd 02 5a 66 be
       0.20008922 0.029590901 -0.043680962 -0.22495273
000240 5e 77 4a 3d f5 f6 06 3d a6 68 ab bd dd a9 99 be
       0.049430244 0.03295036 -0.083695695 -0.30012408
000250 f4 b8 d5 bc c5 db 21 be d8 c4 ac be 90 4d 58 be
       -0.02608917 -0.15806492 -0.3374393 -0.21123338
000260 44 8a 18 be cc 11 6e be 14 c1 5c be 43 86 0e 3d
       -0.14896494 -0.23248976 -0.21558028 0.03479601
000270 8e 0c f6 3d 4f 65 19 be c2 d8 5f 3d 17 fd ab bc
       0.12014113 -0.14980052 0.054650076 -0.020994706
000280 65 94 6e bd 51 b7 45 bd 09 a2 39 3b bb 09 d9 3d
       -0.05824699 -0.048270527 0.002832534 0.10597559
000290 16 02 1c 3d b2 d4 94 3d 9b 55 fd bd b6 96 b0 3d
       0.038087927 0.07267131 -0.123698436 0.08622496
0002a0 36 ac 5a bd 5c 5f f9 bc c9 08 06 bc 02 8f c5 bb
       -0.05338689 -0.030440979 -0.0081808055 -0.0060290108
0002b0 54 3a a3 bd 05 28 9e 3c 94 17 f8 bc e2 55 c8 3c
       -0.079701096 0.019306192 -0.03028468 0.024455015
0002c0 4e d1 8e 3a dd dd 76 bd c3 e7 23 3d 61 7e c8 bc
       0.0010896118 -0.06027018 0.040015947 -0.024474325
0002d0 fe 29 0f 3c 02 94 64 3c 3a 05 8d bc 0d ae d4 3c
       0.008738039 0.013951303 -0.017214406 0.0259619
0002e0 c8 f9 ea bd 55 6f a6 3c e5 bb 30 bd 95 36 b3 3d
       -0.11473423 0.02031676 -0.04314794 0.08750645
0002f0 63 4e b3 3d 8d 99 da 3d d5 21 f1 bd 3d 13 ae bc
       0.087551855 0.10673819 -0.11774031 -0.021249408
000300 ca 65 f1 3d 28 72 79 3e ac 73 7c 3c ec c0 44 bd
       0.11786993 0.24359953 0.015408438 -0.048035547
000310 50 f8 44 bb b5 a1 43 be 75 27 37 be 4c 6d c6 3d
       -0.0030055232 -0.19104655 -0.17886145 0.096888155
000320 e7 63 23 be 9b ba da bd 69 21 14 bc ab 40 a1 bb
       -0.15956078 -0.106801234 -0.009041169 -0.004921039
000330 57 83 1e 3e d4 fb 25 39 80 ac 28 3e 4b d7 4f 3e
       0.1547979 0.0001582944 0.16472054 0.20296971
000340 f9 f1 2f 3c 61 d9 82 bd 7e 77 8c bc e8 17 81 bd
       0.010738843 -0.06389118 -0.017146822 -0.06303388
000350 38 bf df 3d f3 94 ff bd 58 40 0e 3e 64 14 6f 3d
       0.10925144 -0.12479582 0.13891733 0.058369055
000360 21 92 2d bd dd 10 a1 3d ce 18 9a 3d 7a 35 ea bd
       -0.042375688 0.078645445 0.07524262 -0.11435981
000370 f9 62 98 bb 4f 52 81 bd 23 1e 76 be 89 08 93 bd
       -0.0046504703 -0.06314527 -0.24034934 -0.07179362
000380 98 52 b3 3d d5 6b 9b 3d a9 f7 b9 bc aa e5 93 3d
       0.08755988 0.07588927 -0.022701101 0.07221539
000390 72 95 95 3b 6b da d1 b8 8f bd ab 3d 88 9f 94 bd
       0.0045649344 -0.0001000658 0.08385765 -0.07256991
0003a0 63 9f 6c 3d 27 66 08 be 08 ca f6 bd 53 52 8c bc
       0.05776919 -0.13320218 -0.12050253 -0.017129099
0003b0 7a 03 91 bc 7b e8 80 3d 72 23 8b be 48 ec 35 be
       -0.017701853 0.06294342 -0.2717548 -0.17765915
0003c0 2e c2 0d bc f4 a3 a0 bd ac e4 c6 3d 5b ec e4 bd
       -0.008652253 -0.078437716 0.097115844 -0.11177894
0003d0 fe fc a9 3e 95 88 aa 3e 19 c4 27 be d5 9e 93 bc
       0.3320083 0.3330733 -0.16383399 -0.018020073
0003e0 24 b4 81 3e 81 34 1e be df 28 0b 3e d9 19 30 3e
       0.2533275 -0.15449716 0.1358981 0.1719736
0003f0 89 d5 b3 be cb 56 be 3d 41 f3 b2 bd 5d 7a 5a bd
       -0.35123852 0.09293898 -0.08737803 -0.05333935

ik_net.sequential_r_leg.0.bias f4 [128]
000000 7d b5 b8 3d ce 42 60 3e ed a6 8a 3d 7f f6 d6 3c
       0.09018991 0.21900484 0.0677012 0.026240585
000010 b8 98 c7 3c 3b 02 7e bd c6 57 29 bd b0 aa 0e 3e
       0.024364814 -0.062013846 -0.041343473 0.139323
000020 af 32 b4 bc b1 6c d3 bc da 66 e6 3d 35 7b 05 be
       -0.021996824 -0.025808664 0.11250086 -0.13035281
000030 22 c4 3b bd b8 39 58 bd f4 5d b5 3d 74 af 8c bd
       -0.045841344 -0.05278942 0.08855811 -0.068694025
000040 2b 7c 92 3d 9c 01 97 bd fe a0 02 be aa d0 fc 3c
       0.071525894 -0.07373354 -0.12756726 0.030861218
000050 70 32 1b be 8e 58 1d be e4 1b 31 3e 0e d1 8b 3e
       -0.15155959 -0.15365812 0.17295796 0.27307934
000060 c1 4c 8c bd fd 61 4f bd e3 74 29 b9 0a f2 be bd
       -0.06850577 -0.05063056 -0.0001616064 -0.09323509
000070 e6 de 52 bd 74 ba 9a ba 39 a9 90 3d a2 f2 2f 3e
       -0.051482104 -0.0011804835 0.07063527 0.17182401
000080 ce ab 7f 3d 06 dd 1b 3d ca 0a 7a bd ff 82 36 be
       0.062419705 0.03805258 -0.061045446 -0.17823409
000090 63 a2 8d 3d 6b e3 a7 bd 60 34 be bd b0 77 17 3e
       0.069157384 -0.081976734 -0.092873335 0.14791751
0000a0 02 be 01 bd 9e f0 cf 3d a8 d1 d6 3c 2a 81 f4 3b
       -0.031675346 0.10153316 0.026223019 0.0074616866
0000b0 d9 a1 79 3d 3c 15 bd 3d b4 ac 1d 3d f2 6e 36 bd
       0.060945366 0.09232566 0.03849478 -0.0445394
0000c0 33 7d 01 bd 5c d5 dc bd f0 26 d7 3d 63 73 7a 3d
       -0.03161354 -0.107828826 0.105054736 0.061145198
0000d0 2b bc db 3c c5 23 0d 3e 73 27 73 3d aa 8d dd 3c
       0.026823124 0.13783176 0.059363794 0.02704509
0000e0 8f 32 10 3d e3 02 50 3b 06 e5 a1 3c 4a 89 52 3e
       0.035204466 0.0031740002 0.019762527 0.20560184
0000f0 b7 3c db bd 23 b8 8a bc b8 97 10 ba 95 c9 e0 bd
       -0.1070494 -0.016933506 -0.0005515772 -0.10975949
000100 d9 1a e3 39 c0 16 23 be 95 a1 af 3d fb 9a 60 3c
       0.00043316817 -0.15926647 0.08575741 0.013708825
000110 ae 20 4f bb 55 25 bc 3d d7 96 8c bd 73 c9 18 be
       -0.0031605172 0.09186808 -0.06864708 -0.14920597
000120 55 4d 21 be 03 02 d0 bd ca f7 ca bd 78 41 21 3e
       -0.15752156 -0.10156634 -0.09910543 0.1574763
000130 b8 0a 23 3b 1a d8 a3 3e f9 cd e6 3d 2c aa 4c 3b
       0.0024878215 0.3200081 0.11269755 0.003122936
000140 17 a3 11 3e 57 73 cf 3d d7 00 40 3d 42 5e ef 3d
       0.1422237 0.10129421 0.0468758 0.116879
000150 44 3e 8a 3e d9 21 17 be 00 9c 48 3b ec 2a a1 bd
       0.2700063 -0.14759006 0.0030610561 -0.07869515
000160 8b cc d0 3d f3 a1 0d 3e 2c 60 39 3d a3 85 8d bd
       0.101952635 0.1383131 0.045257732 -0.06910255
000170 fe ed c0 bd c2 50 46 3d 21 88 eb 3c 0c 32 5e 3d
       -0.094203934 0.04841686 0.028751435 0.054246947
000180 43 a4 dd bd c5 5b 06 bb 1b 02 b0 bd b3 7c 9f 3c
       -0.10822346 -0.0020501476 -0.085941516 0.01946864
000190 46 cd aa 3c ab ef 0e bd 21 69 3f 3d bf fe ee bd
       0.020849835 -0.034896534 0.046731118 -0.11669683
0001a0 2d 15 99 bd e1 7e 14 be b6 1d c7 3d 37 c2 75 3e
       -0.07474742 -0.14501525 0.09722464 0.23999868
0001b0 21 95 40 bd 68 67 99 3d a3 04 15 3e c2 7a ee bc
       -0.04701722 0.07490426 0.1455255 -0.02911127
0001c0 b3 01 50 3d bd fe 9c 3d 20 ef 0e bd a7 a8 da ba
       0.05078287 0.07665775 -0.034896016 -0.0016682342
0001d0 a9 8d de 3d 1e 33 a9 bc 22 5c 8b 3d 14 77 1b 3d
       0.10866863 -0.020654257 0.06804682 0.03795536
0001e0 dd fc 18 be 3c 53 51 3c 04 76 a2 bd de 7e 00 bc
       -0.1494021 0.012776192 -0.07932666 -0.0078427475
0001f0 86 53 f6 bb 86 a9 a8 3d fb 90 fd 3b d9 ea 2e 3e
       -0.007517281 0.08235459 0.0077382303 0.17081775

ik_net.sequential_r_leg.2.weight f4 [128, 128]
000000 85 f0 12 3d f3 47 7d bd 3e 46 20 3b 6a 61 f4 bb
       0.03587391 -0.061836194 0.002445593 -0.0074579017
000010 4c 55 61 3d bd a2 a5 3d 98 27 07 3d 81 dc 89 3d
       0.055012986 0.080876805 0.032996744 0.06731511
000020 fc 9e 73 3d 93 18 ae bd 18 b7 b9 3d 25 0a 9a 3d
       0.05947779 -0.08500781 0.090681255 0.07521466
000030 4b 51 09 3c 86 60 5a 3d 29 cb 22 bd 3e d1 db 3c
       0.008381198 0.05331471 -0.03974453 0.026833173
000040 96 3f 95 3c 11 ff 0b 3e f6 6e ec bc 9b a4 69 3d
       0.018218797 0.13671519 -0.028861504 0.057041746
000050 89 1d 1f bd 20 bd 25 bc 55 02 14 3d ec 60 33 bd
       -0.038846526 -0.010115892 0.036135036 -0.043793604
000060 59 19 cd bd 16 57 c0 bd 75 b1 fa 3d 80 ad b4 3b
       -0.100146 -0.0939161 0.122408785 0.005513847
000070 04 f4 17 3d 9e 9d 61 3d b6 3b 86 bd 4c e8 c7 bc
       0.037097946 0.055081956 -0.06554358 -0.02440276
000080 ef b6 8b 3d 0d eb 31 3e 2c 66 94 bd 13 0c 81 3d
       0.06822001 0.17374821 -0.0724605 0.06301131
000090 15 d4 4c 3e 86 93 09 3e a7 df 66 bb 04 22 55 3b
       0.20002778 0.13435182 -0.0035228522 0.0032521496
0000a0 13 a1 e0 3c 98 7d a6 3c b1 4b 0c 3c d1 6d 04 be
       0.027420556 0.02032356 0.008562968 -0.12932517
0000b0 ad e3 72 3c 9c 43 7f bc 2b 67 5f 3d 87 a0 dd 3c
       0.01482479 -0.015580084 0.054541748 0.027054084
0000c0 f3 7a 98 3d 39 bf f7 3d 9b b8 20 bd 4e b4 b9 bd
       0.07445326 0.1209702 -0.039238553 -0.090675935
0000d0 dd e6 66 3d 78 84 f2 3c 5a db 35 3a c4 ab 14 bd
       0.056372512 0.029604182 0.0006937288 -0.03629662
0000e0 6d de 95 bc 19 db 23 bd 03 4b ee 3d 31 7e 1d bd
       -0.018294537 -0.04000387 0.11635401 -0.038450424
0000f0 a5 75 02 3e ba a1 6b bd 64 2f 8e 3c 2f 01 c7 bc
       0.1274019 -0.05752728 0.017356582 -0.024292557
000100 69 da 0a bd e9 1a c0 bc 81 54 8d 3d 17 44 71 bd
       -0.0338997 -0.023450332 0.069008835 -0.058902826
000110 35 32 1b 3c bb f5 8f 3d dd 04 b8 bb 68 18 cc 3d
       0.0094724195 0.07029291 -0.005615814 0.099655926
000120 0f 81 8f 3d 83 0e 98 bd f4 84 f2 bc e3 b3 1c bd
       0.07007038 -0.07424643 -0.029604413 -0.03825749
000130 8b 2c 47 3b f4 ad 03 bb 9f ca 9f bb d3 0e a4 bc
       0.003039154 -0.0020092698 -0.0048764492 -0.0200266
000140 8f be 01 3e 3c 85 dd bc a0 0d fc bd 77 41 44 3d
       0.12670349 -0.02704107 -0.12307286 0.047913995
000150 9e d1 3f 3c 60 62 70 3c e1 79 b5 bd 5f c3 a1 3d
       0.0117076915 0.014671892 -0.08861137 0.07898592
000160 09 81 8c 3c f3 fa b5 bc be 1a 63 3d 90 5d 09 bd
       0.017151373 -0.022214388 0.055445425 -0.033536494
000170 9a a2 b0 3c 00 c9 43 3c 48 3a 97 bd dd 08 13 be
       0.02156191 0.011949778 -0.07384163 -0.1435885
000180 2f b2 ef 3d 45 5c c0 bc 99 d3 7b bd cb d7 8e bd
       0.11703908 -0.023481498 -0.061481092 -0.06974753
000190 73 da 10 3d f1 d2 0f 3d 03 d8 18 be 4f 7a 0d 3d
       0.03536458 0.03511328 -0.14926152 0.03454047
0001a0 52 b0 17 3e 49 bf 35 bb 88 a0 48 bd c2 fd aa 3d
       0.14813355 -0.0027732423 -0.04898122 0.08349182
0001b0 f0 9f 28 bd 95 7e a6 bd 0a ea 9b bd 0f 32 9a bd
       -0.041168153 -0.08129612 -0.07612999 -0.07529079
0001c0 27 b6 b3 bd 7c da 00 be 0b 19 47 3d f2 a4 bc 3c
       -0.08774977 -0.12583345 0.048607867 0.02302787
0001d0 f4 37 89 bd ac f5 19 bc 11 23 98 3d a1 de 4f bc
       -0.06700125 -0.009396952 0.074285634 -0.012687356
0001e0 72 43 0a 3e 5d bb 8e bd 64 64 3d bd ea 63 04 be
       0.13502291 -0.069693305 -0.046238318 -0.12928739
0001f0 95 8a d8 3d ed 85 aa 3c 12 58 d1 3d 52 28 e6 bd
       0.105733074 0.020815814 0.10221876 -0.11238159
000200 07 ab 53 3d 25 8f 32 bd 55 ed 46 3c 65 37 b8 bc
       0.051676776 -0.043593545 0.012141545 -0.022487352
000210 4d 90 3d 3d c1 93 84 3d 6f d3 79 bd 10 35 02 3e
       0.046280194 0.06473494 -0.060992654 0.12715554
000220 1d 53 8a 3d 27 90 a2 bc 32 27 bf 3d 79 f2 96 3d
       0.06754134 -0.019844128 0.09333648 0.07370467
000230 45 6e 83 3d 61 4b b2 3c a8 db eb bb aa 19 be bc
       0.064175166 0.02176446 -0.007197816 -0.023205597
000240 42 e9 1a bd fc 3b 90 be 78 ed b9 3b 64 3b db 3d
       -0.03782011 -0.28170764 0.0056740604 0.10704687
000250 dc 71 1f be 02 69 37 bd 55 0b 7c bd d1 63 38 3d
       -0.15570778 -0.044777878 -0.061534245 0.045017067
000260 06 80 3d bd 2c 1a 39 3e 61 b2 19 3d 27 84 08 3c
       -0.04626467 0.1807639 0.03752363 0.008332289
000270 42 e6 9d bd bb 6a c6 3c ce 98 a0 bc fe 9a cc 3d
       -0.07709934 0.024220815 -0.019604113 0.099905
000280 35 63 04 bd ac 1b c3 bc 81 e4 1b bd 2e dd 8e bc
       -0.032321174 -0.023816906 -0.038059715 -0.017439451
000290 8a 9e 59 bd af e5 e2 3d 31 5f 30 3d 59 ef 8d 3d
       -0.05312971 0.11078965 0.04305953 0.069304176
0002a0 d4 f9 7c 3d 51 86 4c 3d 23 af 84 3d ad 1e 20 bd
       0.061761692 0.04993278 0.06478717 -0.039091755
0002b0 ae 19 71 3d 9f 0b 4e bd 08 46 20 bc 9a a7 6d 3d
       0.05886238 -0.05030405 -0.009782322 0.058021165
0002c0 28 fc 4a be 90 04 87 bd 7e 01 6a 3d c1 47 7f bd
       -0.19822752 -0.06592667 0.05713033 -0.06232429
0002d0 f7 76 d0 3c 56 3e 60 bd 4f f6 b1 bc d8 6d 26 bd
       0.025447352 -0.05474695 -0.021723894 -0.0406321
0002e0 de 74 89 bd 1d ad 11 3c db 6e 45 3d 2a ca 7c 3d
       -0.06711744 0.008891371 0.048201423 0.061716236
0002f0 7a 0a 23 bd aa 6c 0c be 33 96 23 bc 2c 2e 3b bd
       -0.039804913 -0.13713327 -0.009984541 -0.04569833
000300 80 57 21 bd cb 11 0b 3c c1 ec e5 3c 2e b6 d8 3c
       -0.039390087 0.008488129 0.028066995 0.026454058
000310 39 19 dd 3c a7 66 84 3d ad a8 3c bd de e5 4e bc
       0.026989566 0.06464892 -0.0460593 -0.012628047
000320 82 68 9b bd 4e 36 65 3d f4 16 c2 3d a4 cb 49 3d
       -0.07588293 0.055959992 0.09477034 0.049266472
000330 e4 d5 d4 39 5e 0d 08 3d 54 8b 5a 3d b1 27 14 3d
       0.00040595152 0.033215873 0.05335553 0.036170665
000340 b4 9c a9 3d fa 4b 6c bc f6 96 3c bd bd 36 e8 3d
       0.08281842 -0.014422411 -0.046042405 0.113385655
000350 a5 31 0f 3e 8b f5 4f 3c cd ed ff 3b 3f 1e 95 3b
       0.13983782 0.012692819 0.0078103305 0.0045507248
000360 0e 9e 88 bd 2e 24 19 bd da 56 d2 bd a0 86 a6 bd
       -0.066707715 -0.03738802 -0.10270472 -0.081311464
000370 89 53 92 bd e6 85 f3 3c 3b 11 57 bd 21 68 bf 3c
       -0.07144839 0.029726934 -0.052506667 0.023365082
000380 b3 35 25 3d 2b 64 e1 bc 35 8f 1c bc 20 da ab bd
       0.040334415 -0.027513584 -0.009555628 -0.083912134
000390 e8 8b 35 bd 57 bf c3 3b 72 98 34 bc bb a3 bd bd
       -0.044322878 0.005973737 -0.011022674 -0.09259745
0003a0 d9 80 e1 bd 94 d3 33 bf 5a 64 cc 3d 82 b8 ab bc
       -0.11010904 -0.7024472 0.09980078 -0.020962004
0003b0 26 c6 a7 3d e4 fa 47 3c a2 ef be bd 06 db b5 3d
       0.08192091 0.012205813 -0.0932305 0.08879666
0003c0 58 b9 2f 3c 4c 7a de bc 05 11 f7 3c 1e bc 83 bd
       0.010725342 -0.027157925 0.030159483 -0.06432365
0003d0 3e 45 78 3d 44 a5 39 3d d0 ac eb 3c 23 53 f1 3d
       0.06061291 0.045323625 0.028768927 0.11783435
0003e0 00 9f 07 3c 92 54 6f bc 2b a7 03 bd f3 89 59 3c
       0.008277655 -0.0146075655 -0.032141846 0.013277519
0003f0 20 c4 06 3d 85 ee c2 bc d1 67 7f bd 65 15 58 3c
       0.032901883 -0.023795376 -0.062354866 0.013188695

ik_net.sequential_r_leg.2.bias f4 [128]
000000 cf 28 bf bd 3f 84 b7 3d 62 48 1d 3a c6 cc cd bc
       -0.093339555 0.08960771 0.00059998606 -0.025122058
000010 e7 53 1e bd dc 55 bf bc 09 37 af 3d 49 0c 6b bd
       -0.038654234 -0.02335637 0.08555419 -0.057384763
000020 84 fa 4e bd c9 e9 90 bd 25 6f 29 3d ae dc a3 3d
       -0.05053188 -0.07075841 0.04136576 0.08001076
000030 ee 83 e6 bc 53 b0 13 3d 53 08 9d 3d 9f 9d 74 bd
       -0.02813908 0.036056828 0.07667603 -0.05972063
000040 3a a6 1f bd 85 ca 2f 3c e5 c9 82 bd 08 d6 c0 ba
       -0.038976885 0.010729437 -0.063861646 -0.0014712224
000050 a1 35 10 3e e1 64 82 bc 75 66 c5 3c b1 6d bc bd
       0.14082958 -0.015917243 0.024096707 -0.092006095
000060 df 16 2f bc 79 d1 06 3e 18 09 ee 3d 40 9f 5f 3d
       -0.010686605 0.13165845 0.11622828 0.054595232
000070 99 92 1f bb ea ae 63 3d c1 35 b9 3c 02 99 68 3d
       -0.0024348854 0.055586733 0.02260864 0.056786545
000080 d9 43 16 3d 6e f2 36 3d 08 20 bf 3c 13 f0 13 bc
       0.0366858 0.044664793 0.023330703 -0.009029406
000090 d9 ec 0f 3c ee ef 9b bc d9 94 6a 3d 9f 31 eb 3c
       0.008784496 -0.019035306 0.05727086 0.028710185
0000a0 ea 2e 81 3d 51 f7 be 3c 72 31 1e bd 33 2f 7f 3b
       0.06307776 0.023311289 -0.038621373 0.0038938045
0000b0 4b 24 c9 bd f9 e5 9e 3d 6a 72 27 3d b1 ec 6b 3d
       -0.098213755 0.077587076 0.040880598 0.057598773
0000c0 c1 5e 6b bd f6 49 6d bd e0 f3 b7 bc 48 cc 53 bd
       -0.05746341 -0.057931863 -0.022455156 -0.05170849
0000d0 c9 f4 95 bc 9e 50 b9 bc 14 24 9c bd e0 0a 4a bd
       -0.0183052 -0.02262145 -0.07624069 -0.049326777
0000e0 2f 5a 49 bd e6 1c 4a 3d 4b 79 f7 3d 68 ff e2 bb
       -0.04915827 0.049343966 0.12083682 -0.0069274195
0000f0 f5 38 b2 3d 78 d0 92 bd cd e5 24 3d be ce ef 3c
       0.0870227 -0.071686685 0.040258218 0.029273387
000100 ca 1f 2e 3d 59 89 8f 3c 71 8f eb 3d d2 ac a0 bb
       0.042510785 0.017521547 0.11501969 -0.0049034143
000110 79 2a d5 3d 61 65 d2 bc 84 6a 27 3d 4e 24 3c 3d
       0.10408492 -0.025683107 0.040873066 0.04593306
000120 9d f9 02 3d 43 64 21 3e 3e 5c 68 3d f2 3a 5e 3d
       0.03197633 0.15760903 0.056728594 0.054255433
000130 34 ea 63 bd 72 07 4d 3d 16 7c a5 bc bb 2d 3c 3d
       -0.055643275 0.05005593 -0.02020077 0.04594205
000140 4e ce ab 3d a7 3b 95 39 d0 50 27 3d 6d 7e 87 3d
       0.08388959 0.0002846394 0.040848553 0.06615911
000150 f7 79 8c 3b 7a 6f da bd 71 e6 cd 3d 94 dc 24 3d
       0.0042870003 -0.10665794 0.10053719 0.040249422
000160 7b 33 25 3e 12 a0 58 3c 5f 77 2e 3d 8a be d3 bc
       0.1613292 0.0132217575 0.04259431 -0.025847692
000170 70 7c 80 3c af 00 5f bd 97 1a 9e 3d df 2f e2 3c
       0.015684336 -0.05444401 0.07719915 0.027610717
000180 43 63 87 bd 40 ca a2 bc 36 90 a4 3d c7 18 ad bd
       -0.066107295 -0.019871831 0.080353186 -0.084519915
000190 7c 35 b6 bc 55 cf 60 bd 11 f0 cd bc e6 e5 44 3d
       -0.0222423 -0.054885227 -0.025138887 0.04807081
0001a0 f5 fa 50 3d d6 77 22 3e 16 40 59 3d 04 ad 0c 3d
       0.05102058 0.15866026 0.053039633 0.034344688
0001b0 b0 8f 4f bd dd 59 57 3c c3 a2 fc bc 27 d6 1f 3d
       -0.05067414 0.013143984 -0.03083933 0.03902259
0001c0 2f f8 f1 3a c9 8e 27 bd 88 83 08 bd 64 34 0c bd
       0.0018460805 -0.040907655 -0.033328563 -0.03422965
0001d0 50 8c 46 bd b2 1b a4 bd 51 54 71 3d fc 6c 77 3c
       -0.048473656 -0.08013095 0.0589183 0.0151016675
0001e0 c4 75 bb 3d ed e8 a4 bc 52 de fd 3d 79 55 5c 3d
       0.091533214 -0.020130599 0.1239592 0.05379245
0001f0 c6 3c 84 bd 72 76 f2 3c 84 f1 4d 3d 46 27 bb bc
       -0.06456904 0.029597495 0.050279155 -0.022845875
