python/models/model_dancedb/ik.pt (torch, 447771 bytes, 24 tensors)

ik_net.sequential_l_leg.0.weight f4 [128, 49]
-0.037258666 -0.073698506 -0.009203949 -0.088212185 0.0629166 -0.12753065 0.13832094 -0.11184255
-0.08370532 -0.09305882 0.12631941 0.058412895 0.109763324 0.024533287 -0.030230248 -0.10627247
-0.059847027 0.035713803 0.021542931 0.058820438 -0.09708655 0.05272833 0.035227932 0.027924057
0.009688648 -0.05962177 -0.13846354 -0.024075326 0.010849603 -0.11749143 -0.110351294 0.119944826
-0.1227144 -0.010683732 0.0266704 0.041976795 0.053856406 0.004871725 0.0012435891 0.004478315
0.020772388 0.09560811 -0.12611273 -0.03416136 0.020403158 -0.0067088725 0.13090615 0.044532616
0.06041621 0.00013610555 -0.0657821 0.10303704 -0.029282592 0.054265182 0.1103257 0.0057304273
-0.073660314 0.000801282 -0.035934214 -0.06551373 -0.13703085 -0.08587952 -0.04580242 0.0033927613
0.070496164 0.0047589405 0.06827988 -0.13408446 0.020497587 0.17438939 -0.036715925 0.09459419
-0.012748955 0.02658713 0.12566854 -0.070533365 -0.07386018 -0.002054231 -0.13554047 -0.1269357
0.056608684 -0.030799769 0.0075072683 -0.010956319 0.062442165 0.015318392 0.002875942 0.021555306
-0.042595666 0.102846846 -0.019731674 -0.27274433 -0.14268401 -0.10553896 -0.023744566 -0.035319917
-0.15803264 0.08704687 0.034792583 -0.057058666 0.01004276 -0.14761151 -0.028056204 -0.14925885
0.13263912 -0.15835908 0.009768793 0.13668656 -0.053097352 0.025006497 -0.047325432 0.06724273
0.05343052 -0.034885634 -0.072348386 -0.16070591 -0.06857281 -0.046992205 0.047299575 0.06791644
-0.078254394 -0.026669096 -0.020452704 -0.022628246 0.1326337 -0.10284627 -0.027791424 0.06298485
-0.063876286 -0.059931215 0.03260214 0.03436527 0.019169327 0.07683012 0.008036216 -0.048172977
-0.08940869 -0.13665158 -0.114602536 -0.033011563 0.20589717 0.013902468 -0.017169764 0.12086025
-0.10002799 0.13400346 -0.018507568 0.1214522 0.118219405 -0.11666084 0.09379387 0.15626581
-0.017299214 -0.058618017 0.006336189 -0.1235732 0.050556887 -0.13992676 0.021121265 -0.008839843
0.045685347 -0.005580594 0.0065390193 -0.0014370983 -0.036331687 -0.07509756 0.06474946 -0.039839797
-0.09343735 0.0786378 -0.008315861 -0.04619861 -0.005418888 -0.014172411 0.055382565 0.028358437
0.07116626 0.045029894 -0.021512985 0.04361173 0.004246226 -0.0043459167 -0.01004358 -0.004379875
-0.06034306 -0.040840983 0.115042485 -0.06945676 0.02384341 0.15250476 -0.07564737 0.10199708
0.0145455515 -0.18835849 0.2826928 0.039932307 -0.030878086 -0.05003964 -0.03971874 -0.111750446
-0.03041221 -0.06570168 0.0880487 -0.11087906 0.026760126 0.057504073 -0.011953372 -0.07831021
0.03762636 0.039595798 0.0038303048 0.027341515 0.028491726 0.049478233 -0.06149885 -0.069555484
0.16065654 -0.07704704 0.025536316 -0.035822164 -0.024720898 0.0775507 -0.13853145 0.044611353
0.077375524 0.054464467 0.055759802 -0.079161994 0.07263607 0.012329752 0.037541684 -0.049643513
0.0379349 -0.089480855 -0.025803395 0.08317307 -0.059089523 -0.020036237 -0.061135016 0.06263652
-0.0022864528 -0.041015115 0.0063044275 0.009894593 0.118179545 0.13756938 0.035388414 -0.108398
-0.030523155 0.13757235 0.073190145 0.009148229 -0.12826987 -0.06715078 0.13468498 0.08464129
00000000: 8b9c 18bd 3eef 96bd 29cc 16bc 97a8 b4bd
00000010: 6bda 803d 6597 02be 01a4 0d3e b50d e5bd
00000020: b26d abbd 9f95 bebd e059 013e 5c42 6f3d
00000030: 98cb e03d 08fa c83c 6da5 f7bc 61a5 d9bd
00000040: 2822 75bd a348 123d cd7a b03c b3ed 703d
00000050: 50d5 c6bd a9f9 573d 2a4b 103d fec0 e43c
00000060: 23bd 1e3c f535 74bd 63c9 0dbe 9e39 c5bc
00000070: 89c2 313c 599f f0bd dcff e1bd a2a5 f53d
00000080: b051 fbbd d20a 2fbc e27b da3c dcef 2b3d
00000090: 8998 5c3d fea2 9f3b edff a23a d4be 923b
000000a0: db2a aa3c 2fce c33d b223 01be c8ec 0bbd
000000b0: 8624 a73c 1ad6 dbbb 430c 063e d567 363d
000000c0: fd76 773d 8eb7 0e39 c4b8 86bd 1505 d33d
000000d0: 0ce2 efbc 2b45 5e3d 71f2 e13d 4fc6 bb3b
000000e0: 38db 96bd 200d 523a c12f 13bd 102c 86bd
000000f0: d151 0cbe 9ae1 afbd 519b 3bbd 1759 5e3b
00000100: 4b60 903d e3f0 9b3b 52d6 8b3d 704d 09be
00000110: 8eea a73c 2293 323e 7063 16bd 99ba c13d
00000120: fee0 50bc 41cd d93c 41af 003e cc73 90bd
00000130: 0244 97bd 47a0 06bb 1fcb 0abe 6ffb 01be
00000140: 82de 673d cc4f fcbc 88ff f53b 2282 33bc
00000150: 5bc3 7f3d fef9 7a3c 4d7a 3c3b c194 b03c
00000160: cb78 2ebd 5ea1 d23d 52a4 a1bc 25a5 8bbe
00000170: c21b 12be cf24 d8bd f783 c2bc 9eab 10bd
00000180: 4fd3 21be a145 b23d ab82 0e3d 59b6 69bd
00000190: 638a 243c 7927 17be 20d6 e5bc 50d7 18be
000001a0: 8dd2 073e e228 22be 4a0d 203c 90f7 0b3e
000001b0: 9c7c 59bd 6dda cc3c 50d8 41bd 8eb6 893d
000001c0: f6d9 5a3d 3de4 0ebd 642b 94bd 1790 24be
000001d0: e76f 8cbd e67a 40bd 33bd 413d c617 8b3d
000001e0: d743 a0bd 2679 dabc 6e8c a7bc df5e b9bc
000001f0: 21d1 073e 11a1 d2bd d7aa e3bc 33fe 803d
00000200: 92d1 82bd 6f7a 75bd d289 053d 99c2 0c3d
00000210: fe08 9d3c 1c59 9d3d 55aa 033c 0751 45bd
00000220: e71b b7bd 64ee 0bbe bcb4 eabd 2237 07bd
00000230: b5d6 523e 2dc7 633c 9ba7 8cbc 9485 f73d
00000240: 7adb ccbd 3438 093e 2f9d 97bc eebb f83d
00000250: 041d f23d e1eb eebd 0017 c03d 2504 203e
00000260: 15b7 8dbc 7219 70bd ce9f cf3b f213 fdbd
00000270: bd14 4f3d f648 0fbe 8106 ad3c fdd4 10bc
00000280: 8f20 3b3d 6add b6bb 4545 d63b 045d bcba
00000290: 89d0 14bd c0cc 99bd 5d9b 843d 0e2f 23bd
000002a0: 155c bfbd db0c a13d 403f 08bc c13a 3dbd
000002b0: ed90 b1bb 6633 68bc d4d8 623d f44f e83c
000002c0: 9ebf 913d 4471 383d 003c b0bc 37a2 323d
000002d0: ed23 8b3b 3168 8ebb d48d 24bc 0e85 8fbb
000002e0: 492a 77bd e048 27bd 659b eb3d 593f 8ebd
000002f0: 4153 c33c 352a 1c3e 02ed 9abd d8e3 d03d
00000300: 7750 6e3c 0ce1 40be 1cbd 903e 0f90 233d
00000310: 0af4 fcbc 5ef6 4cbd 1eb0 22bd 6bdd e4bd
00000320: 0723 f9bc 9a8e 86bd e052 b43d 9014 e3bd
00000330: 0d38 db3c 6489 6b3d 13d8 43bc 1a61 a0bd
00000340: 191e 1a3d 342f 223d da05 7b3b 50fb df3c
00000350: 7b67 e93c b0a9 4a3d 38e6 7bbd 1b73 8ebd
00000360: 2683 243e d7ca 9dbd 8931 d13c 43ba 12bd
00000370: 7b83 cabc e7d2 9e3d 30db 0dbe 65ba 363d
00000380: 0f77 9e3d 2216 5f3d 6464 643d af1f a2bd
00000390: 38c2 943d ba02 4a3c 4fc5 193d ff56 4bbd
000003a0: a061 1b3d bd41 b7bd a461 d3bc a456 aa3d
000003b0: db07 72bd 0923 a4bc b668 7abd 9347 803d
000003c0: 50d8 15bb 77ff 27bd 5f95 ce3b ee1c 223c
000003d0: 1e08 f23d fdde 0c3e 71f3 103d c5ff ddbd
000003e0: b20b fabc c4df 0c3e b7e4 953d 74e2 153c
000003f0: 2d59 03be 5986 89bd dcea 093e 6a58 ad3d

ik_net.sequential_l_leg.0.bias f4 [128]
-0.00020981867 -0.042361397 -0.03530518 0.050513074 0.12913528 0.0013638206 -0.08836136 0.07503585
-0.021426914 -0.021449532 0.002716246 0.107002005 0.026470505 0.10599324 -0.084654495 0.018158842
0.1525077 -0.054042585 -0.07372554 -0.007105548 0.017608874 -0.0043745437 0.06957277 0.14092715
-0.007902754 0.10475703 0.014118163 0.022777231 0.085796386 -0.03304937 0.14924707 0.11528086
0.0627337 -0.007293785 0.07888827 -0.06324639 -0.08390217 -0.061633904 -0.043578584 0.10206173
-0.05005134 -0.07052972 -0.04088433 0.0948414 -0.13184398 0.13154918 -0.07502042 0.052781522
0.09349742 0.15810668 0.0064977566 -0.12918651 0.018253641 -0.04550193 0.04756323 -0.047765587
-0.12739325 0.11344288 -0.0619431 0.023585081 -0.13770072 -0.078537904 0.19997479 0.14872758
-0.042403825 0.16986835 -0.1609549 0.091971055 -0.01640755 0.031084962 0.07698377 0.047758874
-0.07307308 0.12967268 0.16963981 0.17394887 0.0740243 0.05026 0.16410714 0.038345106
0.111070335 0.05921164 -0.1206592 -0.019555815 0.06603261 0.062088914 0.15896092 0.054917254
-0.02173646 -0.09377332 0.09888559 0.0025826392 0.0039314963 0.06882679 -0.03955229 -0.047994833
0.049413744 0.15535131 0.06855593 0.12686884 -0.04208191 0.12318731 -0.040709704 0.13572551
0.01469621 0.08670135 0.07505445 0.09351937 0.018753927 0.0468472 -0.108821265 -0.04664365
0.1295788 0.027924413 0.002461161 0.12785013 0.16824938 -0.035288192 0.058128502 0.04080954
-0.0055827596 0.122352146 -0.042270675 0.065055065 -0.079417795 0.1626585 -0.043517713 -0.0622888
00000000: c502 5cb9 2583 2dbd 2a9c 10bd cce6 4e3d
00000010: 0a3c 043e 3ac2 b23a cdf6 b4bd 65ac 993d
00000020: 7f87 afbc eeb6 afbc 0c03 323b de23 db3d
00000030: acd8 d83c fc12 d93d 565f adbd dac1 943c
00000040: fa2a 1c3e c25b 5dbd 6afd 96bd a8d5 e8bb
00000050: 7c40 903c 5558 8fbb 2b7c 8e3d 354f 103e
00000060: 8d7a 01bc db8a d63d de4f 673c 5197 ba3c
00000070: 04b6 af3d c75e 07bd 39d4 183e 5f18 ec3d
00000080: 877a 803d b400 efbb 2c90 a13d 5387 81bd
00000090: e7d4 abbd d573 7cbd 757f 32bd be05 d13d
000000a0: a202 4dbd e371 90bd 5476 27bd 353c c23d
000000b0: 1c02 07be d4b4 063e 4ea4 99bd 7031 583d
000000c0: 937b bf3d b8e6 213e 22eb d43b 7849 04be
000000d0: a988 953c 3b60 3abd a9d1 423d d9a5 43bd
000000e0: 6073 02be be54 e83d 0cb8 7dbd 8035 c13c
000000f0: 6b01 0dbe 7bd8 a0bd 31c6 4c3e 0b4c 183e
00000100: a2af 2dbd f8f1 2d3e 5cd1 24be 525b bc3d
00000110: 2069 86bc e4a5 fe3c aba9 9d3d cf9e 433d
00000120: 57a7 95bd eac8 043e 0fb6 2d3e a71f 323e
00000130: 0d9a 973d 6edd 4d3d b40b 283e c20f 1d3d
00000140: d878 e33d e887 723d 2c1c f7bd 8433 a0bc
00000150: 1b3c 873d f250 7e3d a7c6 223e eaf0 603d
00000160: a910 b2bc 3a0c c0bd 8784 ca3d 7f41 293b
00000170: c8d3 803b 0ff5 8c3d 9501 22bd 3b96 44bd
00000180: 1166 4a3d 6a14 1f3e 0d67 8c3d e8e9 013e
00000190: 155e 2cbd a149 fc3d 38bf 26bd a1fb 0a3e
000001a0: 5fc8 703c 7a90 b13d 26b6 993d 1587 bf3d
000001b0: d6a1 993c d9e2 3f3d afdd debd 690d 3fbd
000001c0: 4eb0 043e bdc1 e43c 6e4b 213b 25eb 023e
000001d0: 9149 2c3e 5a8a 10bd 2718 6e3d e727 273d
000001e0: 95ef b6bb c393 fa3d 0424 2dbd 973b 853d
000001f0: cca5 a2bd f38f 263e a13f 32bd 8a22 7fbd

ik_net.sequential_l_leg.2.weight f4 [128, 128]
0.015039219 0.052767903 -0.02006575 -0.061085284 0.07417154 -0.022898205 -0.038989097 -0.04090782
-0.043242373 0.052929424 -0.017207187 0.0790138 0.0052867597 0.13611148 0.06470611 0.055415913
-0.019968413 -0.020577263 -0.03672918 0.03378109 -0.016113617 -0.012573538 0.115897946 0.007043358
0.06687974 -0.07398461 0.07370104 0.03429619 0.02133025 -0.005179208 0.12945013 -0.012154877
-0.090350375 -0.045966633 0.11358672 -0.07308939 -0.05189297 0.12961486 0.00070918724 -0.07301679
0.06557369 0.06584529 -0.08177735 -0.102623425 0.017499344 0.08166505 0.023457324 -0.010943326
0.07686994 0.06184762 -0.031444505 0.05805302 -0.015124663 0.0072796545 0.0065893973 -0.0741783
0.042986494 -0.07619559 0.029454844 0.12683627 0.044453636 -0.001124806 0.061319854 0.10553548
0.018098222 -0.08310263 -0.04270492 -0.040368434 0.068728976 -0.059354972 0.062934175 0.008089295
0.07548371 -0.0766284 0.06742089 -0.02386008 -0.04701603 -0.104169525 0.075213514 0.058052856
0.058209047 -0.060510993 -0.00691133 -0.112706 -0.026247287 -0.058146503 -0.06635236 -0.0031822112
-0.081353046 0.02596668 0.045185063 0.08042644 0.0637014 0.024886714 0.089752086 -0.014260012
0.044733636 0.0075454353 -0.017446736 0.00082335965 0.023352692 -0.008830047 0.00093337876 0.07077029
-0.02900467 0.020296426 -0.07501818 -0.004685298 0.10042034 0.040104333 0.0058449684 -0.0046468116
-0.028201537 0.0407777 0.0058424044 -0.06904685 0.09988829 -0.06626114 -0.032323603 0.06527785
-0.0010092491 0.018063558 -0.0075193094 0.08034167 0.061914437 0.01803741 -0.0016928342 0.06853024
0.076848984 -0.013649375 -0.089193694 0.02125748 -0.08910653 -0.109945014 0.14749469 -0.036144823
-0.0076248273 0.013805273 -0.046198543 0.14339441 -0.018319154 0.044772968 0.030948143 -0.0011939394
0.026979623 0.056027524 0.02288914 -0.053667057 0.055935208 -0.089168094 0.024503985 0.055577394
-0.02178173 0.034080587 -0.16252364 -0.044527143 0.010411954 0.06317619 0.022031374 -0.036034483
-0.007302793 0.003965507 0.14626533 0.13962674 -0.04527041 -0.0670524 -0.062052235 0.12196389
-0.06528474 -0.024102556 -0.12507989 -0.08045023 -0.18472663 0.06933127 -0.036258053 0.060265157
-0.04940785 -0.022840584 -0.04287087 0.049565624 -0.11631166 0.054797582 0.005079291 0.019471753
-0.07843624 0.038818695 -0.018896803 0.018769704 0.06377033 0.016236309 -0.029303882 0.07068867
0.004401741 0.035112772 -0.123054184 0.08919527 -0.005698879 0.024760567 -0.06040819 -0.024006115
-0.057355694 0.012975887 -0.010569287 0.037237152 0.038001034 -0.0006648617 -0.010729662 -0.1512012
0.06890645 0.07736663 0.20300657 -0.03662097 -0.036958262 -0.054961942 -0.07967499 0.023893164
0.06878658 -0.013962863 0.15702198 0.019842139 0.041207913 -0.034087285 -0.093001515 0.019951573
0.0909843 -0.06414398 -0.045356527 -0.011891485 0.05473553 -0.090476416 0.11992199 -0.0138561195
-0.053523954 -0.04775485 0.033091262 -0.052409668 -0.05257472 0.046968505 0.057574116 -0.0246787
0.09083544 -0.056659244 -0.012893004 -0.12789263 0.030924536 0.07367448 -0.040501785 -0.110133804
-0.02178385 -0.053697165 -0.020665089 -0.10263633 -0.030786963 0.040713947 -0.050642975 -0.028126929
00000000: 0e67 763c 2823 583d ee60 a4bc 9034 7abd
00000010: 40e7 973d 0495 bbbc 08b3 1fbd f58e 27bd
00000020: ea1e 31bd 86cc 583d 16f6 8cbc fdd1 a13d
00000030: 8e3c ad3b cf60 0b3e a384 843d ccfb 623d
00000040: cc94 a3bc a691 a8bc 5671 16bd 0a5e 0a3d
00000050: b400 84bc 3e01 4ebc e75b ed3d f8cb e63b
00000060: 3ff8 883d 3e85 97bd 92f0 963d 297a 0c3d
00000070: c7bc ae3c 58b6 a9bb 938e 043e 4025 47bc
00000080: 9e09 b9bd 8247 3cbd 27a0 e83d e4af 95bd
00000090: b98d 54bd c2b9 043e c0e8 393a d489 95bd
000000a0: 804b 863d e5d9 863d e27a a7bd 3b2c d2bd
000000b0: c95a 8f3c 0140 a73d 9329 c03c a34b 33bc
000000c0: fd6d 9d3d ee53 7d3d f4cb 00bd 01c9 6d3d
000000d0: 6fcd 77bc 2b8a ee3b dfeb d73b cbea 97bd
000000e0: 9b12 303d 6f0c 9cbd 494b f13c 5ee1 013e
000000f0: 0415 363d 3a6e 93ba 872a 7b3d fc22 d83d
00000100: b942 943c b631 aabd 5beb 2ebd 5f59 25bd
00000110: c7c1 8c3d 331e 73bd a2e3 803d f688 043c
00000120: 3497 9a3d 5aef 9cbd f713 8a3d 3776 c3bc
00000130: e193 40bd d556 d5bd 8b09 9a3d d5c8 6d3d
00000140: 9c6c 6e3d 60da 77bd 7078 e2bb 67d2 e6bd
00000150: 8d04 d7bc 072b 6ebd bfe3 87bd a58c 50bb
00000160: 6d9c a6bd 13b8 d43c f913 393d 9eb6 a43d
00000170: e175 823d 39df cb3c f1cf b73d d3a2 69bc
00000180: 9e3a 373d b33f f73b 75ec 8ebc bbd6 573a
00000190: 254e bf3c e7ab 10bc fdad 743a 04f0 903d
000001a0: 349b edbc b144 a63c 22a3 99bd 2187 99bb
000001b0: 2ea9 cd3d 7144 243d 2687 bf3b 4844 98bb
000001c0: e906 e7bc 8406 273d a471 bf3b 6f68 8dbd
000001d0: 3b92 cc3d ecb3 87bd c165 04bd 65b0 853d
000001e0: c848 84ba 07fa 933c 8a64 f6bb 2c8a a43d
000001f0: fe99 7d3d 31c3 933c 17e2 ddba 9559 8c3d
00000200: 0063 9d3d a1a1 5fbc 2fab b6bd 2b24 ae3c
00000210: 7c7d b6bd da2a e1bd d908 173e 980c 14bd
00000220: b0d9 f9bb 832f 623c af3a 3dbd fcd5 123e
00000230: 0d12 96bc dc63 373d f686 fd3c f57d 9cba
00000240: 5f04 dd3c 1e7d 653d 0182 bb3c fdd1 5bbd
00000250: 511c 653d c39d b6bd 95bc c83c 1fa5 633d
00000260: 996f b2bc 1698 0b3d 996c 26be 1862 36bd
00000270: e696 2a3c 8562 813d 247b b43c e598 13bd
00000280: 454c efbb 15f1 813b 94c6 153e 50fa 0e3e
00000290: 776d 39bd c552 89bd 7c2a 7ebd 34c8 f93d
000002a0: 01b4 85bd b972 c5bc f114 00be 17c3 a4bd
000002b0: fa28 3dbe 8efd 8d3d 5383 14bd 99d8 763d
000002c0: e35f 4abd 2d1c bbbc 5e99 2fbd 5305 4b3d
000002d0: cf34 eebd 6e73 603d 2e70 a63b 3a83 9f3c
000002e0: 2ea3 a0bd 5a00 1f3d 78cd 9abc ecc2 993c
000002f0: 059a 823d 0202 853c b20e f0bc 39c5 903d
00000300: 7b3c 903b 69d2 0f3d d503 fcbd 02ac b63d
00000310: a9bd babb acd6 ca3c 946e 77bd 79a8 c4bc
00000320: ceed 6abd d198 543c ce2a 2dbc fc85 183d
00000330: f9a6 1b3d 1d4a 2eba 77cb 2fbc 7dd4 1abe
00000340: d31e 8d3d 6572 9e3d f4e0 4f3e dfff 15bd
00000350: 8c61 17bd c61f 61bd a42c a3bd 99bb c33c
00000360: fadf 8c3d 7ec4 64bc 5fca 203e fb8b a23c
00000370: a1c9 283d 1c9f 0bbd 9477 bebd 7b71 a33c
00000380: fa55 ba3d eb5d 83bd c4c7 39bd 81d4 42bc
00000390: 5d32 603d b34b b9bd a999 f53d c704 63bc
000003a0: ef3b 5bbd 979a 43bd b48a 073d 85ab 56bd
000003b0: 9758 57bd 0c62 403d d6d2 6b3d fc2a cabc
000003c0: ee07 ba3d 8613 68bd 2e3d 53bc 49f6 02be
000003d0: 7455 fd3c a5e2 963d 33e5 25bd d58d e1bd
000003e0: 0b74 b2bc 8ff1 5bbd d549 a9bc ff32 d2bd
000003f0: f134 fcbc abc3 263d 026f 4fbd 726a e6bc

ik_net.sequential_l_leg.2.bias f4 [128]
0.04072662 0.001802042 -0.05775236 0.07870911 0.017459657 -0.029441549 0.09640198 -0.034848053
-0.06546524 0.060800713 -0.08821462 -0.008410575 -0.073083654 0.026315657 0.056977477 -0.041534487
0.04289939 0.011760458 -0.010243011 -0.044687442 -0.044528533 0.021490704 0.02188509 0.041364785
-0.057317235 0.046826497 0.037859365 -0.031681083 -0.022262488 -0.07671503 -0.05442391 0.026262717
0.073899865 0.06675415 0.018971693 -0.052548133 -0.019578522 -0.058712773 -0.04317514 0.051719222
0.0026193573 0.04046228 -0.04103659 -0.051498435 -0.0059123375 -0.08183987 0.06052519 0.04188757
0.06926127 0.06900346 -0.017800605 0.06076016 -0.049779978 0.018050361 0.07634343 0.013488682
-0.027569454 0.07089181 0.037331007 0.063417755 0.032466356 0.05780011 0.069751725 0.019547498
0.03173188 -0.037080098 0.02721076 0.08214874 -0.06158791 -0.0032816862 -0.009848463 -0.10607405
0.031172033 0.05533537 -0.02339339 -0.043625843 -0.04517606 -0.043991115 0.026272263 0.0014290747
0.05173935 0.06878449 -0.04780202 -0.03904998 0.09960872 -0.013561997 0.060395222 0.017933328
0.07625355 -0.042844094 -0.015882418 -0.02000513 -0.050630976 -0.06835439 -0.047970932 0.069520034
-0.022884673 -0.016168304 0.040096417 -0.06649714 0.02419733 0.026334291 0.006811135 -0.062274314
-0.038664572 -0.0843709 0.07141766 0.04469947 0.03246091 -0.06125137 0.054074615 0.033766873
0.071598954 0.049601432 0.09689616 -0.08234622 0.07508711 -0.014206257 -0.007817355 0.0070266076
-0.013301245 0.11469681 -0.059424173 0.03260514 -0.03269633 0.07657803 0.053062152 0.09960535
00000000: f5d0 263d 7f32 ec3a bd8d 6cbd 3e32 a13d
00000010: 8e07 8f3c 672f f1bc 676e c53d d5bc 0ebd
00000020: a412 86bd 2b0a 793d dea9 b4bd 82cc 09bc
00000030: e2ac 95bd ef93 d73c 3761 693d 1120 2abd
00000040: 45b7 2f3d f0ae 403c 4dd2 27bc 2e0a 37bd
00000050: 8d63 36bd 460d b03c 5c48 b33c 1f6e 293d
00000060: 7ac5 6abd 24cd 3f3d 6c12 1b3d 06c4 01bd
00000070: d25f b6bc c51c 9dbd 9beb 5ebd e924 d73c
00000080: d058 973d 66b6 883d 866a 9b3c b63c 57bd
00000090: 2363 a0bc ce7c 70bd 6ad8 30bd 89d7 533d
000000a0: 86a9 2b3b c7bb 253d fc15 28bd 06f0 52bd
000000b0: 48bc c1bb a99b a7bd 43e9 773d 4d92 2b3d
000000c0: dad8 8d3d b051 8d3d 93d2 91bc a5df 783d
000000d0: 17e6 4bbd 5ade 933c f259 9c3d a2ff 5c3c
000000e0: 56d9 e1bc ba2f 913d 66e8 183d 2be1 813d
000000f0: 71fb 043d cfbf 6c3d fed9 8e3d 1322 a03c
00000100: 4af9 013d 4de1 17bd 1ae9 de3c 993d a83d
00000110: 9b43 7cbd 8f11 57bb 735b 21bc 5a3d d9bd
00000120: 7e5c ff3c 57a7 623d 7fa3 bfbc 03b1 32bd
00000130: 880a 39bd 0730 34bd ee38 d73c ca4f bb3a
00000140: a4ec 533d e2de 8c3d 0dcc 43bd dff2 1fbd
00000150: a8ff cb3d 2333 5ebc fb60 773d eae8 923c
00000160: d22a 9c3d 4a7d 2fbd d81b 82bc cce1 a3bc
00000170: 6d62 4fbd 63fd 8bbd 2b7d 44bd 8560 8e3d
00000180: a378 bbbc 6473 84bc 243c 243d a72f 88bd
00000190: 7b39 c63c 03bb d73c f12f df3b 5a13 7fbd
000001a0: be5e 1ebd a7ca acbd 6c43 923d cb16 373d
000001b0: bbf5 043d b7e2 7abd 587d 5d3d 224f 0a3d
000001c0: 79a2 923d df2a 4b3d 7e71 c63d 23a5 a8bd
000001d0: 45c7 993d 5cc1 68bc 5d14 00bc 753f e63b
000001e0: 77ed 59bc 29e6 ea3d c366 73bd f88c 053d
000001f0: 96ec 05bd f1d4 9c3d b357 593d e4fd cb3d

ik_net.sequential_l_leg.4.weight f4 [24, 128]
-0.010331708 0.4005375 -0.17758054 -0.086424634 -0.090358235 -0.08694373 -0.15683702 -0.05368009
0.013714742 -0.15375093 -0.2461203 -0.043642532 -0.030043116 -0.019636901 0.16694811 0.03934178
-0.012738484 -0.14409803 0.00045883618 -0.055294454 -0.106515616 -0.14014962 -0.112135634 -0.07052592
-0.1329759 0.13967212 -0.031187298 0.19330026 0.004271451 0.0061895344 -0.0012793933 0.019727115
0.06848216 -0.086411655 -0.053385805 -0.008490011 -0.020721741 -0.0754763 -0.051128693 -0.059913658
-0.042419765 0.1253836 -0.18795508 0.02046964 -0.14705342 -0.06442261 -0.08077377 0.03973508
-0.2945122 0.020917058 -0.072095335 -0.053067595 -0.24309626 0.03477539 0.08015521 -0.14144449
0.08011915 -0.075712286 -0.10791378 0.090176776 0.051201522 -0.035221413 -0.16384003 -0.050582282
0.038002007 -0.10733244 -0.13304102 -0.18743427 -0.021350848 -0.1997734 -0.102821015 0.07809583
-0.025168078 -0.003478058 -0.019333467 -0.053166114 -0.07032374 -0.05250551 0.3616976 -0.003492482
-0.019603478 -0.056743048 -0.07868387 -0.25559783 -0.15064143 -0.006111436 -0.20583557 -0.124250434
-0.13008182 -0.19191852 -0.08299617 -0.10814893 -0.35856795 -0.025061643 0.02351335 -0.02942532
-0.07531566 -0.06443925 0.04839091 -0.03417715 -0.089783765 -0.07727481 0.068203494 -0.032726016
-0.12314804 -0.15982552 0.050133333 0.00026426543 0.037795473 -0.07850116 -0.123391904 0.042267114
-0.05399491 -0.1367604 0.014102078 0.056552466 -0.06767769 -0.17400411 -0.06661496 -0.03517639
0.14888895 -0.13680512 0.15211512 -0.014624778 -0.040549774 -0.0842582 -0.05913387 -0.08105919
-0.079403445 0.2497203 -0.02349889 0.06314906 -0.042249806 0.016322972 -0.08805572 -0.0672719
0.0021636202 -0.049009178 0.104015455 0.04946512 -0.035514753 0.028673632 0.12164998 0.0021905603
-0.06673722 -0.0639527 -0.06134329 0.0638989 -0.047116548 0.007048326 -0.0034101082 -0.05953259
0.17423733 0.071193114 -0.058864873 0.10301997 -0.0079473145 0.027292013 0.068588324 0.08256245
-0.017527785 -0.030227793 0.05145506 0.05436704 0.07365764 -0.020735463 0.0011448583 -0.07488981
-0.012878136 0.035517592 -0.052998975 -0.04302369 -0.07622429 0.041843686 -0.08657679 -0.07068647
0.052197073 -0.039717432 -0.028739374 0.06483718 -0.04171054 0.057255235 0.0686982 0.078724355
0.022686275 0.10285796 -0.04480555 0.008270367 -0.12153858 0.06427307 -0.0038387259 0.024568433
0.096115984 -0.089888245 -0.039223474 -0.01580012 -0.034470942 0.018789865 0.08552215 0.08992842
0.029965494 -0.031801853 -0.034431186 0.05994966 0.013273857 -0.031603206 -0.009339358 -0.07556745
-0.011669944 0.009713499 -0.0295079 0.07682028 -0.04967078 0.035630364 0.017662259 0.06136276
-0.07711741 -0.08536973 -0.017707601 0.021486146 -0.036245957 0.04108203 -0.033611223 -0.06479543
0.0048382482 0.07207606 0.051812526 0.07459552 0.09141016 0.0012621352 0.04893424 -0.039965056
-0.055703294 -0.015905308 0.045152064 0.103456914 0.06837508 0.09996352 -0.011229553 -0.013201414
-0.009000928 -0.06907709 0.02955836 -0.01039596 0.03263698 -0.09207551 0.038613833 0.102226734
0.10590421 -0.054906245 0.09600674 -0.024425983 0.0130632175 -0.030957676 -0.065407015 0.087565854
00000000: 5346 29bc 4013 cd3e acd7 35be 66ff b0bd
00000010: bd0d b9bd 8e0f b2bd e299 20be a7df 5bbd
00000020: ccb3 603c e270 1dbe f606 7cbe 83c2 32bd
00000030: fb1c f6bc 91dd a0bc 72f4 2a3e d924 213d
00000040: 13b5 50bc 6f8e 13be f38f f039 707c 62bd
00000050: dc24 dabd 6283 0fbe 5ea7 e5bd e56f 90bd
00000060: d62a 08be 3506 0f3e 817c ffbc 81f0 453e
00000070: 87f7 8b3b 94d1 ca3b 51b1 a7ba c29a a13c
00000080: 6040 8c3d 98f8 b0bd 13ab 5abd b019 0bbc
00000090: a4c0 a9bc 5293 9abd 526c 51bd 0668 75bd
000000a0: 59c0 2dbd 8f64 003e 4c77 40be f2af a73c
000000b0: 2c95 16be 00f0 83bd b86c a5bd 40c1 223d
000000c0: 4eca 96be 405a ab3c b8a6 93bd 685d 59bd
000000d0: 3aee 78be a470 0e3d 6a28 a43d d3d6 10be
000000e0: 8215 a43d 0b0f 9bbd e601 ddbd 9aae b83d
000000f0: b0b8 513d 5444 10bd aec5 27be 5e2f 4fbd
00000100: fea7 1b3d 1cd1 dbbd e83b 08be c5ee 3fbe
00000110: f9e7 aebc 6691 4cbe d393 d2bd b5f0 9f3d
00000120: 492d cebc 21f0 63bb 3861 9ebc b6c4 59bd
00000130: e505 90bd 0510 57bd 6e30 b93e 20e2 64bb
00000140: 7997 a0bc 666b 68bd 0225 a1bd b8dd 82be
00000150: bf41 1abe 7142 c8bb 8fc6 52be 0377 febd
00000160: 2b34 05be 4a86 44be e5f9 a9bd 307d ddbd
00000170: 3896 b7be 134e cdbc 129f c03c 5e0d f1bc
00000180: 193f 9abd baf8 83bd 8c35 463d 57fd 0bbd
00000190: 8de0 b7bd 4142 9ebd 46ae 8b3d b70b 06bd
000001a0: 0a35 fcbd 4da9 23be 9c58 4d3d 1b8d 8a39
000001b0: 6dcf 1a3d 37c5 a0bd e5b4 fcbd 4820 2d3d
000001c0: c429 5dbd eb0a 0cbe 670c 673c 8fa3 673d
000001d0: 9a9a 8abd 222e 32be 6d6d 88bd 1e15 10bd
000001e0: 5876 183e a416 0cbe 11c4 1b3e c49c 6fbc
000001f0: 8517 26bd 908f acbd 5b36 72bd 5c02 a6bd
00000200: 469e a2bd aeb6 7f3e bf80 c0bc 4b54 813d
00000210: 220e 2dbd c1b7 853c 8f56 b4bd dac5 89bd
00000220: 86cb 0d3b d9bd 48bd 0e06 d53d f09b 4a3d
00000230: eb77 11bd f7e4 ea3c a023 f93d 818f 0f3b
00000240: 86ad 88bd a2f9 82bd 1a43 7bbd 6ddd 823d
00000250: 48fd 40bd a5f5 e63b 1f7c 5fbb 72d8 73bd
00000260: 456b 323e b2cd 913d 4b1c 71bd 22fc d23d
00000270: 7435 02bc 8093 df3c 0978 8c3d 8016 a93d
00000280: 6e96 8fbc 47a0 f7bc 8ac2 523d f9af 5e3d
00000290: d1d9 963d 6bdd a9bc 120f 963a d45f 99bd
000002a0: d1fe 52bc e57a 113d 7415 59bd 9c39 30bd
000002b0: 7b1b 9cbd 4964 2b3d 2c4f b1bd 11c4 90bd
000002c0: 99cc 553d bfae 22bd d66e ebbc 5bc9 843d
000002d0: acd8 2abd 7784 6a3d a4b1 8c3d 3c3a a13d
000002e0: 91d8 b93c 32a7 d23d 0686 37bd 6f80 073c
000002f0: 38e9 f8bd 99a1 833d 2293 7bbb bd43 c93c
00000300: 75d8 c43d 5417 b8bd cba8 20bd 416f 81bc
00000310: 6731 0dbd 34ed 993c 3d26 af3d 642c b83d
00000320: 327a f53c a942 02bd b707 0dbd c68d 753d
00000330: 977a 593c 5d72 01bd 1b04 19bc 1bc3 9abd
00000340: 4b33 3fbc 5e25 1f3c 8dba f1bc f353 9d3d
00000350: 9673 4bbd 25f1 113d 71b0 903c 8457 7b3d
00000360: bcef 9dbd 53d6 aebd 880f 91bc b703 b03c
00000370: a476 14bd a145 283d ecab 09bd 77b3 84bd
00000380: 2b8a 9e3b 9d9c 933d 5f39 543d 89c5 983d
00000390: 4035 bb3d 3b6e a53a 456f 483d 66b2 23bd
000003a0: 2329 64bd d94b 82bc 5ff1 383d 38e1 d33d
000003b0: 3c08 8c3d adb9 cc3d 29fc 37bc be4a 58bc
000003c0: a178 13bc 4a78 8dbd 6024 f23c d153 2abc
000003d0: 5bae 053d 1692 bcbd 8a29 1e3d 405c d13d
000003e0: 4ee4 d83d 5fe5 60bd 2f9f c43d 0019 c8bc
000003f0: 1b07 563c f49a fdbc 1df4 85bd ba55 b33d

ik_net.sequential_l_leg.4.bias f4 [24]
-0.05154249 -0.0056605204 0.04740566 0.0024202815 0.010268551 -0.08043543 0.00013679857 -0.051727425
0.019544613 0.035245176 0.0372016 0.020302558 -0.039077703 -0.039392795 -0.06898571 0.05441818
-0.064364634 0.03725381 -0.006794195 0.02711888 0.024315273 0.06657622 -0.07424133 -0.07684196
00000000: 381e 53bd e37b b9bb 702c 423d 969d 1e3b
00000010: 6d3d 283c 55bb a4bd 9671 0f39 23e0 53bd
00000020: 061c a03c 3f5d 103d b460 183d 8d51 a63c
00000030: f10f 20bd 575a 21bd 6148 8dbd 99e5 5e3d
00000040: 9bd1 83bd 7397 183d d7a1 debb 6a28 de3c
00000050: d330 c73c 1d59 883d d70b 98bd 515f 9dbd

ik_net.sequential_r_leg.0.weight f4 [128, 49]
0.008253529 0.08148337 -0.10753011 0.10549564 0.072047904 -0.10238127 -0.0037412967 0.12946822
0.106038705 -0.048373777 0.049743947 -0.0051609976 0.04405183 -0.068030894 0.047973856 0.01453534
-0.03692334 -0.15509965 -0.18558912 0.06378525 0.05022421 0.110201836 -0.0739613 0.1902454
-0.04356283 -0.023753157 0.04886575 -0.040934667 -0.024959408 0.096706696 -0.0854763 -0.042214468
0.044783648 0.0012432764 0.003883989 0.0032135095 0.0030695992 0.07946441 0.03489612 0.12635809
-0.009809863 0.0011134357 -0.070245326 0.067684166 -0.106211774 -0.074291684 -0.012883376 -0.32825458
-0.15827282 -0.17713858 -0.0039652674 -0.14175859 -0.031303946 0.070667736 -0.05779667 0.016065296
-0.01474404 0.028553126 -0.00480765 0.009264467 -0.03594109 0.0896325 0.020284086 0.042304404
0.07735751 0.055134866 -0.031960726 0.062172573 0.12640102 -0.20403342 0.050603356 -0.039098904
-0.027968854 0.015714498 -0.07937018 -0.081321076 -0.09475457 0.07120292 -0.12185265 -0.034765746
-0.12882403 -0.07075067 0.00469603 0.0011214555 -0.009034779 -0.004281995 0.08736019 0.02255224
-0.0061470945 0.07535352 0.12694432 -0.09408926 0.012165122 -0.15248302 -0.048794348 -0.1069496
0.15538691 0.1111861 0.13579193 0.0032295818 0.024535527 -0.12069579 -0.09464057 0.012466091
0.0307088 0.030455722 0.09037234 -0.0872265 0.026053738 -0.06926983 -0.12877356 -0.016798668
0.032999057 -0.13617216 0.01972678 0.005996985 0.08898445 0.010955395 -0.20594485 -0.014826857
-0.09683149 0.038642067 -0.10217254 0.06694059 -0.030828532 -0.03276614 -0.13458204 0.10085834
0.06277324 -0.050782256 -0.033610214 -0.008583601 -0.0023527613 -0.01373735 -0.010712351 0.043549944
-0.03983079 -0.046075474 -0.034197625 -0.05948324 0.05012076 -0.24498086 -0.053359833 0.11068666
0.1486577 0.16428745 -0.029299669 0.053148698 0.01994355 -0.0921982 -0.050639953 0.10151803
0.06876831 -0.001783564 -0.13267192 0.025804145 -0.057299245 -0.08527402 0.070683874 -0.08193702
-0.10417656 -0.024392663 -0.04678971 0.06073506 0.11464138 -0.009335684 0.100250624 0.14024691
0.053681657 -0.015288785 0.03465656 0.015467883 -0.057667393 0.03865013 -0.0949123 0.08070647
0.05958461 -0.045261703 0.014398626 0.072214894 -0.005940682 -0.0016865957 0.003962635 -0.0031009882
-0.08007446 0.122343846 0.058658276 0.076340206 -0.0029680154 0.26823035 -0.09250627 -0.12904081
-0.26312146 0.07606263 0.15605852 0.00011385002 0.1291899 -0.091523424 0.06245111 0.033133056
-0.050866358 0.08585728 -0.041736957 0.062265597 0.0012110004 0.010644638 0.2311288 -0.04788055
-0.09463708 0.12881768 -0.059939787 -0.037073985 0.05948336 0.10533831 0.100458734 0.08363676
-0.1245376 -0.112992115 0.011211404 -0.0002430811 -0.035937905 0.0072297584 0.02834948 -0.0061369855
0.002597093 0.0146348635 0.004415739 -0.01304718 0.08039031 -0.010597796 -0.009554439 0.004986977
0.04288479 -0.0313655 -0.09169711 -0.037060726 -0.059797913 -0.043189958 -0.033814494 0.07912402
0.14237407 -0.013822806 -0.053205468 -0.21101125 0.16903755 0.1063399 0.07178389 0.10159957
-0.02882762 0.10490939 0.11475004 -0.052717928 -0.031083206 0.09007881 -0.009458986 0.14822295
00000000: cf39 073c c1e0 a63d bf38 dcbd 190e d83d
00000010: da8d 933d 45ad d1bd 8b30 75bb 5193 043e
00000020: d22a d93d 9523 46bd 4fc0 4b3d 961d a9bb
00000030: b16f 343d c853 8bbd 3c80 443d a225 6e3c
00000040: ee3c 17bd 71d2 1ebe 130b 3ebe d7a1 823d
00000050: e7b7 4d3d 80b1 e13d 0679 97bd b1cf 423e
00000060: f06e 32bd fb95 c2bc 7427 483d 1cab 27bd
00000070: ac77 ccbc 290e c63d 330e afbd 14e9 2cbd
00000080: 0f6f 373d 6ff5 a23a 868a 7e3b be99 523b
00000090: 542b 493b 3dbe a23d 3cef 0e3d 0464 013e
000000a0: 8cb9 20bc b4f0 913a c8dc 8fbd ff9d 8a3d
000000b0: 8f85 d9bd 3d26 98bd cc14 53bc fc10 a8be
000000c0: 4512 22be d163 35be 13ef 81bb 2a29 11be
000000d0: 9138 00bd 3fba 903d 33bc 6cbd 5e9b 833c
000000e0: fc90 71bc 3fe8 e93c 7e89 9dbb fec9 173c
000000f0: f736 13bd 3f91 b73d d02a a63c 6247 2d3d
00000100: 9d6d 9e3d 19d5 613d 40e9 02bd aba8 7e3d
00000110: 456f 013e 23ee 50be 7745 4f3d 2c26 20bd
00000120: f01e e5bc b1bb 803c d58c a2bd aa8b a6bd
00000130: af0e c2bd d6d2 913d e28d f9bd 8766 0ebd
00000140: 72ea 03be bae5 90bd 28e1 993b cdfd 923a
00000150: 9c06 14bc fa4f 8cbb e6e9 b23d 7abf b83c
00000160: 916d c9bb f252 9a3d b1fd 013e dfb1 c0bd
00000170: 3850 473c 8224 1cbe 95dc 47bd 6408 dbbd
00000180: bf1d 1f3e 8ab5 e33d 0a0d 0b3e 64a7 533b
00000190: bbfe c83c 5b2f f7bd ead2 c1bd 933e 4c3c
000001a0: 0591 fb3c 477e f93c 2215 b93d cfa3 b2bd
000001b0: a66e d53c 57dd 8dbd 37dd 03be 5c9d 89bc
000001c0: 052a 073d b770 0bbe 0e9a a13c 5b82 c43b
000001d0: 7b3d b63d 427e 333c 35e3 52be 58ec 72bc
000001e0: 974f c6bd 2547 1e3d d63f d1bd 2618 893d
000001f0: 1e8c fcbc ca35 06bd e0cf 09be d18e ce3d
00000200: 428f 803d 0e01 50bd ddaa 09bd 3ba2 0cbc
00000210: c930 1abb 9f12 61bc db82 2fbc 6d61 323d
00000220: 9c25 23bd a3b9 3cbd cf12 0cbd b3a4 73bd
00000230: 6d4b 4d3d 43dc 7abe d78f 5abd b0af e23d
00000240: b939 183e f83a 283e dc05 f0bc 73b2 593d
00000250: a860 a33c 69d2 bcbd d76b 4fbd afe8 cf3d
00000260: 66d6 8c3d 7ac6 e9ba 26db 07be 3763 d33c
00000270: 9db2 6abd 25a4 aebd b5c2 903d 99ce a7bd
00000280: 855a d5bd 1fd3 c7bc 91a6 3fbd 54c5 783d
00000290: 1ac9 ea3d b2f4 18bc 3350 cd3d e39c 0f3e
000002a0: 4ce1 5b3d d07d 7abc 09f4 0d3d 016d 7d3c
000002b0: a534 6cbd 994f 1e3d 6161 c2bd 6f49 a53d
000002c0: fe0e 743d 5664 39bd 37e8 6b3c 67e5 933d
000002d0: 0daa c2bb c310 ddba fed8 813b f339 4bbb
000002e0: 14fe a3bd 698f fa3d a943 703d 4158 9c3d
000002f0: 0983 42bb 7d55 893e ed73 bdbd 4623 04be
00000300: dbb7 86be b9c6 9b3d cecd 1f3e c4c2 ee38
00000310: 5b4a 043e a270 bbbd bccc 7f3d 87b6 073d
00000320: 3e59 50bd f1d5 af3d 5ff4 2abd 360a 7f3d
00000330: 6eba 9e3a d966 2e3c 07ad 6c3e 651e 44bd
00000340: 16d1 c1bd c8e8 033e 6c83 75bd e4da 17bd
00000350: d3a4 733d 9dbb d73d 4fbd cd3d c049 ab3d
00000360: 920d ffbd 6968 e7bd 09b0 373c 96e3 7eb9
00000370: a033 13bd 9ce7 ec3b 2b3d e83c c418 c9bb
00000380: fd33 2a3b 11c7 6f3c e7b1 903b d7c3 55bc
00000390: ada3 a43d 61a2 2dbc 398a 1cbc cc69 a33b
000003a0: f6a7 2f3d 1c79 00bd b2cb bbbd fdcc 17bd
000003b0: a8ee 74bd f4e7 30bd 1181 0abd c60b a23d
000003c0: 82ca 113e 0d79 62bc faed 59bd 5513 58be
000003d0: 2e18 2d3e bcc8 d93d 6f03 933d 6f13 d03d
000003e0: e727 ecbc bcda d63d 1202 eb3d c1ee 57bd
000003f0: 35a2 febc 3d7b b83d ddf9 1abc c2c7 173e

ik_net.sequential_r_leg.0.bias f4 [128]
0.011843967 0.12738447 -0.087480195 0.17831199 -0.05597963 -0.00044293446 -0.121496074 0.16739054
0.11340103 0.07290978 -0.1249117 -0.020515405 0.0141243255 -0.016202167 -0.102637134 0.05470285
-0.004392275 0.16459532 0.07721247 0.15244772 0.20570298 0.029801166 0.10185523 0.097995676
0.15224327 0.043991078 0.10007752 0.12809582 -0.086372115 0.070512354 -0.059761506 0.07638905
0.042462405 -0.04072608 0.1544527 -0.03150396 -0.018483426 0.07567505 0.15756151 -0.029388137
0.00010891677 0.15821101 -0.10312404 0.14464445 0.08579387 -0.05812874 0.056891564 -0.012128911
0.17410271 -0.056050338 0.12883101 0.09283935 0.1469373 0.16379331 0.1712241 -0.0043802876
0.15590718 -0.1016015 -0.048728924 0.068631515 0.07467958 -0.017040169 0.079956606 -0.038347542
-0.07690542 0.03069542 0.013504329 0.17821865 -0.04527163 0.009325343 0.15974613 -0.013103596
-0.09942879 0.08060073 0.09289435 -0.005098593 0.049297478 -0.029137267 -0.01374055 0.13559344
0.077935025 0.1498624 0.051489018 0.1176547 0.17069767 0.12982464 -0.011223353 0.11842363
-0.12741083 -0.1372135 0.213013 0.030427357 0.16872436 0.10897138 -0.1249242 -0.020472964
-0.007077222 0.14284405 -0.05958114 0.06214943 0.004374795 0.10665972 -0.045545187 -0.063381895
0.16878507 0.068706736 0.0026918019 0.14502329 -0.00723538 0.00020042948 0.02808014 -0.06102661
0.08581562 0.14636014 -0.14247718 0.038736228 0.122039706 0.15376718 -0.06203952 0.064373754
-0.070748165 0.073820844 0.15517065 -0.0039656027 -0.027168749 -0.122117 0.21491227 -0.058453944
00000000: 330d 423c 1371 023e d128 b3bd 6b97 363e
00000010: e64a 65bd a839 e8b9 efd2 f8bd 6d68 2b3e
00000020: cd3e e83d b951 953d b5d1 ffbd ec0f a8bc
00000030: b769 673c 68ba 84bc 6b33 d2bd 1810 603d
00000040: 13ed 8fbb ad8b 283e 9221 9e3d 411b 1c3e
00000050: cda3 523e 9321 f43c 7a99 d03d f5b1 c83d
00000060: a9e5 1b3e fd2f 343d 71f5 cc3d 8d2b 033e
00000070: dde3 b0bd c868 903d 7bc8 74bd dd71 9c3d
00000080: 0fed 2d3d 64d0 26bd d928 1e3e 4c0a 01bd
00000090: 8e6a 97bc 85fb 9a3d ce57 213e 64bf f0bc
000000a0: 3f6a e438 1102 223e b232 d3bd ad1d 143e
000000b0: b2b4 af3d 6718 6ebd 2107 693d 57b8 46bc
000000c0: fb47 323e 0a95 65bd 47ec 033e 8f22 be3d
000000d0: bb76 163e 6fb9 273e 5f55 2f3e 8488 8fbb
000000e0: 22a6 1f3e 7214 d0bd fb97 47bd ae8e 8c3d
000000f0: 9cf1 983d d397 8bbc 4ac0 a33d 5012 1dbd
00000100: 9780 9dbd f674 fb3c 4341 5d3c f37e 363e
00000110: bf6e 39bd 53c9 183c 7d94 233e 77b0 56bc
00000120: 52a1 cbbd ff11 a53d 653f be3d 1912 a7bb
00000130: 27ec 493d 47b1 eebc 0b20 61bc 02d9 0a3e
00000140: 669c 9f3d 8775 193e 26e6 523d f3f4 f03d
00000150: 5fcb 2e3e c0f0 043e 28e2 37bc 1788 f23d
00000160: fc77 02be b281 0cbe 1420 5a3e cb42 f93c
00000170: 14c6 2c3e 632c df3d 42d8 ffbd ebb6 a7bc
00000180: 0be8 e7bb b645 123e 5a0b 74bd 6790 7e3d
00000190: 715a 8f3b 6970 da3d 978d 3abd 5ece 81bd
000001a0: fed5 2c3e 1eb6 8c3d f168 303b fc80 143e
000001b0: c416 edbb 612a 5239 5208 e63c 0af7 79bd
000001c0: 1ac0 af3d 6fdf 153e 8ae5 11be e1a9 1e3d
000001d0: f4ef f93d 2575 1d3e 271d 7ebd 63d6 833d
000001e0: 6ae4 90bd 622f 973d 0ee5 1e3e e3f1 81bb
000001f0: ff90 debc 7a18 fabd f611 5c3e 676d 6fbd

ik_net.sequential_r_leg.2.weight f4 [128, 128]
-0.060802244 0.035837617 0.015691366 -0.042270526 -0.023915052 0.025814021 0.01377291 -0.054116983
0.065906696 -0.0045393496 0.07751055 0.07694295 0.008641219 0.06916063 -0.069296114 0.06331935
0.010171241 0.053335764 0.055154905 0.10661744 0.022467384 0.001708751 -0.014790299 0.09488088
0.031562295 0.006961575 -0.009966661 -0.03543471 0.10220402 -0.09099426 -0.07454307 0.068210825
-0.07278369 0.07426691 0.0038391238 0.007439573 -0.011910511 0.06928981 0.075228564 0.043424234
0.030903768 -0.07326291 -0.002210273 0.022439927 0.069609724 0.007246075 0.015720574 -0.045178324
-0.057401985 0.061703976 -0.05034045 0.022233581 -0.009600136 0.019764546 -0.05633798 0.05509454
0.08987289 0.007853087 0.06501426 0.03985935 0.07927057 0.012922887 0.0050890674 0.07833395
-0.06757413 -0.060040113 0.032790683 -0.056396447 0.070881106 -0.016446548 0.03690191 0.07154301
0.0025426624 0.02326799 -0.03797676 -0.02205996 0.013130131 -0.0026114 0.07447403 0.010535383
0.09520258 0.050998915 -0.027282242 -0.030646855 0.05569497 -0.07754923 -0.0136174075 -0.01927282
0.07803609 -0.023800084 0.010770873 0.07076818 0.027852016 0.0031518508 -0.051520143 -0.07426714
-0.028688615 0.02158212 -0.024572529 0.0010760896 -0.020034533 -0.042419277 -0.045235552 0.006278356
-0.01569382 -0.01940053 0.015881028 -0.0023596024 0.027919503 0.07124927 -0.06098051 0.017953627
0.0372455 -0.055362955 -0.035806105 0.019955197 0.0382021 -0.0023692362 -0.0015084263 -0.0030504616
0.09499881 -0.012708537 0.088741705 0.06645776 0.069018744 -0.059830263 0.010234874 0.058554996
0.0011758591 -0.04745145 -0.08533368 0.07684132 0.07628242 -0.03871701 0.063429244 0.034477986
0.05178902 -0.09337363 -0.0095529985 0.0911005 0.086872876 -0.038543418 -0.018179271 0.010680413
-0.029292684 -0.008264722 -0.050830215 0.05543694 0.0074327886 -0.046533294 0.009800582 0.098440416
-0.05733524 0.030293496 0.08772764 0.100640364 -0.030752024 -0.008174559 -0.018043056 0.03918951
0.036981914 0.0018150881 -0.075177975 -0.018458018 0.096899495 0.049440786 -0.028593738 -0.06695738
0.04272921 0.042265117 0.05143373 -0.011380702 -0.057156656 0.0011696981 0.023441462 -0.051137757
0.058111973 -0.029566849 0.06707853 0.098855436 0.022105861 0.0713761 0.047319118 -0.008566559
0.064213365 -0.06639899 -0.003447049 0.0033467065 -0.05804878 -0.0058444934 -0.034742136 0.013536179
0.01600526 -0.024667317 -0.024104377 -0.0026969246 -0.03989037 0.067537524 0.08270485 -0.049123477
-0.05200396 -0.051636234 0.0031301687 -0.013849401 0.044866797 0.051038463 -0.044098865 0.0068167304
0.009310254 0.0247627 -0.0446368 -0.03500484 -0.021706784 0.026571522 -0.055119593 0.031675223
-0.068461604 -0.023741197 -0.015283894 -0.027058117 -0.041835655 -0.056759283 0.0681005 -0.0028267244
-0.025797788 0.03199049 0.016937912 0.0953432 0.084234394 -0.07428452 0.020998066 0.00953928
0.049940016 0.0056190346 0.07201712 0.008956106 0.0136181535 0.07766264 0.0870693 0.02115347
0.07735058 0.03495694 -0.024269218 -0.010814457 0.011939202 -0.032515068 0.010053798 0.073629744
-0.038324494 0.009821494 -0.102605954 -0.053362902 0.0004252003 0.09475108 0.07357538 -0.0049546184
00000000: c60b 79bd 77ca 123d 2e8b 803c dc23 2dbd
00000010: 80e9 c3bc ed77 d33c c6a7 613c c5a9 5dbd
00000020: 17fa 863d d3be 94bb dabd 9e3d 4494 9d3d
00000030: e693 0d3c 17a4 8d3d 1feb 8dbd 93ad 813d
00000040: 47a5 263c 9a76 5a3d 1cea 613d 3f5a da3d
00000050: 850d b83c 2bf8 df3a 0353 72bc e850 c23d
00000060: 7747 013d ec1d e43b 354b 23bc fd23 11bd
00000070: 5750 d13d 335b babd 09aa 98bd 1eb2 8b3d
00000080: 9e0f 95bd 4019 983d cf99 7b3b a9c7 f33b
00000090: 4e24 43bc d1e7 8d3d 6f11 9a3d 9cdd 313d
000000a0: e629 fd3c dd0a 96bd 3ada 10bb f0d3 b73c
000000b0: 8b8f 8e3d 7c70 ed3b 6fc8 803c e80c 39bd
000000c0: 581e 6bbd 4fbd 7c3d ca31 4ebd 3323 b63c
000000d0: e449 1dbc 42e9 a13c a7c2 66bd d0aa 613d
000000e0: 470f b83d 3caa 003c 3226 853d 8f43 233d
000000f0: 9c58 a23d 84ba 533c 31c2 a63b 8d6d a03d
00000100: 4e64 8abd 9fec 75bd 864f 063d f6ff 66bd
00000110: 1d2a 913d e9ba 86bc 7526 173d 2485 923d
00000120: cca2 263b 839c be3c 858d 1bbd 17b7 b4bc
00000130: c31f 573c 0624 2bbb d785 983d 999c 2c3c
00000140: 92f9 c23d 3de4 503d 027f dfbc 1d0f fbbc
00000150: 6920 643d 21d2 9ebd 8c1b 5fbc 08e2 9dbc
00000160: 63d1 9f3d 65f8 c2bc 5178 303c e8ee 903d
00000170: e929 e43c 488f 4e3b c906 53bd 5f19 98bd
00000180: 6304 ebbc fccc b03c 544c c9bc 930b 8d3a
00000190: 761f a4bc d6bf 2dbd ea48 39bd abba cd3b
000001a0: 5390 80bc dced 9ebc ee18 823c 8fa3 1abb
000001b0: 71b7 e43c 23eb 913d b3c6 79bd 7c13 933c
000001c0: bd8e 183d 44c4 62bd 6ca9 12bd 1579 a33c
000001d0: ce79 1c3d 3045 1bbb 63b6 c5ba 41ea 47bb
000001e0: bc8e c23d 7837 50bc 36be b53d 021b 883d
000001f0: b359 8d3d 9410 75bd 2cb0 273c 5dd7 6f3d
00000200: 491f 9a3a 745c 42bd 6dc3 aebd fb5e 9d3d
00000210: f539 9c3d ba95 1ebd 31e7 813d ca38 0d3d
00000220: b920 543d ac3a bfbd 2e84 1cbc e692 ba3d
00000230: 68ea b13d b4df 1dbd b2ec 94bc e6fc 2e3c
00000240: 36f7 efbc c268 07bc 5833 50bd d811 633d
00000250: c08e f33b b299 3ebd 9f92 203c 219b c93d
00000260: 5bd8 6abd 112a f83c 8daa b33d 891c ce3d
00000270: abeb fbbc 96ee 05bc 08cf 93bc 2e85 203d
00000280: 597a 173d 40e8 ed3a e9f6 99bd 4535 97bc
00000290: 3e73 c63d 6c82 4a3d 6a3d eabc f320 89bd
000002a0: d304 2f3d 301e 2d3d 2dac 523d 2076 3abc
000002b0: 191d 6abd 8e50 993a 4f08 c03c d375 51bd
000002c0: d206 6e3d 2d36 f2bc 7860 893d b874 ca3d
000002d0: 5a17 b53c a22d 923d b1d1 413d c15a 0cbc
000002e0: 4c82 833d 32fc 87bd e3e7 61bb 6b54 5b3b
000002f0: 8fc4 6dbd 2a83 bfbb c54d 0ebd dac6 5d3c
00000300: 771d 833c 1d13 cabc 8b76 c5bc e3be 30bb
00000310: 1664 23bd 1d51 8a3d 2961 a93d b335 49bd
00000320: 1b02 55bd 8480 53bd 8423 4d3b 99e8 62bc
00000330: 3fc6 373d b50d 513d 03a1 34bd e15e df3b
00000340: 098a 183c 25db ca3c 14d5 36bd 3c61 0fbd
00000350: 6dd2 b1bc 85ac d93c 15c5 61bd e1bd 013d
00000360: 9935 8cbd e67c c2bc 4c69 7abc fca8 ddbc
00000370: dd5b 2bbd 6c7c 68bd 4678 8b3d 9140 39bb
00000380: e255 d3bc 7608 033d 60c1 8a3c 4c43 c33d
00000390: 1583 ac3d 7b22 98bd 2304 ac3c a44a 1c3c
000003a0: e78d 4c3d e11f b83b b67d 933d a2bc 123c
000003b0: ad1e 5f3c 970d 9f3d 6451 b23d 0b4a ad3c
000003c0: fb69 9e3d 022f 0f3d 3dd0 c6bc 1f2f 31bc
000003d0: a59c 433c 852e 05bd afb8 243c 31cb 963d
000003e0: 25fa 1cbd 55ea 203c 1223 d2bd 0f93 5abd
000003f0: 6bed de39 db0c c23d b0ae 963d 5a5a a2bb

ik_net.sequential_r_leg.2.bias f4 [128]
0.063223965 0.051086236 -0.029755646 -0.06881544 -0.078138426 0.020029161 0.021266714 -0.0476873
0.0032495388 -0.03243522 -0.04366092 -0.04712435 -0.020127837 0.031445127 0.033840336 0.03811877
-0.05179249 -0.017356152 0.056759495 0.004696115 0.07248899 -0.012418232 0.0774276 0.0054213265
0.1057202 -0.0949494 0.030367544 -0.0053835874 0.009506614 0.07626681 -0.018560316 0.018163145
0.06299139 0.042824194 0.03007923 0.101839356 0.010637827 0.04139694 -0.07727375 0.018599613
0.084418364 -0.02216362 0.00036127682 0.028917992 -0.035291836 -0.07268141 -0.021808991 -0.044020984
-0.007279314 0.078466885 -0.075255506 0.02431553 -0.054023392 -0.027544895 -0.041248668 -0.022562567
0.0020757488 0.05739606 0.0499451 0.015364846 0.0014214556 -0.012932034 -0.0066309357 0.005238992
0.04237932 0.05077459 -0.03108157 0.06777467 0.04180874 0.074767254 0.06322265 0.026457667
0.017249633 0.043304916 0.040872943 0.07747296 0.070729285 -0.061364543 -0.009995484 -0.035112802
0.08324135 0.026775723 0.07991909 0.08387544 0.05847196 0.07294903 -0.020943837 0.021092134
-0.029286163 -0.035756174 0.005541033 -0.014367585 0.10402853 -0.07277459 0.08160646 -0.009534669
-0.012774852 -0.010544075 -0.061459623 -0.028701155 -0.07528373 -0.02887173 -0.054726947 0.0046381247
0.045886002 0.08054653 0.0016140267 0.0013723781 -0.08527629 -0.04417451 0.0076390835 0.051652525
0.02912338 -0.03422866 0.086590834 0.059026923 0.0557293 -0.032201234 0.05695163 0.049091175
-0.067323275 -0.020755595 -0.0045208363 -0.067251444 0.04601478 0.017577192 0.05868491 0.04970061
00000000: 917b 813d cd3f 513d 1dc2 f3bc 1cef 8cbd
00000010: 0a07 a0bd 3214 a43c 8837 ae3c c253 43bd
00000020: 37f6 543b cbda 04bd cbd5 32bd 7605 41bd
00000030: 22e3 a4bc 9bcc 003d 2a9c 0a3d 6d22 1c3d
00000040: 5d24 54bd 7d2e 8ebc a57c 683d dee1 993b
00000050: 1c75 943d d775 4bbc 5d92 9e3d 62a5 b13b
00000060: d583 d83d d574 c2bd 5bc5 f83c ce68 b0bb
00000070: a1c1 1b3c c631 9c3d ce0b 98bc e0ca 943c
00000080: a101 813d 6c68 2f3d b868 f63c 2791 d03d
00000090: 484a 2e3c d68f 293d b341 9ebd 375e 983c
000000a0: 89e3 ac3d 7b90 b5bc c169 bd39 6de5 ec3c
000000b0: 2c8e 10bd fed9 94bd c5a8 b2bc 594f 34bd
000000c0: 5087 eebb 3fb3 a03d 8f1f 9abd 5d31 c73c
000000d0: a247 5dbd d5a5 e1bc 5df4 28bd 22d5 b8bc
000000e0: 4909 083b 2218 6b3d 3c93 4c3d d6bc 7b3c
000000f0: 2350 ba3a e2e0 53bc 5248 d9bb daab ab3b
00000100: f095 2d3d 04f9 4f3d c79e febc 72cd 8a3d
00000110: a43f 2b3d 931f 993d e07a 813d c0bd d83c
00000120: 1a4f 8d3c 7f60 313d 636a 273d 25aa 9e3d
00000130: 84da 903d 6359 7bbd 19c4 23bc 71d2 0fbd
00000140: 717a aa3d c358 db3c 9fac a33d e3c6 ab3d
00000150: 4b80 6f3d 4d66 953d 6992 abbc 69c9 ac3c
00000160: 89e9 efbc 1175 12bd 8e91 b53b 0566 6bbc
00000170: e90c d53d d80a 95bd 4a21 a73d 4d37 1cbc
00000180: 9d4d 51bc 0ec1 2cbc 16bd 7bbd af1e ebbc
00000190: 5b2e 9abd 6884 ecbc 5d29 60bd 69fb 973b
000001a0: f6f2 3b3d 94f5 a43d c08d d33a 5ee1 b33a
000001b0: 56a5 aebd 55f0 34bd 4751 fa3b 9991 533d
000001c0: 2894 ee3c 5a33 0cbd 8956 b13d 37c6 713d
000001d0: 6844 643d 71e5 03bd 1d46 693d d413 493d
000001e0: c9e0 89bd a307 aabc 8623 94bb 20bb 89bd
000001f0: fe79 3c3d 0bfe 8f3c 975f 703d de92 4b3d
