python/models/model_xsens/ik.pt (torch, 447771 bytes, 24 tensors)

ik_net.sequential_l_leg.0.weight f4 [128, 49]
00000000: efc0 9cbd b892 293e b070 053e 1bdc 96bd
00000010: 8238 00be 1498 6f3d 196b adbd 2001 2fbd
00000020: 3f5c 543c 0c00 d0bd b80f 04bd 743c bcbd
00000030: 22dd b33d 0b77 133d 8aee fdbc 5bb7 ebbc
00000040: 14a4 233d 0982 67bd c2c5 86bd dbc7 a23d
00000050: 29d5 653d 62c9 783d 9c10 903d ea88 0f3d
00000060: 6314 9e3d 214b 803d aa55 8ebb 95bf 18be
00000070: 1e04 05bd a8a5 533d 60a4 943d e7cd d63b
00000080: c789 16be af2c 7bbd eb41 86bc 1c16 40bd
00000090: 3fc3 9e3d bedc 1a3d 8b5c 933d bbb3 ddbc
000000a0: 0f87 3d3d 9e32 b33c 3269 bebd 45e4 82bd
000000b0: 465f aabd b0de 163e 318b cabd d631 0f3e
000000c0: 672f 1e3e 76fa d93d dc64 a53d 9a24 65be
000000d0: a111 e3bd 9b47 ec3d c934 8fbd fc8d a53d
000000e0: 0f9b 103d fae1 e7bc 9c24 a3bb 3a33 8f3c
000000f0: 93eb 5d3b 3d55 04bc 32e7 43bc e4f4 7bbd
00000100: ef4c 5c3d 2d0e f93c fa90 f43c 4a14 8a3d
00000110: 3ab5 5abd 5a80 bc3d 8c33 57bc 00e5 a1bc
00000120: b653 1e3d 8820 50bd 5a00 d13b db21 f3bd
00000130: f35d bbbd 5a66 70bc fccd 91bc 6c97 fdbc
00000140: 4370 ef3b aa34 893d 7d2a 123d 8ca6 efbc
00000150: d5f6 573c 60a7 f2bb 05cc 783d 5143 6fbd
00000160: 7fff 663c 0521 b5bd a212 4cbd f6a1 a8bd
00000170: 28e3 203e 3bd0 12bd 3332 7f3e 5805 623e
00000180: 77d8 a4bc 27fd 38be 35f6 4a3c 4581 e7bc
00000190: 2e5b a3bc 38e6 b7bd 6062 893c a0c5 08bd
000001a0: 2247 8cbd 4fde 543d 0a78 18bd 0910 42bd
000001b0: 8a86 223d 9147 6a3d 9435 833d cb47 713d
000001c0: ff4d fabc c632 623d 3063 523c ec0e 863d
000001d0: 3f31 4bbd e0be 10be 80c1 a93d 368b 383d
000001e0: 2a17 093d 297c 8abd 2ef9 913d 3921 2d3d
000001f0: 8572 03be 6b5b dd3d 168c 953b b136 193d
00000200: 9652 a03c fd55 bfbd 00d6 feba a293 2e3c
00000210: 66f5 9c3c 63a3 2c3b 4d6c b2bc c28e 633d
00000220: 5c10 b1bd d605 9f3d c63b f53c 06d4 50bd
00000230: aec4 3abe 3e61 5bbe 0123 f03d fdc3 fa3c
00000240: 056a 33bd 71d7 783d 355a 033e 4255 c3bb
00000250: 287f 91bd 00fe 23bc a5b0 ffbc 323a 47be
00000260: 5b30 b9bc 3709 2c3d 38f4 9dbd 0d08 c9bb
00000270: bd3f 6bbd d601 38bd f82a ae3d c6eb 4a3d
00000280: d648 4e3c 5855 05bd 9eef 263d 5793 543d
00000290: 543f aa3d d34a 3fbd 0a3a 71bd 8b9b 2b3d
000002a0: a01e 223d b2ee f6bd 1051 dbbc 3a35 463d
000002b0: 78b3 093d b8e0 54bd 6cd5 d1bc b082 2dbd
000002c0: 5cc8 3a3d 4fc2 37bd 68a6 65bd 2e22 ebbc
000002d0: c7be 7b3b d3a6 bdbc 9eef a6bb 40f2 213b
000002e0: db58 bdbc 3e98 23bd 22ac f5bc 463b 863c
000002f0: 88bc 813d 0d9e 22be dc77 1f3e c523 c43d
00000300: 094d d33c 4e3a 7c3e 3acc dd3d af65 0cbe
00000310: ecc0 753d 39b5 50bc d542 9cbd a425 253d
00000320: 85e4 113e 2460 d2bc 61bb c13c a1e5 babc
00000330: 37db ef38 26d2 f03c fbda a2bd 8a96 283c
00000340: 8c6d 203d 17ed 25bc 795a 27bc 90ad 033e
00000350: e38c e43d cc38 7cbc ec0f b13c ffe6 14bd
00000360: a796 16bd 87a5 ac3c b7cc 6c3d 762c 0fbd
00000370: 949a 843d 79f0 133e 7bb5 783d 3578 01be
00000380: b83b 5ebc 5357 b9bd b28f 063c b373 863d
00000390: cd33 c6bd 5998 43bc ace7 393b a12b aa38
000003a0: 1493 283d ac5a 00bd 00ac 12bc e522 5ebd
000003b0: 6136 6a3d eb5d 28bd 440c 543e f62d e83d
000003c0: c826 253e 5492 1e3e 2d5a 4b3e 5c68 aabc
000003d0: c960 84be 70fa d5bd 6846 fcbd d5c2 323e
000003e0: 7dea 9f3d 748c 73be 2652 ee3d a874 c63d
000003f0: 48d3 afbe 480f bf3b 9c65 1dbd fc74 04be
-0.07653987 0.16559875 0.13031268 -0.073662005 -0.12521556 0.058494642 -0.08467693 -0.042725682
0.012961446 -0.10156259 -0.032241553 -0.09191218 0.08782412 0.0360022 -0.030997533 -0.028773954
0.0399514 -0.056520496 -0.06580688 0.07948276 0.05611149 0.06073893 0.07034418 0.03504268
0.07718732 0.0626433 -0.004343708 -0.14916833 -0.03247463 0.051671654 0.072579145 0.006555307
-0.14700995 -0.06132191 -0.016388854 -0.046896085 0.07752084 0.037808172 0.071953855 -0.027063241
0.04627138 0.021874722 -0.09297408 -0.06391195 -0.08318953 0.14733386 -0.0988983 0.13983855
0.1544777 0.10643475 0.08075878 -0.22377244 -0.11087347 0.11537095 -0.0699249 0.08083722
0.035304125 -0.028305996 -0.0049787294 0.017480481 0.0033862337 -0.008076963 -0.011956977 -0.061512843
0.053784307 0.030402267 0.029854286 0.06742151 -0.053395487 0.092041686 -0.013134848 -0.019762516
0.03865405 -0.050812274 0.0063782157 -0.11871692 -0.09148779 -0.01467284 -0.017798416 -0.030955993
0.007307084 0.06699498 0.03568505 -0.02925422 0.013181408 -0.0074052066 0.060741443 -0.058413807
0.014099001 -0.088441886 -0.049822457 -0.082340166 0.15711653 -0.035843115 0.24921493 0.22072351
-0.02012275 -0.1806532 0.012387802 -0.028259883 -0.019940939 -0.089794576 0.016770542 -0.033391595
-0.06849505 0.051969822 -0.037223853 -0.047378574 0.039679088 0.057197157 0.064067036 0.058906358
-0.03055477 0.055224203 0.012841031 0.06545815 -0.04960751 -0.14135313 0.0828886 0.045054637
0.033469357 -0.06761963 0.071276054 0.04226801 -0.12836654 0.10808452 0.0045638187 0.037405673
0.01957063 -0.09342573 -0.0019442439 0.010655316 0.019159984 0.0026342503 -0.021780157 0.055556066
-0.086456984 0.07764785 0.029935729 -0.05098345 -0.1823909 -0.21423814 0.117254265 0.030611033
-0.04380228 0.060752336 0.1282738 -0.0059610913 -0.07104331 -0.010009289 -0.03121216 -0.19455793
-0.022606065 0.042000975 -0.07712597 -0.006134993 -0.057433832 -0.044923626 0.085042894 0.049541257
0.012590608 -0.032552093 0.04075586 0.051898327 0.0831286 -0.046702217 -0.05889324 0.041896384
0.039579988 -0.12057246 -0.026772052 0.048390605 0.03361842 -0.05197212 -0.025614463 -0.04236096
0.045601234 -0.04486304 -0.0560669 -0.028702822 0.0038413273 -0.023150837 -0.0050944826 0.0024711043
-0.023113659 -0.03994011 -0.029989306 0.016385686 0.063347876 -0.15880604 0.15573066 0.09577135
0.02579357 0.24631616 0.10829969 -0.13710664 0.059998438 -0.012738519 -0.07629935 0.0403191
0.1424733 -0.025680609 0.02364892 -0.022814574 0.0001143724 0.029397082 -0.079519235 0.010289798
0.039166972 -0.010127327 -0.010214441 0.12859178 0.111596845 -0.015394401 0.021614037 -0.036353108
-0.036764767 0.021075023 0.05781242 -0.03495451 0.06474796 0.14447202 0.06071995 -0.12643512
-0.013564043 -0.09049859 0.008212971 0.065650366 -0.09677849 -0.011938178 0.0028366847 8.114358e-05
0.04115589 -0.03133647 -0.008952141 -0.054232497 0.057180766 -0.041105192 0.20707804 0.11336891
0.16128075 0.15485507 0.19858618 -0.020801716 -0.2585509 -0.10448158 -0.123181164 0.17457135
0.07808397 -0.23784047 0.11636762 0.09690219 -0.34340882 0.005830679 -0.03842698 -0.12935251

ik_net.sequential_l_leg.0.bias f4 [128]
00000000: d969 efbc cdff 463d 2a29 4ebd a445 413d
00000010: 4dd1 433d fe73 08be 8397 08bd 056a 2ebd
00000020: 6200 2b3e 3ae3 613e 97a9 cb3d 7c32 58be
00000030: 84dd 8f3d 0ace 1d3e f6da 92be 991f 7bbd
00000040: 7617 743e 6af9 8d3e 51e0 fcbd d33f dbbd
00000050: 8add 553a be20 5dbd 25fe 39bd b8f9 063e
00000060: cb44 b33d 4482 1fbd 90dd 72bd 9e11 b5bb
00000070: 741e 363e 24a4 febd 44b4 1cbe 1516 a23d
00000080: 34bb f7bc 8e6b 28be 6093 2ebd fe85 1c3e
00000090: 65b9 623e 8db8 a43e 6cd2 adbd b769 7c3e
000000a0: f7b4 943d 312c 733d fe90 26be ecc8 723e
000000b0: 776a 043e 757c f43d d1d5 3c3e 6786 1cbb
000000c0: 179e 073d 69c6 4cbe ad4f 3e3d 2719 dabd
000000d0: 5116 3abe 6d36 3bbe 7622 49be e4f5 f1bd
000000e0: 07b4 85bd e9c6 f73d 9ae2 5e3e 07f4 17bd
000000f0: c393 eb3d b7ed 26be 76a9 6a3e 5f81 b43e
00000100: aa7d 0a3d be62 1dbe b9d5 a8bd 2826 32be
00000110: 5f48 4dbe 85bd 15be 5803 debd 1936 313e
00000120: fb73 6c3c fd3b 26bd 518f d8bd 808d 813e
00000130: 7dca 5e3e 4b97 e63d a233 09bd 7b8c c63c
00000140: d752 9bbd d163 723b bda8 5fbe 8558 bf3e
00000150: 18d2 fa3d a8d8 8d3e df9e 3fbd d5b9 5a3e
00000160: 8ddb be3d 2777 e3bc 9c8a 30bd 53bb f3bd
00000170: 12e9 ec3d f783 d9ba 4b60 80bd 42d8 9f3c
00000180: 7435 26be 07e8 74bd 3696 443e 6ed1 863e
00000190: 6626 30be 4b4a 1ebe 9563 dcbd 257f 67bd
000001a0: dbc2 803e 580a 3c3d 62cc 2ebe 563b e1bd
000001b0: 62d1 24bd 2bfe 353b b9ff 153d 66fc 5c3e
000001c0: 671e 2b3d 55c6 51bd ddf8 e1bb c093 bebc
000001d0: 410a 493e e515 3d3e 41c9 d3bd 0ea9 55bd
000001e0: ce2b 37be a950 37bc 4b55 633d 8d7d 833e
000001f0: 4273 e3bd e4f2 123e 3d08 6d3e 0ed9 7f3e
-0.029225277 0.048583794 -0.050332226 0.047185555 0.047807027 -0.13325498 -0.033347618 -0.042581577
0.16699365 0.22059336 0.09944456 -0.21113008 0.070246726 0.15410629 -0.2868268 -0.06130943
0.23837075 0.2772935 -0.123474725 -0.10705533 0.0008158317 -0.053986304 -0.045408387 0.13181198
0.087533556 -0.03894259 -0.05929333 -0.005525782 0.17785054 -0.12433651 -0.15303141 0.07914368
-0.030240633 -0.16447279 -0.042621017 0.15285489 0.22141035 0.3217205 -0.084874004 0.24649702
0.07261079 0.059368316 -0.16266248 0.23709458 0.12931238 0.11937801 0.1844094 -0.002388382
0.03310975 -0.19997562 0.046462703 -0.10649329 -0.18172576 -0.1828248 -0.19642052 -0.11814478
-0.06528478 0.12098486 0.21766129 -0.037097957 0.11502793 -0.16301619 0.22916207 0.35254952
0.03381125 -0.15369698 -0.08243889 -0.17397368 -0.20047139 -0.14623077 -0.108404815 0.17305793
0.014431949 -0.040584553 -0.105742104 0.25303268 0.2175693 0.112593256 -0.033496507 0.024236908
-0.0758416 0.0036985765 -0.21841712 0.37372223 0.122471035 0.27704358 -0.04678237 0.21359952
0.0931922 -0.027766777 -0.04310094 -0.11900964 0.11567892 -0.0016595115 -0.062683664 0.0195123
-0.16231328 -0.05979159 0.19197926 0.26331657 -0.17202148 -0.15458028 -0.10761181 -0.05651774
0.25148663 0.045908302 -0.17070153 -0.109976456 -0.040238746 0.0027769904 0.03662083 0.21580657
0.04177704 -0.051214535 -0.006896122 -0.023263812 0.19632818 0.18465383 -0.103411205 -0.052163176
-0.17887804 -0.0111886645 0.055501264 0.25681725 -0.11105968 0.14350468 0.23147674 0.24985144

ik_net.sequential_l_leg.2.weight f4 [128, 128]
00000000: 927b a6bd e27b d2bc 178b 873c 976e 103d
00000010: 37ed 15bd f1f2 e03d 4c67 a03d f8b0 8e3c
00000020: 981b 9cbd 959f 953c f289 553d f7d5 1a3d
00000030: 5106 08be 3480 33bd ed01 433e 1b78 f3bc
00000040: 3c3d de3c ff80 90bd fb77 3b3d f887 043d
00000050: ba0e 513d 0cbe 4e3c 9a58 77bd 2fe6 eebc
00000060: 1037 92bd 110c 143d 5fc6 56bd 4d5e 80bd
00000070: 5b71 aabd 84c5 1e3d 8e48 423d 3068 943d
00000080: 4296 623c 71e9 59bd f55a fe3c aee2 b6bc
00000090: 2d57 8bbd 31d7 f7bd 4be7 ccbb 3e21 343d
000000a0: e4e6 62bc 9999 0a3d a6ad 01bd 8364 02ba
000000b0: ead6 bcbc a801 073d f1f9 2c3d 78a3 91bd
000000c0: e644 febd 6935 8d3d 0260 86bd db56 f8bc
000000d0: 722b 53bc 9ffd 223e 09be 5c3d 7b6a b23d
000000e0: ec70 123c 6072 98bd 8643 5ebd 006e 1bbc
000000f0: 954c 563c 7982 98bc f4b2 ccbd 6dc9 29be
00000100: dce6 adbc 0b84 703c 07e7 81bd 24b3 423d
00000110: f49f 1abd f9e9 473d 265b 19be 96fc c4bd
00000120: 2f4e 113d cb00 963d 2112 bd3d 658e 423d
00000130: e093 7bbd f9a4 efbc 305e 54bb be46 7cbd
00000140: b1ee 3e3c 9c82 543d d509 663d 1de3 e7bd
00000150: 6861 9fbd 92d3 f73c f6d3 8a3d ed2a ecbd
00000160: 5002 8b3d 0c1e 953b 86fe 063c 7eee 30bc
00000170: 35ab ee3c ab4d ef3d cfdf 86bc abc6 353d
00000180: 3ef8 c83c 4537 fe3d 1659 3c3d 27c8 66be
00000190: 870a 273c 645a 12bb bb37 35bd 5e73 19bd
000001a0: 182a 15bc f93c 773d e142 273d 131a e7bc
000001b0: dd53 81bd ab43 a53d af6c b73c 0b29 d33c
000001c0: 0e81 07bd 9a77 c03d 5020 ecbd 8b05 a63d
000001d0: ccba da3b c2b5 b0bc 0f99 4d3d 8d79 26bd
000001e0: 379c d83d cc98 6b3d 221b c5bc 6111 d3bc
000001f0: 52d8 c33d ea9e 19be e6e0 a8bd 0e6f d93c
00000200: ea8a 7dbc 70b6 46bd 69ad e0bd 1c74 033b
00000210: c3b3 95bd 9db8 903d 8191 a23c 8325 d8bd
00000220: 6ee6 38bb 769e d6bc 9e2f 0d3d 46cc 123d
00000230: 3bb3 b5bc b2be 4dbc 3a14 823d 5c4d 2abd
00000240: 3eb0 2abc 0cc0 a0bd e398 c93d 099f bd3d
00000250: 0b6f ccbc 5683 93bd 82d9 133d e9ae 033d
00000260: 081f c33b e5f8 ee3d 0fec 4d3d 6065 d2bd
00000270: ee0b a6bd 66e9 da3b fca5 0f3d 14ef 683d
00000280: 84a2 28bd 8001 bcbc dc84 c6bc 908d a1bd
00000290: ce43 a5bd 36c1 05be dec4 ddba 1dcf b6bd
000002a0: c3f2 b3bc cab8 78bd 8bfd 203d 1de1 743d
000002b0: 8e01 233d b014 ad3d 37b6 a1bd 2be4 103d
000002c0: 4f9a bbbd 306f 863d 5268 e5bc 5dab 3fbd
000002d0: d51b ed3c b14a 803d 4931 d43d c07e 493d
000002e0: fd36 59bd 48b6 3cbd 3ba1 a63d 3280 08bc
000002f0: 762a 023d f262 33bd 9c2b d2bd 1a7e 5abd
00000300: 9e1c 9fbd 3ffe e3bc af34 073d 9f5f 0d3e
00000310: fbf6 ff3c 7009 213d 522d f0bc 2a3b 30bd
00000320: 1647 2fbe 217b c93d 3874 c8bc f9a3 3bbd
00000330: da9b 063d 2c5a 13be fa2c 09be b643 d63c
00000340: a22e 413c 227e e03d 0c36 283d 4c60 fa3c
00000350: 2c59 12bd d3db 983d 7c6c 643d 9abd bdbd
00000360: 7d84 4abc 8d6d 95bd fe46 333d 5aea f03c
00000370: 8fbf bd3d ff53 6a3d 657e 473d 6ed4 6c3d
00000380: 9e32 9b3d 97d7 fbbd 082c 373d 05d7 30be
00000390: 004a c43d e75c 153b fc0c 9c3d 2bb0 04bd
000003a0: d57a e13b 2635 06bc a4ab 913c cfe8 a93b
000003b0: 8396 3bbc 0540 c33c 77d1 a4bb 0a30 9dbc
000003c0: 009b 80bc 5cb0 c13d b19c 68be 73cf 843d
000003d0: 91f2 ac3c d409 d4bd 2263 88bd 4a2e 20be
000003e0: d3bd 5bbc f130 0fbc 0615 ce3c 173f 713a
000003f0: 90b6 1b3e 5ed9 8fbb 9abb a53d 2b3d ea3b
-0.08129038 -0.025693838 0.016545815 0.035261717 -0.03660318 0.109838374 0.07832202 0.01741837
-0.076224506 0.018264571 0.052133508 0.03780171 -0.1328366 -0.043823436 0.19043703 -0.029720357
0.027128808 -0.07055854 0.04576872 0.032356232 0.051039435 0.012618553 -0.06038723 -0.029162494
-0.071394086 0.03614432 -0.052435275 -0.062679864 -0.08322402 0.038762584 0.047432475 0.07246435
0.01382977 -0.053201143 0.031049231 -0.022324886 -0.06803737 -0.121015914 -0.006253158 0.043977015
-0.013848994 0.03383789 -0.031659745 -0.0004974084 -0.023051698 0.032960564 0.04223055 -0.07111257
-0.12415485 0.06894953 -0.06561281 -0.030314853 -0.012888776 0.15917061 0.05389217 0.08711716
0.0089380555 -0.0744369 -0.054263614 -0.009486675 0.013079782 -0.018616902 -0.0999507 -0.16580744
-0.021228246 0.014679919 -0.06342893 0.047534123 -0.0377502 0.048807118 -0.14976177 -0.096184894
0.035474952 0.0732437 0.092319734 0.04749908 -0.06142032 -0.02925347 -0.0032404773 -0.061590903
0.011653588 0.05188237 0.05616172 -0.11322615 -0.07782251 0.030252252 0.067787096 -0.11531625
0.067875504 0.004550701 0.008239394 -0.0107990485 0.029134372 0.11684736 -0.016464142 0.044378918
0.024532434 0.124128856 0.045983396 -0.2253729 0.010195381 -0.002233171 -0.0442426 -0.03746354
-0.009104274 0.060360882 0.040835265 -0.028210675 -0.06314824 0.08069547 0.022390692 0.025776407
-0.03308206 0.09397812 -0.115296006 0.08106526 0.0066751 -0.021571044 0.050194796 -0.040643264
0.105766706 0.057518765 -0.02406079 -0.025765123 0.09562744 -0.15002027 -0.08246021 0.026542213
-0.015475014 -0.04851383 -0.10970575 0.002005822 -0.073096775 0.07066462 0.019844772 -0.1055403
-0.0028213519 -0.026198607 0.03446924 0.03583934 -0.02218019 -0.012557672 0.06351514 -0.041577682
-0.010417996 -0.0784913 0.09843614 0.09258849 -0.024955293 -0.07202785 0.036096103 0.03214923
0.005954627 0.116685666 0.05027395 -0.10273242 -0.08107744 0.0066806553 0.035070404 0.056868628
-0.041170612 -0.022949934 -0.024233274 -0.07888329 -0.08069573 -0.13061985 -0.0016919633 -0.089262225
-0.021966344 -0.060723104 0.039304297 0.059784997 0.039796405 0.084512115 -0.07896083 0.035373848
-0.091602914 0.06564176 -0.028003845 -0.046794284 0.028943935 0.06264246 0.10360963 0.049193144
-0.053030957 -0.046072274 0.08136221 -0.008331345 0.031778775 -0.043795533 -0.10262224 -0.053342916
-0.0776913 -0.027831195 0.033009227 0.13806008 0.0312457 0.03931564 -0.029318485 -0.043025173
-0.17116961 0.09837938 -0.02446948 -0.045810673 0.032863475 -0.14389867 -0.13396063 0.026155334
0.011790903 0.10961558 0.041067168 0.030563496 -0.035729572 0.07463803 0.05576752 -0.09264679
-0.012360689 -0.07296286 0.043768875 0.029408623 0.092650525 0.05720901 0.048704524 0.057819776
0.07578014 -0.1229698 0.044719726 -0.17269523 0.09584427 0.002279097 0.07619664 -0.03239457
0.006881098 -0.0081913825 0.01778204 0.0051852237 -0.011449459 0.023834238 -0.005029853 -0.019187946
-0.01569891 0.09457466 -0.22716023 0.0648488 0.021111758 -0.10353437 -0.06659533 -0.15642658
-0.013411957 -0.008739696 0.02515651 0.00092028215 0.15206361 -0.004389926 0.08092423 0.007148405

ik_net.sequential_l_leg.2.bias f4 [128]
00000000: f57e c2bd 0e3e 80bd 178a 803d 016d 3b3d
00000010: 8618 aebd 5a57 98bd f9f3 d53d 7fc0 a43c
00000020: c06f fb3b af65 05be 2b64 d2bd 8794 eebd
00000030: c58f 833c 68a6 043e 3972 963e ff09 78bd
00000040: 0f12 c63b 4355 4dbd 90ab 4abd 4d47 b4bd
00000050: 56e7 c63d e1d8 d53d ed3f b8bc 7889 f2bc
00000060: 018b 3a3e 2742 393d b32d e9bc 0521 843e
00000070: 3b1f c2bd 7f7c 46bc b9c1 3ebd 1c4b 933d
00000080: 4442 933c ec10 81bd ebb4 353e 118c 623d
00000090: 9996 e0bc 0cce 603c 4f71 e83d 8ab6 a8bc
000000a0: 0046 483e 4e01 a8bc fde4 903d c3c9 703e
000000b0: 3ceb cabd 6b29 1abe 5979 883c bf81 273e
000000c0: 9669 ee3c 2a86 42be bdb0 a8bd 4408 813d
000000d0: b271 e5bd 424b bbbc e16f 5abb 1ae0 dabd
000000e0: bd67 d93c 78d2 c93c e057 f7bd 18b7 d8bd
000000f0: ea72 8c3e c2a1 96bd ba66 433e 3de5 3dbd
00000100: d72d 953d 5261 f33d 6c0c 7fbd 6a6b 393e
00000110: de91 293e 1b8b a3bc cc9e 163e 45ce afbd
00000120: 8f9b 023d 9951 22be d746 e73d f789 e03d
00000130: d3b1 a7bd 5247 3fbe c94f c8bd 9760 b23d
00000140: eb87 223d eb32 59be 23cf 17be 6a7b 0dbe
00000150: 5396 81bd cb39 84bc c6ad 2eba 5f06 94bd
00000160: 4fbb 8ebc eda1 0abd 8b28 86bd 2d85 84bc
00000170: 5094 a43d a7aa d03d d826 063e c09c 1a3d
00000180: e3ed 26be 3cb4 433c 9a54 4a3e 15b4 053d
00000190: 549f e43c 9acc d1bd 981a e6bd 6dba 633c
000001a0: 22ca 4f3d 196e 683d c331 20be f08a cfbd
000001b0: 87d7 08be 3cfc 893e 7978 023e ff27 1f3e
000001c0: a8aa 293e c595 e5bd 781d 4a3e 5837 ab3d
000001d0: 8c75 0b3e 812b f7bd 27eb 32be 9a2c 373e
000001e0: b4d9 82bd 8e45 ddbc 09a0 ffbd 8c8e d3bd
000001f0: 3f5f 513d 4c21 9dbc caa1 42bd eca3 1d3e
-0.094968714 -0.06261836 0.062763385 0.04575825 -0.08500771 -0.07438536 0.10446925 0.02011132
0.0076732337 -0.1302707 -0.10273012 -0.11649423 0.016059766 0.12954104 0.2938402 -0.060556408
0.006044633 -0.05013014 -0.04948002 -0.08802662 0.097120926 0.10441757 -0.02249142 -0.029606566
0.18217088 0.045229103 -0.028464174 0.25806442 -0.09478613 -0.012114643 -0.046571467 0.0719206
0.017975934 -0.06302056 0.17744796 0.05530936 -0.02741556 0.013721 0.11349737 -0.020594854
0.19557953 -0.020508435 0.07074926 0.23514466 -0.09908149 -0.15054862 0.016659426 0.16358088
0.029103082 -0.18996492 -0.08236835 0.06300405 -0.11203326 -0.022863034 -0.0033330845 -0.10687275
0.026538724 0.024636492 -0.12077308 -0.10581797 0.27431422 -0.073550716 0.19082156 -0.046361197
0.07284134 0.11883797 -0.062267706 0.18107381 0.1655955 -0.019963792 0.14709014 -0.08584265
0.031886633 -0.1585144 0.112928085 0.10963815 -0.08188214 -0.1867955 -0.09780843 0.08709829
0.039680403 -0.2121083 -0.1482511 -0.1381661 -0.063275 -0.01614084 -0.00066634675 -0.07227778
-0.0174233 -0.03384583 -0.06550702 -0.016176784 0.08036101 0.10188799 0.13100755 0.037747145
-0.16301684 0.011944827 0.19758835 0.032642443 0.027908005 -0.10244103 -0.11235541 0.013899428
0.05072988 0.056745622 -0.15643983 -0.10133922 -0.13363467 0.26950252 0.12741269 0.15542601
0.16569006 -0.11210207 0.19737804 0.08360165 0.1361906 -0.120688446 -0.17472516 0.17888108
-0.0638918 -0.027010705 -0.12481696 -0.10329923 0.051116224 -0.019180916 -0.047517575 0.15394562

ik_net.sequential_l_leg.4.weight f4 [24, 128]
00000000: dfbf d7bd 9716 90bc c02a c13d 6976 143d
00000010: a69c ac3b 9b20 f03c 35cb 7e3d 9a89 0f3d
00000020: 7e2f 1fbd cf11 2ebe 7733 403e 0c4e b8bd
00000030: ae0e b43e 7c55 96bd f5f0 903d c3fb 493b
00000040: d09d ffbd 2153 d1bd e057 d5bc 3b9c ab3d
00000050: c9b3 ae3c 4f0d 6b3d bd78 46bd daf6 90bb
00000060: f86a 873b d698 1bbc 2381 11be f0bb 7dbd
00000070: 4ae2 c0bd f8c4 a23d 36b0 18bd 587f 3d3c
00000080: 9f00 acbc 39fc b93d d6d6 01bd 4f75 35be
00000090: 3e5e 69bd d4e7 dfbd a03b fdbd c1e3 1c3d
000000a0: 0574 d8bd 877f c2bd 4bcc e0bc 8662 bc3d
000000b0: 7d06 11be 9511 153c 7ffe aa3c 9e37 72bd
000000c0: 92f1 f0bc 48fe 653d bec3 3a3b edd9 c8bd
000000d0: e47d f53c 5c3a f23d 09ed 84bd ef4a a5ba
000000e0: 93de 4a3c 8a85 81bb f203 453d 952d 17bd
000000f0: 35bd 823d 935f 4dbd 3f1a 00be e859 2c3d
00000100: 3033 8b3d 684e 69bc 37ab 0e3c 6fe9 e83b
00000110: 5f9f b0ba 39cf 09bc 243d 8c3d e4cd cebc
00000120: 024b 8a3d eeef 983d 3553 c6bd d9d7 e1bb
00000130: 6f46 e1bd 3a7c 0cbe 3fc8 3f3c ef63 d5bd
00000140: 88c0 1abd 2b18 f5bd 3b9a b7bc 48cf 6a3d
00000150: 4f12 3b3d f4f8 12bd 25bc 2c3d e271 ccbc
00000160: f2fa a03d aa25 babc 1e3d e8bd 86da b43d
00000170: 5947 e6bd e44d bd3c a203 32bd d849 f8bd
00000180: 2fd2 073c 6912 ed3d 289c ae3d 6a03 eebd
00000190: a9b8 cb3d 9d17 c7bd 7c03 3cbd 1977 8e3d
000001a0: 8e21 133d b232 cbba 7c35 8cbd 977d d93d
000001b0: 1ec2 61bd 5a48 bcbd 40ec 683a 9d92 f5bc
000001c0: fcb1 a0bd 91d9 45bd baef 4b3c 26e5 aa3d
000001d0: 3c57 06be 3810 81bc 9cf1 b4bc c3a1 12ba
000001e0: 3c2e 85bd 07b3 e8bd dc3b 61bd 35e5 4f3d
000001f0: c237 d9bd 964d a53d bda2 513c 760c c93c
00000200: ee84 6abd 2d08 aabd 0789 903c 7171 da3c
00000210: 721f fbbd 6efb 40bc dd35 c3ba 139b 70bc
00000220: a3d1 5abd 920c ecbc 29ae d53d 6205 a1bd
00000230: ebef 833d 730e 4fbd 6391 8a3d 8d8d dd3c
00000240: 3089 273c 3c63 d5bc 108b 48bd 7f91 243e
00000250: d4ce 6dbd e2fd 293d 2757 363c d513 eb3a
00000260: 0070 8a3d 1122 4abd 9dc0 cbba 5707 f2bb
00000270: 5912 46bc f257 8d3c cbed dfbc a4a5 213d
00000280: dbf4 c6bc 438b fcbc 4081 eb3b 20f3 6e3d
00000290: e5c7 83bd 0a6b 18bd 07a2 68bc afeb 82bc
000002a0: baf0 cdbc 8cee 8a3d f4ed 643d 5228 3ebd
000002b0: b519 c5bd 502f c2bb ecfa e6bc 11b4 0abd
000002c0: 4540 763c ba2d a2ba d42b 2abd 5ce6 453d
000002d0: db90 01bd 13d9 473d 1104 84bd 3378 6dbd
000002e0: 88c4 eebc d0fd 473d 6a79 e0bc fd21 96bc
000002f0: 57cb 173d c92e 053d 290e 893d 4c4d 31bd
00000300: 8106 a0bc 75d1 55bd b371 c4bc e8fc 893d
00000310: e2c9 babc fb63 73bc 8d0e 2f3d 8914 0ebc
00000320: a21a 023d 680c 763d 01a2 a53c c7db 03bd
00000330: a74c 063d dfa2 dabd b8a5 02bd 5f3f f9bc
00000340: 7ee6 5cbd c668 293d 6805 31bd 4cbb 3d3d
00000350: 6222 9ebd f1ed c2bd 0ebd 67bd 1ac6 86bc
00000360: b1fb 90bb f8b9 a2bc 45d2 03bd f957 933d
00000370: df65 103d 598b babd fd09 05bd 36a5 4d3d
00000380: 497a 93bd 67c2 50bd 049c 933d 2d6a 3c3d
00000390: dbab 9c3d 18ff 9c3b 22a5 8c3c 6b18 843d
000003a0: 5aee 983d 34d8 ef3c d49d c2bd a3d4 1ebd
000003b0: daa1 013d 2dcc 0ebb 4828 2bbc 999c 64bc
000003c0: c124 0b3d 6e5a 293c 408e 03bd f8d4 773d
000003d0: 4dbf f3bc 18f6 c1bc 3031 4abc 5972 b33b
000003e0: 1c98 a2bb 39fc 81bd 3310 cebd ce83 b13d
000003f0: ae5a 713d b06f 923d ec55 44bd d3a6 3dbd
-0.105346434 -0.017588897 0.09431982 0.036245737 0.0052676974 0.029312422 0.062205512 0.035043336
-0.03886365 -0.16998981 0.18769632 -0.08999261 0.3516745 -0.073405236 0.07077209 0.0030820228
-0.12481272 -0.10220934 -0.026042879 0.08379408 0.021325963 0.05738574 -0.04845499 -0.0044239582
0.0041326247 -0.009496888 -0.14209418 -0.06194681 -0.09418161 0.07947725 -0.037277423 0.011566006
-0.02099639 0.09081311 -0.031699024 -0.17720531 -0.056974642 -0.109328896 -0.12364888 0.03830314
-0.10569004 -0.0949698 -0.027441164 0.09198479 -0.14162631 0.00909843 0.020873306 -0.059135072
-0.029412065 0.056150705 0.002849802 -0.09807191 0.029967256 0.118275374 -0.06490523 -0.0012610833
0.012382167 -0.0039526867 0.048099466 -0.036908705 0.063837446 -0.050139975 -0.12510012 0.04207793
0.067968726 -0.014239885 0.008707813 0.0071079056 -0.0013475231 -0.008411222 0.06847599 -0.02524466
0.06752588 0.07467638 -0.09683839 -0.006892186 -0.10999762 -0.13719264 0.011705457 -0.104194514
-0.03778127 -0.119675 -0.02241241 0.057326585 0.045671757 -0.03588195 0.042171616 -0.024956647
0.07860364 -0.022723038 -0.11339782 0.088307425 -0.11244077 0.02310843 -0.043460496 -0.121234596
0.008289858 0.11575777 0.08525878 -0.11621745 0.099473305 -0.09721301 -0.04590176 0.0695631
0.035920672 -0.0015502779 -0.06846139 0.106196575 -0.055116765 -0.091934875 0.00088853016 -0.029977137
-0.07846448 -0.04830319 0.012447292 0.08344488 -0.13119215 -0.015754804 -0.022087865 -0.00055935624
-0.06502959 -0.11362272 -0.054988727 0.0507557 -0.10606338 0.08071439 0.0127951475 0.024542075
-0.057255678 -0.08302341 0.017643465 0.026665421 -0.12261857 -0.0117786955 -0.0014893372 -0.01468541
-0.05342258 -0.028814588 0.10433609 -0.07862355 0.06442245 -0.05055089 0.067660116 0.027045036
0.010225579 -0.026048295 -0.048960745 0.16071127 -0.058058575 0.041501887 0.011129177 0.0017934988
0.067596436 -0.049348895 -0.0015545074 -0.007386129 -0.012089335 0.01725385 -0.027335068 0.039464608
-0.024286678 -0.030828124 0.0071870387 0.05833733 -0.06434611 -0.037211455 -0.014198787 -0.015981523
-0.025139201 0.067837805 0.055890992 -0.04642517 -0.09624044 -0.0059260502 -0.02819582 -0.03386313
0.0150299715 -0.0012373247 -0.041545704 0.04831539 -0.031632286 0.048791002 -0.06446088 -0.05797596
-0.029146448 0.04882604 -0.027401645 -0.018326754 0.037059154 0.03251532 0.06692154 -0.043286607
-0.019534351 -0.052201707 -0.023979997 0.06737691 -0.022801343 -0.01485538 0.042738486 -0.008671888
0.03176368 0.060070425 0.020218851 -0.032192018 0.032787945 -0.106755964 -0.031896323 -0.030425726
-0.053930752 0.041359685 -0.043218046 0.0463212 -0.07721402 -0.0951804 -0.05657678 -0.016451884
-0.004424535 -0.019864067 -0.03218295 0.07194514 0.0352534 -0.0910861 -0.03248023 0.050206386
-0.072010584 -0.050966647 0.07207492 0.045999695 0.07649966 0.0047911517 0.017168585 0.0644997
0.07467337 0.029277898 -0.095027596 -0.038777005 0.031648494 -0.0021789179 -0.0104466155 -0.013953351
0.033970598 0.0103365015 -0.032118082 0.060505837 -0.029754305 -0.023676917 -0.012340829 0.005476278
-0.0049619805 -0.06346936 -0.100616835 0.08667718 0.05892437 0.07150209 -0.047933504 -0.046301674

ik_net.sequential_l_leg.4.bias f4 [24]
00000000: 1d61 b5bb 27f5 31bc b44c fd3c c845 49bd
00000010: 8406 aa3c fe12 61bd ea64 24bd 79cc 16bd
00000020: 725a 1c3d 16b2 efbd 6e81 5a3d 02e0 b13b
00000030: c5c4 4d3b 5ea7 4f3d d237 84bd 1827 b5bc
00000040: 51ee 28be 7308 f53d d7bd b93d 01c2 5f3c
00000050: 058a 163d f555 343d 5364 ad3b 75c1 413c
-0.0055352584 -0.0108616715 0.030920364 -0.049138814 0.02075506 -0.054949753 -0.0401353 -0.036816094
0.038172193 -0.11703889 0.05334609 0.005428315 0.0031397801 0.050696723 -0.064559594 -0.022113368
-0.1649716 0.11964502 0.09069412 0.013657094 0.03675272 0.044027288 0.0052915006 0.011825909

ik_net.sequential_r_leg.0.weight f4 [128, 49]
00000000: a920 5b3d 2650 ecbc 26d8 06be 4814 3dbd
00000010: 07a7 34be 727b 25bd 1bca 8cbd 8bbe 45bc
00000020: 11f5 a0bb 99d3 20bd 27fe 603d 146f 7e3e
00000030: 50de fa3d 822a 813d e1cb b6bc df49 af3d
00000040: fd1e e3bc 5ce0 a03d 7ffe 0a3d 67bd 793e
00000050: 0f27 553d 0b69 0d3e cab4 b9bd 0b4d 883d
00000060: 7134 0dba 55e4 093a 3144 8ebb 1886 07be
00000070: 0854 b03c e2bb 7f3d 0653 5c3d 77fa 1dbd
00000080: a404 d83d 0f42 593c f85f 603d 0d04 cbba
00000090: 249d febc a75e b2bd cf50 f53d 1c47 4b3c
000000a0: 20f9 d93d 3adb 01be 3748 19be 4443 92bc
000000b0: 86c5 57bd 29d5 2ebe bb9f d13c 29d5 cd3b
000000c0: 63ee 6f3d 221b e83d b7ea 163e 9474 8abe
000000d0: afb1 a1bc 83dc 3f3e e08d a2bd e8f8 e73d
000000e0: 11fd 443e 3d5e f53b 19ba 0bbd ed30 4d3d
000000f0: dc45 853d b5c1 c2bc 5d14 423d 7c38 f3bc
00000100: 4583 50bd 6484 e03d 4318 db3c 0254 b1bc
00000110: 1c91 bbbd cd74 9a3c 34df 943d 27c1 92bd
00000120: dfbd a43d a2c6 88bd 3df0 0ebb cc74 6c3d
00000130: c625 963d 4eea 9cbd 49b5 eb3b 15f3 883d
00000140: 8fe0 4dbd 3347 d33b d122 bc3c bac3 303c
00000150: d302 24bc f218 343c df66 99bd d647 9b3d
00000160: b083 9a3d 35ba 453d 2690 313d 5684 6e3d
00000170: 2ef2 2b3d 34e8 993d 1d8f 74bc 5dfc 32be
00000180: 5dd5 823a 4a4c 483e 9ea4 0d3d 8825 74bc
00000190: 60f5 93bd c179 bcbd 4256 193d acaf d5bd
000001a0: 558a d03d da32 ddbd 285a 2a3e ef03 b7bc
000001b0: d3e9 5e3d 0ee8 e2bd 9bff e93b b303 a23d
000001c0: 2e17 0dbd 2e7c b3bc 0778 25bb e247 093d
000001d0: 6bd7 4d3c 1ded b93d 3210 453d 34d9 9f3c
000001e0: 095d a1bd e35c 66bd 2bc9 4dbd 80d0 9c3d
000001f0: ed72 9e3b 25d2 af3d a80b 533d 093f 5abd
00000200: e920 423d a508 1e3d 0715 5e3d 0c5a 203c
00000210: 4e08 09bd a0e7 443c f2a7 b83c a9cb e43c
00000220: 6b8b b1bd 16c8 d039 e334 f5bd 129b 64bd
00000230: e4f3 0a3e dfbc ebbd 5dca aebd 38d5 64bd
00000240: 156a 1d3d 0e1c cc3d 2d65 8abe a254 dbbd
00000250: 5da4 5ebd 4e11 643d bf42 c1bd cfa1 35be
00000260: ef32 073e e422 abbd d3ed 52be e981 4d3d
00000270: 1d19 c23d 5ac4 c6bd 7b12 2b3d 3f43 acbd
00000280: 79f0 8fbd b878 90bd e041 9f3d 0866 0d3d
00000290: be33 a3bc d926 c83d 88f2 ebbd da3d a03d
000002a0: 8aa1 01bd ad6d 86bd df46 d73c 5eac ddbb
000002b0: bf43 92bd c664 9c3d 0094 1bbd 73db d2bc
000002c0: a5fb e4bc ebd3 e9bc f73e 873d 9c81 bebd
000002d0: 7b3d 4b3c 57d1 cc3c 56ad eb3c 038c 273d
000002e0: ab3a 5bbd abda a2bd cd0e a0bd 8621 f43c
000002f0: 7799 b13c c60d af3c 8d10 93bd 9f7b 583d
00000300: cdd6 b83d f2cf 443e 6821 1b3e 9f69 1abe
00000310: 6f3b 073d 8d74 15be 7e44 8f3b 120b d33d
00000320: a44d 45be aaad 503d 938c e63c 0118 adbd
00000330: 4e04 de3d bb1f 853d 400c ed3d 8a87 d63d
00000340: 3dda 613c fb9b 8bbd 42ad 21bd fee2 e9bc
00000350: 4dc6 063e 2d77 03bd 552c e23d aa8c 3e3d
00000360: 4519 cdbd 4ff6 2f3d 860d ac3c 4ab1 82bd
00000370: f253 72bd afcf 0bbd 8d33 06be 13ef 22bc
00000380: debe 4b3d bc9d 073d 9546 0d3d 2438 573d
00000390: 1fb3 c7bc e553 863c 759d d83c 13c8 cebc
000003a0: 8bed 943d 26fa c3bd ad28 b8bd 3ecb 983c
000003b0: bb66 c43c 9044 4dbc 462a 5cbe e55c 49bd
000003c0: 4f94 b43d 6344 66bd ef56 0b3e 5292 043d
000003d0: 36a3 4c3e 5529 b53d f66a 49be c06c b6bd
000003e0: f475 d4bd 55e0 35be eff6 253d e750 6c3d
000003f0: be06 eabd efcb db3d 9740 8bbd 8fa8 46be
0.053497944 -0.028846812 -0.13168392 -0.04616192 -0.17641841 -0.04040093 -0.06874486 -0.012069355
-0.0049120267 -0.039264295 0.05492988 0.2484706 0.12249434 0.06306936 -0.022314014 0.08559012
-0.027724737 0.07855293 0.033934113 0.24388658 0.052039202 0.13809602 -0.09067686 0.0665532
-0.00053865375 0.00052601594 -0.004341625 -0.13234746 0.021524444 0.06243504 0.053790115 -0.03856894
0.1054776 0.0132603785 0.054779023 -0.0015488878 -0.03108079 -0.0870946 0.11978304 0.0124070905
0.1064322 -0.12681285 -0.14968954 -0.01785434 -0.052678607 -0.17073502 0.02558886 0.006281514
0.058576953 0.113333 0.14737974 -0.27042067 -0.019738046 0.18736462 -0.07937217 0.11326772
0.19237162 0.0074880407 -0.034113023 0.050095487 0.06507465 -0.023774007 0.0473827 -0.02969002
-0.05090644 0.109627515 0.026744967 -0.021646503 -0.09158537 0.018854523 0.07269135 -0.07165747
0.080440275 -0.06678511 -0.0021810674 0.057728574 0.073314235 -0.076618776 0.0071932417 0.06686989
-0.050262984 0.0064476966 0.02296582 0.010788852 -0.010010439 0.010992276 -0.07490324 0.07582061
0.07544649 0.048273284 0.04335036 0.058231674 0.041979007 0.07514992 -0.014926699 -0.17479081
0.00099818 0.19560352 0.03458082 -0.014901526 -0.07224536 -0.0920291 0.037435777 -0.104338974
0.10182635 -0.10800715 0.16635954 -0.022340743 0.05442221 -0.11079417 0.0071410662 0.07910862
-0.034445934 -0.0219098 -0.0025248544 0.03351582 0.012563567 0.09078429 0.04811115 0.01951275
-0.07879073 -0.056240927 -0.050240677 0.07656956 0.0048354776 0.08585004 0.05152479 -0.05328277
0.047394667 0.038582463 0.054219272 0.009787094 -0.033455186 0.012018114 0.02254102 0.027929144
-0.0866917 0.00039821927 -0.11972978 -0.05581195 0.135696 -0.11510634 -0.085346915 -0.055867404
0.038431246 0.099662885 -0.27030316 -0.10709502 -0.054355968 0.055680566 -0.09436559 -0.17737506
0.13203023 -0.08356264 -0.20598535 0.05017272 0.09477446 -0.0970542 0.04176567 -0.08411264
-0.070282884 -0.07054275 0.077762365 0.034521133 -0.019922134 0.097730346 -0.115208685 0.07824297
-0.031648196 -0.06563888 0.026278911 -0.0067649325 -0.07141828 0.076364085 -0.03798294 -0.025739407
-0.027952025 -0.028543433 0.066038065 -0.09302065 0.012404795 0.025002165 0.028769176 0.04090501
-0.053522747 -0.07951864 -0.07815323 0.029801141 0.021679623 0.021368872 -0.07180891 0.05285227
0.09025345 0.1921995 0.15149462 -0.15079354 0.033015665 -0.14595242 0.0043721786 0.10304846
-0.19267899 0.05094687 0.028143203 -0.08451844 0.10840665 0.06500193 0.11574602 0.10475071
0.013784942 -0.0681686 -0.039471872 -0.028550621 0.13161583 -0.032096077 0.11043612 0.046520866
-0.100145854 0.042959508 0.021002542 -0.063814715 -0.059162088 -0.03413361 -0.13105603 -0.009944695
0.049742572 0.03310941 0.03449114 0.052543774 -0.024377404 0.016397426 0.026442269 -0.025241887
0.0727187 -0.095691964 -0.08992133 0.0186516 0.023974767 -0.012528554 -0.21500501 -0.049160857
0.0881735 -0.056217562 0.13607381 0.032366104 0.19984135 0.08845774 -0.19669709 -0.08907461
-0.1037406 -0.17761357 0.040518697 0.057694342 -0.11427067 0.107322566 -0.06799429 -0.19400238

ik_net.sequential_r_leg.0.bias f4 [128]
00000000: 7c3b b63d 7d77 803e 730f 0a3e d322 cabd
00000010: 78c6 afbd e3b6 59bd 2389 54bd d0c4 a63e
00000020: 77d7 b2bd 3144 33bd 5f18 50bd 3f8b 20be
00000030: cf02 10be 92a8 0abe 1d76 a53c fa45 b73d
00000040: 373a d73b a846 123e 3489 cbbd ee84 a33d
00000050: c79d 21be eada 963a 3b08 303e 79d8 ae3e
00000060: 5992 13bd 3a0f 0d3e 3f7c debd 9a89 2cbe
00000070: 77a8 80bd 28e2 303d 1ed6 523e d4d9 9a3e
00000080: 92c3 323e 6321 ed3c a00a 6bbd 24e4 74be
00000090: 7197 e2bc 1742 3bbe 4340 00bc f1c3 a13e
000000a0: b6fa 39be 3750 c63d 6f78 08be eed2 033e
000000b0: 3ccf 823c a4cd 543e 69fa 77bd 3df7 92bc
000000c0: f537 c3bc a294 b3bd d20d 8a3d cd2a 3dbd
000000d0: 9c1e 4b3d 6110 cf3e 6bb0 0a3e 8283 473e
000000e0: 48c0 4a3e c521 173e 96b7 3e3e 9e8f 5f3e
000000f0: a75a 5abe 3d7e ad3c 801e 173d 88d6 dfbc
00000100: bb78 1e3d 63de 63be d49d e83d b820 013e
00000110: 9d96 febd f6b7 243e 43f1 91bd fecb 58be
00000120: 9261 09be 822c 36be bafa 4d3d cbc3 113e
00000130: 8560 073e ebc0 d73e f778 c23c c199 67bc
00000140: ebca 173e 8ff4 a13d e213 8d3d 6453 853c
00000150: 3ba9 5d3e 50e5 6ebe f608 26bd dd12 debd
00000160: 4e74 1c3d 0824 9a3d 772d 9d3d bcc6 9dbd
00000170: 0ed1 1f3e 6ce2 ba3e c266 aa3d 7c17 77bc
00000180: 5d9a 2ebe 916d 793e d078 e0bd 93ce 8b3e
00000190: c5e8 14be 7821 03bc 29a2 863d 40a1 79be
000001a0: ff9b b4bd 0221 c4bd 74e3 453e 9f06 5a3e
000001b0: a4ef 473b 26b1 a93d 3cbb a13e 7d69 e2bd
000001c0: 7679 dd3d de16 3a3e fbe8 5b3d b345 69bd
000001d0: 5981 9c3c 34c9 253b a232 1b3e 9037 653d
000001e0: 21c3 5dbe 0202 7e3d 9942 0d3d 1457 43bd
000001f0: d151 3abd c0b5 063e 6365 033c a64a 193e
0.088980645 0.25091162 0.13482456 -0.098699234 -0.08582777 -0.05315293 -0.051888596 0.3257203
-0.08732503 -0.043766204 -0.050804492 -0.15678118 -0.14063571 -0.13540867 0.020197922 0.08948894
0.006568219 0.14284766 -0.09938279 0.07984339 -0.15782844 0.0011509333 0.1719064 0.3414953
-0.03602824 0.1377534 -0.10863542 -0.16849366 -0.06282132 0.04318443 0.20589492 0.30244315
0.17457417 0.028946584 -0.05738318 -0.23915154 -0.027660104 -0.1828693 -0.007827821 0.31594804
-0.18162045 0.096832685 -0.13327192 0.12873432 0.015967958 0.2078157 -0.060541544 -0.017940158
-0.023830393 -0.08768584 0.06740917 -0.046183396 0.04958974 0.40442184 0.1354386 0.1948376
0.19799912 0.14758976 0.1862472 0.2183213 -0.21323644 0.02117836 0.03689432 -0.027323976
0.038689356 -0.22252803 0.11358228 0.12610137 -0.12431071 0.160858 -0.07126095 -0.21171567
-0.13416126 -0.17790416 0.05028794 0.14234845 0.13220413 0.42139372 0.023739321 -0.014135779
0.14823501 0.07907974 0.06888558 0.016275115 0.21646588 -0.23329663 -0.04053589 -0.10843442
0.038196854 0.07526404 0.07674687 -0.07703921 0.15607092 0.3650087 0.08320381 -0.015081283
-0.17051072 0.24358203 -0.10960543 0.2730604 -0.1454192 -0.008003585 0.06573898 -0.24377918
-0.088188164 -0.09576608 0.19325048 0.21291588 0.0030507827 0.082857415 0.3158816 -0.110552765
0.108141825 0.18172786 0.053688984 -0.056951236 0.019104647 0.0025296928 0.15156034 0.05596119
-0.21656467 0.062013634 0.03448734 -0.047690466 -0.045488182 0.1315527 0.008019778 0.14969882

ik_net.sequential_r_leg.2.weight f4 [128, 128]
00000000: 1dcb ac3b aca3 06bd 1a7d 50bd 5318 b93c
00000010: 0d96 773d 8142 713d fc94 b93d e918 66bd
00000020: 21f7 bf3d b839 8bbd bf6d d33d 8541 cb3d
00000030: 1a41 913c 9762 a13d 9eb6 18bd 6b5d 8dbc
00000040: 1b29 283d 600b ed3d 9d43 413d 00f0 393a
00000050: 6d1b 2b3c d1c5 543d f5de a13c 6b4a d7b9
00000060: c907 a3bd 8336 e33c f007 c63d bfa5 0c3c
00000070: 1965 8a3d d780 743c ec82 76bd bb2f e2bc
00000080: 0416 8bba 4ff7 d93b c66c 403d 58dc 783d
00000090: 57ab 103e 3bfb 9f3d 99f2 b43c 8353 53bd
000000a0: 8641 583d b547 e5bc 5f89 993d 198f bdbd
000000b0: f53a 133d 296b 65bc cf80 553d 0be4 1c3d
000000c0: e759 94bd c9d7 873d 889b 8cbc 5398 51bd
000000d0: 63c5 503d b4a3 aabc 166c 09bd 8bcb 1fbd
000000e0: 6394 9a3c 15ab 9bbd bd50 ab3d 10d8 3cbd
000000f0: c0a9 1a3e 7fce 05bd b8ba 563c dc90 593d
00000100: d384 66bc 4cd6 d93d 79cd 883d 7421 75bd
00000110: 2753 8f3d 6e4d 273d 71c7 8abd 154e 09bd
00000120: 9509 2f3d f8c4 5fbd f095 813d f8a0 63bc
00000130: 5679 903c e6f0 0a3c 925c 033d dada 3bbd
00000140: 167b a63d 706f 82bd 4970 9dbd bda4 943d
00000150: 4a8e eabb 7ca7 383d 409e 843b 7e93 3d3d
00000160: 1174 a63d e26b 57bc 4ea5 b43c ffc0 0b3c
00000170: e7e6 bcbc 8e7e 033c 147e 52bd 4d9a 9d3b
00000180: 42ad 1a3e 859f 36bd 573a 07bd 4731 d9bd
00000190: 8d63 6abb 7cea 0f3e 5d4c 5cbd 1ac0 773d
000001a0: a7a1 8d3d 595a b73c 14df be3c 3725 b93d
000001b0: 700b 89bc c102 39bc 0c1d b5bd d7d6 c8bd
000001c0: a16f 18bd 847e e6bd 71e9 273d 3ee5 ef3d
000001d0: 64f1 cfbc 14af e63c 3de6 813d 6b5b 31bd
000001e0: e966 273e 5c24 3cbd 07fe bcbc 4f3c d6bd
000001f0: 74c4 94bd 5b10 233d 8bb1 e73c e1f0 bdbd
00000200: b16f 9e3d 5366 22bb 811a 6dbc ed34 5fbc
00000210: 9862 843c f4b6 943d 3ea6 4bbd 70be db3d
00000220: 8d8c de3d f467 1abd a493 c43d f7be aa3d
00000230: 35d9 2f3d 6f6a 1c3d ea80 09bd cdab 163d
00000240: 5f05 7b3c ebd2 dfbc 6188 57bc 1e35 5b3d
00000250: c833 85bd bfde 80bd aab9 28bd d9d1 603d
00000260: 2b8b 2b3e df85 e13d 5ac2 6c3d 4d03 953d
00000270: 0dc7 af3c 5f36 223d b19c c8bc 3581 f43d
00000280: 283e 50bd 3be3 053d dbe3 64bc dfdd 8e3d
00000290: a7e1 0bbd 643d 683d 2b87 c43d 2932 513d
000002a0: 6e93 6e3d a64f 243d 8460 3b3d 8071 c3bc
000002b0: 01fb 983d 6f60 39bd a27b c4bc 5a06 e73d
000002c0: 0a63 513c cfb7 eebd 1ece 02bc 2fec edbd
000002d0: c487 f6bc fbbe 30bd 4640 66bd d1b6 c33c
000002e0: 29e1 6fbd e572 363d 7fba ae3d f2d5 213d
000002f0: 85fe c8bc 88cb 08bd 2384 3ebd b2df 653d
00000300: 4de2 96bc a016 2d3d b07c b03c 9083 983b
00000310: 17e3 243b 1249 453d 2e0b e7bc ab68 e03b
00000320: 8930 46bd ee53 c83c 4b7c 613d 0823 1f3c
00000330: 9c9a ed3c 4842 de3c 1b75 8b3d 601e ff3c
00000340: aa4c 6f3d a276 51bd 803f 6bbd 3e74 903c
00000350: 7a1d 203e b75b 9bbd 0264 a5bc 8a67 d9bc
00000360: 82fa 5cbd 1b52 913c 23aa e9bc 6212 99bd
00000370: c1ca 28bd dc89 113d 3747 14bd 1120 a13d
00000380: b811 eb3c 9b6e e9bc add7 e8bc 0b5b 34bd
00000390: 1086 71bd 7e96 873d 162e 8fbc d453 e5bd
000003a0: 0acb b4bd e133 97bd 127c 9a3d c72b 8abd
000003b0: 2475 db3d 4b7a 723d d648 fdba 38d8 0d3d
000003c0: 0a29 3f3d 3649 27bd c019 2abd 960f e9bc
000003d0: 7c41 d33d 602a a53d 1888 e53d 1c50 6c3e
000003e0: c1d4 113d 66f7 e2bc 6585 1c3c 367f 97bc
000003f0: 1fdf 8fbc 441c 1cbd 242f 2bbc 4b02 fe3d
0.0052732364 -0.032870933 -0.050900556 0.022594607 0.060445834 0.058901314 0.0906162 -0.0561761
0.09373308 -0.06798118 0.10323667 0.09924606 0.017731238 0.07880133 -0.037283532 -0.01725646
0.041054826 0.11574435 0.04718362 0.0007092953 0.010443551 0.051946465 0.019759635 -0.0004106344
-0.07960469 0.027735954 0.09669483 0.008584439 0.06757564 0.014923296 -0.06018345 -0.02761065
-0.001061142 0.006651796 0.046978734 0.06075701 0.14127861 0.0781159 0.022088336 -0.051593315
0.052796863 -0.027988294 0.074969046 -0.09255809 0.035944898 -0.0140026 0.052124795 0.038303416
-0.0724371 0.066329546 -0.017164007 -0.05117066 0.050969493 -0.020830013 -0.033550344 -0.039012473
0.018869584 -0.07600991 0.08365009 -0.04610449 0.15103817 -0.032667633 0.013106041 0.053116664
-0.014069754 0.10636577 0.06679816 -0.059846357 0.06998282 0.040845327 -0.06776322 -0.03352173
0.042733748 -0.054631203 0.063274264 -0.013893358 0.017635982 0.008480286 0.032070704 -0.04586301
0.081289455 -0.06368911 -0.07687432 0.07257984 -0.0071580755 0.0450816 0.004047185 0.046283238
0.08127607 -0.01314828 0.02205148 0.008529901 -0.023059322 0.008025778 -0.05138977 0.004809654
0.15105155 -0.044585723 -0.03301462 -0.10605102 -0.0035764903 0.14054292 -0.053783763 0.060485937
0.06915598 0.022381948 0.023299731 0.09040301 -0.016729087 -0.0112921605 -0.08843431 -0.098066024
-0.037215833 -0.112546 0.04099411 0.11713646 -0.025383659 0.028159656 0.063427426 -0.043300074
0.16347851 -0.045933113 -0.023070348 -0.10460722 -0.07264033 0.03981052 0.028282901 -0.0927446
0.07736147 -0.0024780228 -0.014471651 -0.013623458 0.016160294 0.07261458 -0.049719088 0.107296824
0.10866652 -0.037696794 0.09598473 0.08337205 0.042931754 0.03818744 -0.033570208 0.036784936
0.015321105 -0.027322253 -0.013155074 0.053517453 -0.06504017 -0.062924854 -0.041192688 0.054887626
0.16752307 0.11011862 0.057802536 0.0727602 0.02145722 0.039602634 -0.024488779 0.11938707
-0.050840527 0.032687407 -0.013970341 0.06975912 -0.034150746 0.05669917 0.09596094 0.051073227
0.05824607 0.04011502 0.04574634 -0.023857832 0.0746975 -0.045257982 -0.023984734 0.11280508
0.01277996 -0.116561525 -0.0079837125 -0.11617314 -0.030094035 -0.043150883 -0.05621364 0.023890885
-0.05856434 0.044543166 0.08531665 0.039510675 -0.024535427 -0.033397228 -0.046512734 0.056121536
-0.018418455 0.042257905 0.02154383 0.0046543553 0.002515977 0.04816539 -0.028203573 0.006848415
-0.04838613 0.024454083 0.055050176 0.009712942 0.029004388 0.027131215 0.068094455 0.031142414
0.058422722 -0.051138528 -0.057433605 0.017633554 0.15636244 -0.075858526 -0.020189289 -0.02653863
-0.05394984 0.017739346 -0.02852351 -0.07474209 -0.041208986 0.035531864 -0.03620073 0.07867444
0.028694972 -0.028495124 -0.028423155 -0.044032138 -0.058965743 0.06620501 -0.01747803 -0.111976296
-0.08827789 -0.07382942 0.07543196 -0.06746631 0.10715702 0.05919866 -0.0019324075 0.03463003
0.046669997 -0.040841304 -0.041528463 -0.028449815 0.103152245 0.08064723 0.112075984 0.23077434
0.03560329 -0.02770586 0.009553288 -0.018493276 -0.017562447 -0.038112894 -0.010448251 0.12402781

ik_net.sequential_r_leg.2.bias f4 [128]
00000000: 788e 12be ad33 e53d 2066 8abc 98c2 09be
00000010: 5bf5 dcbd 6c16 3dbd 9364 313e dcc1 89bd
00000020: 8648 93bd 49f2 03be 6e3a b43d eca9 723e
00000030: 04e6 0bbe 4e2d 3e3d 9cf8 4e3d 3037 97bd
00000040: 014e 01be e27b 0cbe 7a81 dfbd 5905 c43d
00000050: 0cc5 4f3e ba39 e0bd 65aa 3bbc afc1 d6bd
00000060: 649b b4bd 8f8f 1b3e 9d01 eb3d 7eca a8bd
00000070: db7d 85bb 7780 653c a1d7 8a3d c9f2 3b3e
00000080: 50f3 d8bd 077b 4e3d 58a3 d23d db10 3dbc
00000090: 1189 773d 5e61 f5bc 9eea 99bb cb75 3c3c
000000a0: a32f 5b3d 09a2 99bd 579b 74be d7bc abbd
000000b0: 405e e7bd 804c b1bc 7b0c 533e 6994 983d
000000c0: e91b 0fbd 568e 8abd bd5b 9cbd 58a5 afbc
000000d0: 1478 0fbe 3210 e83b 618d 35be 7f10 27be
000000e0: 5f61 05bd 9da7 753e b4b7 3b3e 2b25 2a3e
000000f0: 8208 df3b bf31 34bd e288 843d 843e 0b3e
00000100: c67a ac3d e933 a23c da73 03bc 0060 f23d
00000110: 45e7 883d 90ed cfbd 81df df3c 3474 763d
00000120: 6dbc 1b3e 8341 0b3e dbb3 66bd 6e6b c23d
00000130: c691 15be 5521 523d 10f2 d03b 60cb 4a3e
00000140: 0065 1d3d ce79 4e3d 58fd 293e 5775 203e
00000150: e750 a23c 1eb5 12be 5a99 cf3d af59 283e
00000160: dc1f 8d3e bd31 2cbd de3a f1bc ead1 71bd
00000170: b05b 7dbd a30a b7bd a78a 693e 6a14 973d
00000180: 1d35 b3bd eac7 b9bd 0c97 a23d d9cc 54bd
00000190: 01aa 80bd df90 90bd 8512 84bd cfe8 623d
000001a0: 88ff ec3d 8fb7 6c3e 4464 573e 32ac 99bd
000001b0: b6cc b9bd 541e bebd 7215 2abc f973 62bd
000001c0: 6c53 28bd 088f afbd beb5 81bd 388e f5bd
000001d0: 23a1 debd 33d8 34be 1419 b33d 7ef9 6ebc
000001e0: cd18 553e 284b b0bd b5cd 223e 5dc8 143d
000001f0: b24e dbbd 4e45 98bc 4ffd c23d 6c3d 82bd
-0.1431216 0.11191497 -0.0168944 -0.13453138 -0.10788985 -0.04616396 0.17323522 -0.06726429
-0.07191567 -0.12885393 0.08800207 0.23697633 -0.13661963 0.046429925 0.05053006 -0.07383573
-0.12627412 -0.13719133 -0.109133676 0.095713325 0.20290011 -0.109485105 -0.011454199 -0.10486161
-0.08818701 0.15191482 0.11474917 -0.08241747 -0.004073841 0.014007679 0.06779409 0.18354334
-0.10593283 0.050410297 0.102850616 -0.011539663 0.06043345 -0.029953655 -0.004697158 0.011502693
0.053512227 -0.07501609 -0.23887382 -0.08385628 -0.11297274 -0.021642923 0.2061023 0.07450182
-0.034938727 -0.0676543 -0.07634685 -0.021441147 -0.1401065 0.0070820088 -0.17729713 -0.16314887
-0.032563563 0.2398972 0.18331796 0.16615741 0.006806434 -0.043992754 0.06471421 0.13598067
0.08421855 0.019800143 -0.008023227 0.11834717 0.06684736 -0.10152733 0.027328255 0.060169414
0.15208597 0.1359921 -0.056323867 0.09493147 -0.1460639 0.05130132 0.0063765123 0.19804144
0.0384264 0.05040913 0.16600549 0.15669762 0.019813968 -0.14326903 0.10136671 0.16440462
0.2756337 -0.04203962 -0.029447015 -0.05903808 -0.06185502 -0.08937576 0.22806798 0.073769405
-0.08750365 -0.09071334 0.07938966 -0.05195317 -0.06282426 -0.07058882 -0.06448845 0.055397805
0.11572176 0.23116897 0.21034342 -0.07503547 -0.09072249 -0.092831284 -0.0103810895 -0.05528638
-0.041095182 -0.08572203 -0.06333493 -0.11990017 -0.10870578 -0.17660598 0.08745018 -0.014585851
0.20810242 -0.08608085 0.15898784 0.036323894 -0.10708369 -0.018587735 0.09520971 -0.063593715
