python/models/model_xsens/ik.pt (torch, 447771 bytes, 24 tensors)

ik_net.sequential_l_leg.0.weight f4 [128, 49]
0.06809867 -0.009326099 -0.13072102 -0.03654768 0.045671307 0.0671464 -0.028658697 -0.03675698
-0.106797755 -0.04752059 0.03847725 0.038341966 0.11346952 0.056770183 0.037661877 -0.051952124
-0.032563463 -0.0035172673 -0.08525125 0.10066235 -0.058415625 0.15779044 0.029423548 0.010106598
0.026857479 -0.0662113 0.047241867 -0.011101391 -0.09112437 0.016040066 -0.038236514 0.07991926
0.026324362 0.017224662 -0.036496542 -0.0073919515 -0.00044992068 -0.013510004 0.033936396 0.015788
-0.062963724 -0.10816276 0.1414125 -0.25310335 -0.006841683 -0.17887336 -0.14035435 -0.14522782
0.18091634 0.047408294 0.2191323 0.10376355 -0.00699388 -0.10708916 0.04233685 0.100192435
0.030096242 -0.011490112 -0.028444437 0.07661366 -0.030568719 -0.0031372458 0.08623605 -0.00274398
-0.06300298 0.12856135 0.059333567 0.06016846 0.12475578 -0.097942114 -0.024997758 0.015830204
0.038875513 -0.11106698 0.05907457 -0.03690565 0.032199215 0.009626854 0.044307325 -0.045951262
-0.11387137 -0.10067212 0.0017706509 -0.0054653455 0.0047611 -0.026300374 -0.05823884 -0.068804346
-0.08311917 0.027479567 0.0061289044 0.0016559135 0.062184718 0.15349968 -0.34345558 0.16899815
0.15565547 0.14362206 0.06759446 0.025865855 -0.048637375 -0.09058595 0.0062280972 -0.16352639
0.08215548 -0.08551362 0.04344504 0.009865526 0.12818962 0.14850126 0.09387872 -0.057029903
-0.04880039 0.06657258 0.10435131 -0.034282833 -0.10327438 -0.23762944 -0.075120814 0.07013315
0.040978916 0.0386263 0.013426094 -0.089373864 0.0650664 0.09957701 -0.08397421 -0.095200315
0.04024446 -0.05269952 0.14274909 0.0035832385 0.018961795 0.008220984 6.037943e-05 -0.047293734
-0.033393484 -0.0066427947 -0.03980318 0.015890952 0.1129526 -0.10300139 -0.022122085 0.14536035
-0.011406171 0.15788978 0.045448717 0.02775632 0.066105776 -0.17957675 0.06221349 0.11555895
-0.12940325 0.047155652 0.18528903 0.10776742 0.08331941 0.106787264 -0.13320701 -0.05867432
-0.0068005132 -0.058196917 0.07340481 0.020435622 0.0121943625 -0.040195152 0.10184249 0.05969365
0.02540209 0.010931393 -0.028894875 0.03581541 -0.10631143 0.03535866 0.057093404 0.04914704
0.04871907 0.029973999 -0.08590557 0.008705304 0.0140048545 -0.007124061 0.0011899113 -0.004103472
0.035352644 0.040525593 0.10434497 -0.00073877024 0.019875169 0.096639745 0.01926758 -0.038463384
-0.17239104 0.11549909 -0.023304628 -0.23320624 -0.063875295 -0.12789674 -0.118347675 -0.09784905
0.09086394 0.077331305 0.09802255 0.07792433 0.03733382 0.06463683 -0.0016424161 0.0070283352
0.1285771 -0.043112174 -0.05532287 0.08950469 0.09240627 -0.05306105 -0.049539834 0.100891866
-0.107017726 -0.0505363 0.14726704 0.012992308 -0.041696794 0.107245296 -0.10245149 0.011178284
-0.032909144 -0.13634442 -0.03256633 -0.007541239 0.054145165 -0.040410087 0.015317668 -0.0026793256
-0.0036851545 -0.01522517 -0.05868131 -0.053741902 0.06728188 -0.05570266 0.026785923 -0.07226206
-0.09654589 -0.031062797 -0.19064452 0.05236586 -0.104824185 0.031099832 0.20556052 -0.05268317
-0.07498474 -0.19993068 -0.12339444 0.053839687 0.23961131 -0.09755041 0.09379713 0.06329835
00000000: 5177 8b3d 7fcc 18bc bbdb 05be 05b3 15bd
00000010: d611 3b3d 0d84 893d a5c5 eabc 7d8e 16bd
00000020: c8b8 dabd f3a4 42bd 529a 1d3d 770c 1d3d
00000030: b562 e83d da87 683d 5743 1a3d c0cb 54bd
00000040: 4461 05bd f481 66bb 3598 aebd 1028 ce3d
00000050: 3945 6fbd d193 213e a709 f13c 2596 253c
00000060: 3704 dc3c ca99 87bd b080 413d 9ce2 35bc
00000070: 6a9f babd 7566 833c e49d 1cbd b6ac a33d
00000080: 30a6 d73c bc1a 8d3c 667d 15bd 2f38 f2bb
00000090: 55e3 ebb9 1059 5dbc e400 0b3d d655 813c
000000a0: 20f3 80bd 7084 ddbd 70ce 103e c396 81be
000000b0: 3230 e0bb 942a 37be 0db9 0fbe 9ab6 14be
000000c0: 2242 393e 332f 423d 3864 603e fc81 d43d
000000d0: eb2c e5bb 9051 dbbd 6869 2d3d b131 cd3d
000000e0: 658c f63c 0641 3cbc 4f04 e9bc 9fe7 9c3d
000000f0: 406b fabc 409a 4dbb 879c b03d 58d4 33bb
00000100: b507 81bd 96a5 033e c107 733d 3473 763d
00000110: f57f ff3d e095 c8bd 19c8 ccbc 58ae 813c
00000120: ee3b 1f3d 1677 e3bd 2df8 713d 612a 17bd
00000130: 53e3 033d f4b9 1d3c 997b 353d 6437 3cbd
00000140: 6535 e9bd 2f2d cebd 2f15 e83a a416 b3bb
00000150: 0003 9c3b e273 d7bc da8b 6ebd 4be9 8cbd
00000160: 623a aabd d41c e13c fad4 c83b 3d0b d93a
00000170: 67b5 7e3d 052f 1d3e 69d9 afbe da0d 2d3e
00000180: 2664 1f3e a911 133e f76e 8a3d a1e4 d33c
00000190: fc37 47bd 2085 b9bd 1115 cc3b 7673 27be
000001a0: 2241 a83d c421 afbd 6df3 313d 04a3 213c
000001b0: 2444 033e b710 183e 7d43 c03d 3098 69bd
000001c0: ebe2 47bd 3457 883d 24b6 d53d 286c 0cbd
000001d0: 8581 d3bd 2255 73be f1d8 99bd f8a1 8f3d
000001e0: 82d9 273d 9c36 1e3d 1ff9 5b3c a509 b7bd
000001f0: 8841 853d 08ef cb3d acfa abbd 62f8 c2bd
00000200: 60d7 243d 74db 57bd d12c 123e c4d4 6a3b
00000210: c455 9b3c 4eb1 063c eb3f 7d38 13b7 41bd
00000220: 9bc7 08bd cdab d9bb a908 23bd be2d 823c
00000230: b153 e73d 65f2 d2bd 6039 b5bc 58d9 143e
00000240: f3e0 3abc dcad 213e 6f28 3a3d 3961 e33c
00000250: 7762 873d f8e2 37be 93d3 7e3d 2caa ec3d
00000260: 4982 04be 4926 413d 68bc 3d3e 2ab5 dc3d
00000270: 5ea3 aa3d 48b3 da3d 6b67 08be 7c54 70bd
00000280: d7d6 debb e45f 6ebd 4355 963d 9b68 a73c
00000290: ddca 473c aca3 24bd cc92 d03d 5481 743d
000002a0: 0b18 d03c 9619 333c f2b4 ecbc 2eb3 123d
000002b0: cfb9 d9bd 3ed4 103d c6da 693d 684e 493d
000002c0: a68d 473d 088c f53c 42ef afbd b1a0 0e3c
000002d0: 9e74 653c f570 e9bb ccf6 9b3a 6b76 86bb
000002e0: efcd 103d 2afe 253d d1b2 d53d 08aa 41ba
000002f0: 40d1 a23c 0feb c53d 0bd7 9d3c c88b 1dbd
00000300: 4787 30be c98a ec3d 59e9 bebc 9ecd 6ebe
00000310: 0dd1 82bd 5df7 02be 4460 f2bd 1565 c8bd
00000320: e016 ba3d e05f 9e3d 0cc0 c83d cb96 9f3d
00000330: 59eb 183d 5060 843d 5746 d7ba f34d e63b
00000340: b7a9 033e 6496 30bd 3c9a 62bd 3c4e b73d
00000350: 803f bd3d 8b56 59bd 48ea 4abd 65a0 ce3d
00000360: 1c2c dbbd 27ff 4ebd 2ccd 163e b0dd 543c
00000370: 42ca 2abd 6ca3 db3d 16d2 d1bd 1f25 373c
00000380: bdcb 06bd df9d 0bbe 4664 05bd 7f1c f7bb
00000390: 52c7 5d3d 0c85 25bd f5f6 7a3c a097 2fbb
000003a0: a282 71bb fe72 79bc d05b 70bd 7820 5cbd
000003b0: 15cb 893d 7928 64bd 276e db3c 22fe 93bd
000003c0: dab9 c5bd 6877 febc 5138 43be 967d 563d
000003d0: 10ae d6bd 13c5 fe3c 757e 523e 4fca 57bd
000003e0: 9991 99bd a1ba 4cbe 39b6 fcbd 0187 5c3d
000003f0: ab5c 753e 82c8 c7bd b618 c03d 91a2 813d

ik_net.sequential_l_leg.0.bias f4 [128]
0.007262862 -0.023784924 0.03436535 0.30725402 -0.042602453 0.15301332 -0.097437896 0.15042995
-0.081538565 -0.081059806 0.32045925 0.1195 -0.16476978 0.07766896 0.21821876 0.23028377
0.041853577 0.11476574 0.056007348 -0.06351835 0.39173448 0.22973366 -0.18314268 0.048366882
0.03167664 -0.21909463 0.03867725 -0.13058512 0.1445047 0.048742235 0.2253145 -0.127009
-0.07017452 -0.12924364 -0.103096865 0.10845236 0.12950207 -0.062302478 -0.12202278 0.23031686
0.011314232 0.032949544 0.16276082 0.068952605 0.08587838 0.1818318 -0.077133335 0.045682885
0.1184536 0.20035394 -0.06799013 0.04484492 -0.19026822 -0.062522836 -0.08238104 0.32424605
-0.15153722 0.067484595 0.15851445 -0.021359682 0.13554014 0.108209744 -0.0059074736 -0.1677778
0.25159043 0.027328331 0.013345129 0.051047083 0.10435173 0.023727503 0.31628457 -0.030274522
0.03728255 0.029115846 -0.015002257 0.31510732 -0.1472244 0.10164788 0.106137045 0.26367882
-0.10068233 0.020954536 0.12685275 -0.072999164 -0.15273541 -0.18575884 -0.07596843 0.06714191
0.033722214 -0.044314202 -0.15407504 0.12352584 0.003638471 -0.1243113 0.18056811 -0.10168047
0.2045209 0.2164981 -0.055264715 0.104704954 -0.09923482 0.32941613 0.10735694 -0.19886836
0.045609765 0.05555707 0.027483566 -0.09358046 -0.18423021 -0.08871595 0.32847726 -0.011880282
0.03173474 0.054579135 0.09412014 -0.09390193 -0.046996497 -0.13690928 0.10881917 0.07665476
-0.18362562 0.26255322 0.11623646 -0.2565964 0.03635146 -0.1321823 0.019140394 0.07448586
00000000: 4dfd ed3b 9ad8 c2bc aec2 0c3d 6650 9d3e
00000010: e97f 2ebd 86af 1c3e 858d c7bd 4f0a 1a3e
00000020: b1fd a6bd af02 a6bd 3c13 a43e 6abc f43d
00000030: 69b9 28be e710 9f3d bd74 5f3e 82cf 6b3e
00000040: a86e 2b3d 4d0a eb3d f667 653d e915 82bd
00000050: 6c91 c83e 4d3f 6b3e c189 3bbe 5a1c 463d
00000060: 5dbf 013d 585a 60be 096c 1e3d 1bb8 05be
00000070: 0af9 133e f0a5 473d d8b8 663e a60e 02be
00000080: a9b7 8fbd 7258 04be 7324 d3bd 451c de3d
00000090: 319c 043e e230 7fbd 14e7 f9bd 2fd8 6b3e
000000a0: 545f 393c 1af6 063d c6aa 263e 0637 8d3d
000000b0: 01e1 af3d 1e32 3a3e 15f8 9dbd fa1d 3b3d
000000c0: cd97 f23d 9529 4d3e 693e 8bbd 4faf 373d
000000d0: acd5 42be f90b 80bd 64b7 a8bd 9403 a63e
000000e0: 932c 1bbe 5d35 8a3d 9d51 223e 80fa aebc
000000f0: 09cb 0a3e 129d dd3d 7b93 c1bb f2cd 2bbe
00000100: 76d0 803e aadf df3c 87a5 5a3c bf16 513d
00000110: 5cb6 d53d 2e60 c23c 0df0 a13e 4602 f8bc
00000120: 96b5 183d 5b84 ee3c 07cc 75bc bf55 a13e
00000130: fec1 16be c42c d03d 615e d93d e900 873e
00000140: 8a32 cebd d9a8 ab3c b0e5 013e 9680 95bd
00000150: ac66 1cbe 9137 3ebe 5695 9bbd b381 893d
00000160: 4e20 0a3d cf82 35bd d9c5 1dbe 1efb fc3d
00000170: 6a73 6e3b ec96 febd d9e6 383e da3d d0bd
00000180: ed6d 513e aeb1 5d3e 415d 62bd 8d6f d63d
00000190: a03b cbbd 3ba9 a83e f5dd db3d 26a4 4bbe
000001a0: 4ed1 3a3d cf8f 633d 3725 e13c 1da7 bfbd
000001b0: d8a6 3cbe b5b0 b5bd 2c2e a83e 84a5 42bc
000001c0: 49fc 013d 5f8e 5f3d 0fc2 c03d a84f c0bd
000001d0: 667f 40bd f231 0cbe 96dc de3d 2cfd 9c3d
000001e0: 5b08 3cbe 606d 863e 620d ee3d 9a60 83be
000001f0: 45e5 143d cc5a 07be 51cc 9c3c 0b8c 983d

ik_net.sequential_l_leg.2.weight f4 [128, 128]
0.10033595 0.11532946 -0.09623562 0.033638787 -0.019764094 0.10630394 0.0029289518 -0.17156643
-0.26281208 0.01681324 0.20221478 0.002299005 0.06259986 -0.1262867 -0.1444476 0.092402756
0.034866348 -0.0034114881 -0.051181387 -0.13695984 0.06393531 -0.17307702 0.017118862 -0.0024785886
-0.10552109 0.058377437 -0.0061428174 -0.028688522 -0.03958797 0.057668123 0.14424543 0.09018211
0.029870896 -0.0013186219 0.047419846 -0.06459555 0.01617257 0.082785524 0.09975743 0.032520022
-0.0651267 0.038670376 -0.14231339 -0.23782861 0.062468484 -0.074341565 -0.08635984 -0.14831999
-0.0052391174 0.04879784 -0.01530771 -0.10282082 0.06913704 0.009158443 0.024913954 0.036460817
0.014438765 -0.06477994 -0.06942012 -0.082201205 -0.017674185 -0.012109696 -0.08010436 -0.012871935
0.03197992 -0.16475758 -0.020379303 -0.26108676 0.021174649 0.08694251 0.023810647 0.023852503
-0.20422637 -0.029410958 -0.0065399418 0.08840955 0.05533669 0.028005553 0.082639195 -0.14933282
0.038835958 -0.014228159 0.07294063 -0.007929946 0.07265288 -0.07210589 -0.0036998661 -0.050816294
0.014910918 0.026199026 0.0015807742 -0.04655635 -0.079070434 -0.027899342 -0.082202375 -0.055181228
0.15116452 -0.13349879 0.013492152 -0.017216315 0.082926236 -0.2234655 -0.025168307 0.03995353
0.038274556 0.0127595775 -0.04872969 -0.14894406 -0.048287954 -0.13582101 -0.19865644 0.090011194
-0.06028603 -0.036071822 -0.025307527 -0.049421083 -0.061938778 -0.07981485 0.017042989 -0.07937641
-0.028095152 -0.09427468 0.07149087 0.1634622 -0.044139124 -0.062319055 -0.1442262 -0.048002675
-0.03257971 -0.15779428 -0.11504661 0.04178254 -0.027702482 0.046962913 -0.16641892 -0.033775046
0.036053266 0.0802492 -0.020052405 0.040761236 -0.27037287 -0.008823012 0.09590114 0.006880741
0.19317812 -0.09883763 0.09185101 0.03836806 0.014028596 -0.00047343565 -0.049514517 0.11532112
0.0045901723 -0.16978176 0.059670236 -0.056224067 0.06029078 -0.021230651 0.08470973 -0.06707175
0.05818178 0.20881724 0.043705806 -0.0017203426 0.15315437 0.005679758 -0.047393646 0.0053625857
0.039238315 0.02109986 0.012675004 -0.059134863 -0.10575892 -0.07706894 0.0622197 -0.049948618
0.010948941 0.14962395 -0.020563241 0.018872749 0.052618694 0.07303857 0.027859028 -0.13105921
-0.0712072 0.10920128 0.053321693 0.0153467925 -0.0010859442 0.06706361 0.053012617 0.032857437
0.06496378 -0.10395856 0.0044448227 0.012290087 -0.0035351948 -0.14060794 0.009198896 -0.064880155
0.028634235 -0.033134714 0.12418521 -0.044643175 0.07493215 0.09255301 -0.06515694 -0.064765245
0.0564576 0.0033453451 0.15605153 -0.11741412 0.054136924 -0.036741357 0.10692536 -0.0039760727
-0.02039604 -0.06364778 -0.056475785 -0.0021300889 -0.08041788 0.12159269 -0.0725367 0.050989486
-0.058260825 0.09875195 0.08457351 0.14983366 0.005799064 0.107048996 -0.1312014 -0.18433526
-0.0053135636 -0.016033659 -0.01639373 -0.017470168 -0.045924295 -0.0074151326 0.11655239 0.1410502
0.037234865 0.1837358 0.14844212 -0.04386992 0.021206828 0.04570523 -0.0010956635 -0.0091874935
0.06696683 0.12659872 0.17440176 0.08243033 0.036380574 -0.07220521 0.02033814 -0.016615925
00000000: ef7c cd3d da31 ec3d 2e17 c5bd d3c8 093d
00000010: 4fe8 a1bc e1b5 d93d a8f3 3f3b 1caf 2fbe
00000020: 4e8f 86be ebbb 893c 6411 4f3e e7aa 163b
00000030: 5b34 803d 4d51 01be 12ea 13be a83d bd3d
00000040: 04d0 0e3d 4693 5fbb 93a3 51bd 333f 0cbe
00000050: 84f0 823d 1a3b 31be db3c 8c3c d16f 22bb
00000060: 711b d8bd 2e1d 6f3d b049 c9bb 3104 ebbc
00000070: ff26 22bd 6935 6c3d 13b5 133e 66b1 b83d
00000080: cfb3 f43c 9cd5 acba 503b 423d ac4a 84bd
00000090: 567c 843c 758b a93d a04d cc3d b733 053d
000000a0: 2661 85bd d464 1e3d 9aba 11be 5889 73be
000000b0: f4de 7f3d 6440 98bd 6edd b0bd 32e1 17be
000000c0: e7ac abbb 3ee0 473d 30cd 7abc b993 d2bd
000000d0: b897 8d3d 4b0d 163c 5918 cc3c f057 153d
000000e0: 9290 6c3c 58ab 84bd 232c 8ebd 1b59 a8bd
000000f0: 74c9 90bc bf67 46bc c10d a4bd cfe4 52bc
00000100: 60fd 023d 36b6 28be 7ff2 a6bc 2aad 85be
00000110: 7576 ad3c ea0e b23d 8c0e c33c 5366 c33c
00000120: b820 51be 40ef f0bc 024d d6bb 1110 b53d
00000130: baa8 623d e76b e53c bd3e a93d b4ea 18be
00000140: 7412 1f3d 391d 69bc e661 953d 9bec 01bc
00000150: 08cb 943d 41ac 93bd 7479 72bb bf24 50bd
00000160: ec4c 743c 579f d63c fb31 cf3a dfb1 3ebd
00000170: aeef a1bd 298d e4bc b859 a8bd b605 62bd
00000180: dfca 1a3e e8b3 08be 300e 5d3c 3b09 8dbc
00000190: 3bd5 a93d 24d4 64be c42d cebc 50a6 233d
000001a0: c8c5 1c3d 8c0d 513c c998 47bd cb84 18be
000001b0: 97c9 45bd aa14 0bbe 986c 4bbe ca57 b83d
000001c0: 7cee 76bd 0cc0 13bd bb51 cfbc c36d 4abd
000001d0: 84b3 7dbd f875 a3bd bd9d 8b3c 1990 a2bd
000001e0: ce27 e6bc 1513 c1bd ce69 923d a362 273e
000001f0: 3acb 34bd 4442 7fbd 08b0 13be 749e 44bd
00000200: 4d72 05bd d394 21be 8f9d ebbd 2b24 2b3d
00000210: 51f0 e2bc 2f5c 403d b969 2abe b457 0abd
00000220: 97ac 133d b159 a43d f144 a4bc 41f5 263d
00000230: 506e 8abe 658e 10bc d167 c43d d777 e13b
00000240: 7cd0 453e 626b cabd 621c bc3d d427 1d3d
00000250: 32d8 653c 7537 f8b9 bccf 4abd 7b2d ec3d
00000260: 2869 963b 45db 2dbe c768 743d 354b 66bd
00000270: 77f3 763d e7eb adbc 4c7c ad3d ea5c 89bd
00000280: 0550 6e3d 30d4 553e dc04 333d 1e7d e1ba
00000290: 80d4 1c3e 431d ba3b d71f 42bd a1b8 af3b
000002a0: 5bb8 203d 9dd9 ac3c d2aa 4f3c 6637 72bd
000002b0: 2298 d8bd 52d6 9dbd 16da 7e3d ec96 4cbd
000002c0: 3063 333c 0537 193e 3e74 a8bc 069b 9a3c
000002d0: b386 573d 3f95 953d 9e38 e43c 6334 06be
000002e0: 15d5 91bd eca4 df3d d967 5a3d 1d71 7b3c
000002f0: 3e56 8eba a558 893d c223 593d 8595 063d
00000300: bb0b 853d 3ae8 d4bd e0a5 913b 5c5c 493c
00000310: baae 67bb 87fb 0fbe f7b6 163c e3df 84bd
00000320: 5892 ea3c 44b8 07bd d154 fe3d c3db 36bd
00000330: 0776 993d 6f8c bd3d 0071 85bd a4a3 84bd
00000340: 1640 673d 943d 5b3b f9cb 1f3e d076 f0bd
00000350: aebe 5d3d 1b7e 16bd affb da3d b749 82bb
00000360: 9915 a7bc c459 82bd 2753 67bd f698 0bbb
00000370: 21b2 a4bd 9705 f93d 1f8e 94bd 5ada 503d
00000380: e7a2 6ebd 763e ca3d e034 ad3d ff6d 193e
00000390: 1306 be3b 813c db3d a959 06be 62c2 3cbe
000003a0: 671d aebb 0559 83bc 254c 86bc 991d 8fbc
000003b0: 1d1b 3cbd a4fa f2bb 05b3 ee3d 776f 103e
000003c0: 9683 183d 3d25 3c3e 3601 183e f2b0 33bd
000003d0: f1b9 ad3c 6835 3b3d 5e9c 8fba 2487 16bc
000003e0: e825 893d 18a3 013e 6096 323e 3cd1 a83d
000003f0: cc03 153d 53e0 93bd 2c9c a63c 1f1e 88bc

ik_net.sequential_l_leg.2.bias f4 [128]
-0.05230253 -0.025695816 -0.077577315 -0.06942956 0.011007322 0.2834504 0.04803239 0.11044484
0.04719938 0.09241461 -0.041385435 -0.075658195 -0.059733767 0.15371534 -0.118990466 -0.064685315
-0.07349649 0.05140396 0.08631016 -0.09190789 -0.1366864 0.07478199 -0.06781369 -0.055397395
-0.060108572 0.03192316 -0.1863317 0.077225514 -0.050535463 -0.05752519 -0.04376146 0.090514235
0.07237118 -0.12080371 0.11231407 -0.08372036 -0.014675843 -0.10688457 -0.10327506 0.06847017
0.028374484 -0.069221035 -0.015767459 -0.10285763 0.16993408 -0.030548709 0.048647836 -0.02782694
0.15171464 -0.0019733985 -0.055495992 0.10316294 -0.032796435 0.002785129 -0.053751465 -0.032636076
0.23721091 -0.15851976 0.13331366 0.167251 -0.011894778 -0.013156942 -0.124609515 0.07891333
0.04758891 -0.10939276 -0.07864867 0.080858484 0.10104866 0.01023507 -0.003717316 0.08283113
0.009572907 -0.0049462905 0.0668782 0.018288814 -0.06496477 0.08122504 0.050568257 -0.101692975
-0.19044061 0.04829218 -0.03341378 0.052429076 0.057010874 -0.0013050421 0.0077827713 -0.033989575
0.06524926 -0.021441776 -0.09140654 0.08000158 0.017702982 0.017835453 -0.08735928 0.021921022
0.027550003 0.097971916 -0.0034836396 0.041802112 -0.07824354 -0.037236813 -0.052180167 -0.10498253
-0.063366644 -0.0016276655 -0.027692948 0.06376957 0.132694 0.026393946 0.06035596 0.067736894
-0.124035925 -0.052531686 -0.16765806 0.06531747 0.17176381 0.025275689 -0.03426463 -0.12337582
-0.055062182 0.0701067 -0.007721859 0.040729623 0.029053174 -0.10599905 -0.1420722 -0.025699358
00000000: 2d3b 56bd 0880 d2bc dbe0 9ebd 1631 8ebd
00000010: 0e58 343c 6920 913e 9dbd 443d e730 e23d
00000020: 2354 413d df43 bd3d c683 29bd aff2 9abd
00000030: 65ab 74bd 8e67 1d3e 46b1 f3bd bc79 84bd
00000040: 5485 96bd f58c 523d 62c3 b03d 343a bcbd
00000050: 85f7 0bbe 4d27 993d e7e1 8abd 61e8 62bd
00000060: 6834 76bd dcc1 023d bdcd 3ebe 6928 9e3d
00000070: 46fe 4ebd 899f 6bbd 373f 33bd 875f b93d
00000080: 5737 943d ef67 f7bd eb04 e63d 9575 abbd
00000090: f272 70bc 4ce6 dabd e081 d3bd 173a 8c3d
000000a0: 9b71 e83c c2c3 8dbd c22a 81bc 05a7 d2bd
000000b0: 3303 2e3e 4941 fabc f442 473d 53f5 e3bc
000000c0: 155b 1b3e 2254 01bb c44f 63bd 1747 d33d
000000d0: 8e55 06bd b686 363b 7f2a 5cbd 68ad 05bd
000000e0: 6be7 723e 0153 22be 6083 083e d943 2b3e
000000f0: 51e2 42bc 3790 57bc 4633 ffbd 509d a13d
00000100: 97ec 423d 5009 e0bd 8e12 a1bd 2299 a53d
00000110: 9af2 ce3d ffb0 273c 379e 73bb 5ea3 a93d
00000120: afd7 1c3c 7e14 a2bb 70f7 883d 6cd2 953c
00000130: 400c 85bd 5059 a63d a920 4f3d 6844 d0bd
00000140: dd02 43be 05ce 453d e3dc 08bd dfbf 563d
00000150: 3c84 693d f20d abba 9e06 ff3b a738 0bbd
00000160: 67a1 853d aaa6 afbc 5a33 bbbd ded7 a33d
00000170: d805 913c a81b 923c 6ce9 b2bd b793 b33c
00000180: 8bb0 e13c 80a5 c83d c64d 64bb b138 2b3d
00000190: 263e a0bd a185 18bd dfba 55bd 1501 d7bd
000001a0: 5fc6 81bd 6457 d5ba 52dc e2bc 9f99 823d
000001b0: f0e0 073e 1e38 d83c d037 773d a4b9 8a3d
000001c0: 8c06 febd 772b 57bd 8eae 2bbe 2ac5 853d
000001d0: dae2 2f3e f60e cf3c 1259 0cbd 76ac fcbd
000001e0: e288 61bd 1a94 8f3d a607 fdbb 1bd4 263d
000001f0: ec00 ee3c 0816 d9bd 607b 11be 7687 d2bc

ik_net.sequential_l_leg.4.weight f4 [24, 128]
-0.15626878 0.21727186 0.051502403 -0.049710035 0.0655673 0.071247205 0.020232424 -0.051217325
0.058103785 0.05480684 -0.047413982 -0.033549573 -0.16375548 0.040841315 -0.08165875 -0.089429505
-0.13942023 -0.1790679 -0.06128988 -0.25955272 0.27497876 0.0071326294 -0.10808184 -0.039157297
0.057151664 -0.074217424 0.005353449 -0.1179806 -0.09989784 -0.04541425 0.15527773 -0.04952942
-0.1266486 -0.081225276 -0.036587734 0.117964886 -0.055694804 0.025303558 0.031316765 -0.009145472
-0.04382257 0.3004615 0.12345259 -0.06545612 -0.04170024 -0.0036152983 -0.038769405 0.08964004
0.00028249554 0.14701015 -0.061105445 0.030125698 -0.121958435 0.11463881 -0.05191965 -0.034482714
-0.06432311 -0.025815219 -0.10512358 -0.041025046 -0.033852134 0.03532893 0.033859484 -0.041966937
-0.024263041 0.04132613 0.17912048 -0.11965292 0.12868242 0.027210822 0.07364824 0.05431486
-0.06845756 -0.04439633 0.02984044 0.067896895 0.005672071 0.13732849 -0.069166936 -0.051521197
0.041044418 -0.025447449 -0.21499084 -0.030644119 -0.11383902 0.08977591 0.06486372 -0.09278317
-0.023445342 0.006702642 -0.027811635 -0.008419145 0.0032427437 0.044841286 -0.082404174 -0.032039903
0.03105808 -0.15297978 0.045741055 -0.07980019 -0.05450573 -0.003970968 0.04084329 0.07727447
-0.010249261 0.053331126 -0.11114798 -0.014023686 -0.052261263 -0.1608339 -0.11538054 -0.0505181
-0.09515541 -0.0749502 0.16593744 -0.027577208 0.022132253 -0.0065126834 -0.020181097 0.01147118
-0.025507046 -0.059749804 0.0657368 0.014133375 0.015067341 -0.051825415 -0.0063450807 0.06380172
-0.14512916 0.11512264 -0.045477074 -0.037161194 0.055418603 0.13026941 -0.083988324 -0.02882898
0.020676564 0.0042447965 0.00592623 -0.010009389 -0.0151194995 0.03303529 -0.021288736 0.04785491
-0.006038958 -0.020461176 -0.04055267 -0.060251035 0.06167703 -0.012263241 0.044003382 -0.06981691
0.048734345 -0.034665395 -0.12778014 -0.00067338976 -0.070124246 -0.09308277 0.14053927 -0.06653932
-0.065011434 0.0032415271 -0.024848597 0.068745285 -0.024418294 -0.017110672 0.039285686 0.05257002
0.041417897 0.1311729 0.051496364 -0.028932814 -0.028284106 -0.013813003 0.04668769 0.057677392
-0.008290243 -0.03528825 0.038470637 0.039404325 -0.06566312 0.009036904 -0.027208436 -0.033069063
-0.038571525 0.0038773243 -0.07315571 0.012891424 -0.060950324 0.031320617 0.018032612 0.070916146
-0.08623257 0.0016041815 0.16469814 0.042370066 0.004358148 0.0010116372 0.002653911 0.03359281
-0.023134565 0.056666102 0.030993065 0.08475836 0.022949532 0.06736342 0.040297143 0.045332372
-0.00030458855 0.091283195 0.07092884 -0.017804906 -0.011602339 0.072580576 -0.019515315 -0.055775568
-0.047309358 0.0247246 -0.03488476 -0.035548795 0.021838471 0.028462987 -0.088090815 0.0006671891
0.026045065 0.044510923 0.01846492 -0.02474073 0.06110661 0.053166114 -0.018396657 -0.0131482845
-0.058490917 -0.055202078 -0.0267872 0.0051605944 -0.08445241 0.061162964 0.01621594 -0.01611142
-0.12224343 0.098194286 0.025995333 0.0029123903 0.026298046 -0.056480262 -0.053524703 -0.037592787
-0.057092384 0.027447836 0.03635855 -0.01654565 0.011365954 -0.1041658 -0.06847671 -0.024839023
00000000: ec04 20be 847c 5e3e 2ff4 523d c09c 4bbd
00000010: 2648 863d 0eea 913d 78be a53c 42c9 51bd
00000020: 3cfe 6d3d 237d 603d 2a35 42bd 476b 09bd
00000030: 84af 27be 3949 273d b43c a7bd d126 b7bd
00000040: 2dc4 0ebe 935d 37be 190b 7bbd 18e4 84be
00000050: 04ca 8c3e d5b8 e93b 035a ddbd 6763 20bd
00000060: dd17 6a3d 4eff 97bd fc6b af3b d09f f1bd
00000070: 3d97 ccbd 4b04 3abd 2001 1f3e 5cdf 4abd
00000080: 2cb0 01be 7059 a6bd 05dd 15bd 9397 f13d
00000090: 3c20 64bd 6849 cf3c 0246 003d e4d6 15bc
000000a0: 4c7f 33bd 17d6 993e b6d4 fc3d dc0d 86bd
000000b0: dfcd 2abd a4ee 6cbb abcc 1ebd 3395 b73d
000000c0: e91b 9439 d489 163e b449 7abd 2bca f63c
000000d0: 58c5 f9bd c1c7 ea3d b3a9 54bd bf3d 0dbd
000000e0: d6bb 83bd 707a d3bc 084b d7bd e109 28bd
000000f0: 89a8 0abd 11b5 103d 3eb0 0a3d 86e5 2bbd
00000100: 49c3 c6bc 9745 293d 5c6b 373e 970c f5bd
00000110: 53c5 033e 3be9 de3c e3d4 963d 4279 5e3d
00000120: 7a33 8cbd edd8 35bd f073 f43c 870d 8b3d
00000130: c8dc b93b d79f 0c3e 65a7 8dbd e407 53bd
00000140: 311e 283d 2b77 d0bc 8f26 5cbe 6009 fbbc
00000150: 6f24 e9bd 6fdc b73d 45d7 843d 1a05 bebd
00000160: 7210 c0bc d6a1 db3b 3ad5 e3bc 74f0 09bc
00000170: 3684 543b 7fab 373d 85c3 a8bd 463c 03bd
00000180: 846d fe3c bba6 1cbe f95a 3b3d 486e a3bd
00000190: 6641 5fbd e51e 82bb 4b4b 273d 1442 9e3d
000001a0: 84ec 27bc bd71 5a3d 8da1 e3bd 9ac3 65bc
000001b0: e80f 56bd a4b1 24be a24c ecbd 11ec 4ebd
000001c0: d7e0 c2bd 7e7f 99bd 81eb 293e 99e9 e1bc
000001d0: b34e b53c 5968 d5bb d452 a5bc 9ef1 3b3c
000001e0: 27f4 d0bc 36bc 74bd 04a1 863d ac8f 673c
000001f0: 02dd 763c e346 54bd 65ea cfbb 7aaa 823d
00000200: bd9c 14be 6bc5 eb3d 2b46 3abd 5636 18bd
00000210: 9efe 623d 5865 053e 1202 acbd c12a ecbc
00000220: e661 a93c ef17 8b3b d230 c23b 6cfe 23bc
00000230: c7b7 77bc 0350 073d b765 aebc 8303 443d
00000240: 74e2 c5bb 329e a7bc 8e1a 26bd cac9 76bd
00000250: 0ea1 7c3d c3eb 48bc e43c 343d 2bfc 8ebd
00000260: aa9d 473d 4dfd 0dbd ccd8 02be 6c86 30ba
00000270: 4d9d 8fbd 2ea2 bebd 87e9 0f3e c445 88bd
00000280: b724 85bd cd6f 543b 498f cbbc 54ca 8c3d
00000290: e008 c8bc ae2b 8cbc 07ea 203d a953 573d
000002a0: d0a5 293d 3052 063e daed 523d 8204 edbc
000002b0: 12b4 e7bc ef4f 62bc 973b 3f3d 213f 6c3d
000002c0: cdd3 07bc 698a 10bd 6393 1d3d 6e66 213d
000002d0: 637a 86bd 860f 143c 3ae4 debc 6d73 07bd
000002e0: 2dfd 1dbd b51a 7e3b a9d2 95bd 8d36 533c
000002f0: 0ca7 79bd 0c4a 003d 21b9 933c 7c3c 913d
00000300: b49a b0bd 6643 d23a a1a6 283e 3c8c 2d3d
00000310: ccce 8e3b e998 843a 3ded 2d3b 9d98 093d
00000320: b384 bdbc b71a 683d 2be5 fd3c cb95 ad3d
00000330: a800 bc3c d5f5 893d 9e0e 253d 70ae 393d
00000340: 2fb1 9fb9 aff2 ba3d 2443 913d 98db 91bc
00000350: bd17 3ebc 20a5 943d 95de 9fbc ec74 64bd
00000360: 75c7 41bd 3f8b ca3c 52e3 0ebd 9d9b 11bd
00000370: 98e6 b23c 362b e93c f568 b4bd 4de6 2e3a
00000380: 765c d53c 1651 363d be43 973c 12ad cabc
00000390: ed4a 7a3d b6c4 593d 96b4 96bc e76b 57bc
000003a0: 2c94 6fbd 931b 62bd d470 dbbc 341a a93b
000003b0: 63f5 acbd 0486 7a3d 4ad7 843c 19fc 83bc
000003c0: c35a fabd 161a c93d 2af4 d43c cddd 3e3b
000003d0: 006f d73c d957 67bd b83c 5bbd e5fa 19bd
000003e0: b4d9 69bd 49da e03c b4ec 143d be8a 87bc
000003f0: 4438 3a3c e154 d5bd 843d 8cbd 357b cbbc

ik_net.sequential_l_leg.4.bias f4 [24]
0.037410773 -0.05706488 0.049570575 -0.043813933 0.02390864 0.062886134 -0.010427346 0.049717467
0.030972179 -0.140125 -0.08445764 -0.017765168 -0.0167664 0.00708988 -0.061791264 0.013576665
-0.16261181 0.11024001 0.1066185 -0.06462223 -0.02887149 -0.0040052948 -0.03636343 -0.04299809
00000000: 0a3c 193d ddbc 69bd 840a 4b3d 3d76 33bd
00000010: 0ddc c33c 72ca 803d 76d7 2abc 8ba4 4b3d
00000020: 5eb9 fd3c ee7c 0fbe 21f8 acbd 4288 91bc
00000030: b059 89bc 3952 e83b d618 7dbd a970 5e3c
00000040: b683 26be 84c5 e13d cd5a da3d a958 84bd
00000050: e783 ecbc d93e 83bb d2f1 14bd c41e 30bd

ik_net.sequential_r_leg.0.weight f4 [128, 49]
-0.05115952 0.15560912 -0.22375944 -0.106226966 -0.15709856 -0.052537758 0.040616628 0.23213746
-0.037365433 0.05694727 -0.0507825 0.0030323293 -0.12167002 0.010368501 0.057306577 0.03341054
-0.0036800012 0.0068154163 -0.038764074 0.051523723 -0.12281529 -0.09765757 -0.02932828 0.046268165
0.020938706 0.18157655 -0.09008732 -0.014040128 -0.00403247 0.07013449 0.023743477 0.062068284
-0.021325443 -0.013084953 0.03309673 -0.013722613 -0.026973767 -0.014973507 -0.044707466 -0.017724516
-0.0076419637 0.025216583 -0.1538925 -0.077000625 -0.124242954 -0.046610624 -0.16686654 0.1397659
0.13143708 -0.013596627 -0.16913982 -0.00080483675 -0.105280735 -0.10019759 0.05444876 0.10502775
-0.05226652 0.13009071 0.01875911 -0.057781976 -0.047011558 0.067757726 0.022687364 0.018798035
0.0039017492 -0.092698336 -0.032111373 0.009599429 -0.05132107 0.027791794 0.106246054 0.042943425
0.018242702 0.06800108 0.040935896 -0.09701819 0.15931176 -0.038795095 0.00018978995 -0.04703099
0.018249542 -0.034141783 0.00854426 -0.011211539 -1.3159532e-05 0.0147242155 -0.043809023 0.04477716
-0.07562739 0.016141815 -0.11649035 0.13117228 -0.1095222 -0.15466262 0.000196661 -0.20339386
0.16266224 -0.14201884 -0.04730233 -0.09776057 -0.068542264 -0.022119954 0.16212134 -0.03713401
0.0922932 0.0493967 0.07718865 -0.07180207 0.12500744 -0.09040817 0.057166774 -0.0051992624
0.06286425 0.020406015 0.16008824 0.016863633 0.11342279 0.09569415 -0.048644505 -0.07588974
0.05104232 -0.056911316 -0.06910324 0.0014837449 -0.18135503 -0.0019936655 -0.06259247 -0.15414691
-0.030607866 0.05038332 0.0054079494 0.008261492 -0.014891855 -0.0008947809 -0.017299864 -0.016146066
0.033390313 0.06042715 0.047756195 -0.016113712 0.17933789 0.06573101 -0.060338616 0.124955624
-0.0856904 -0.074037224 -0.07196753 -0.026999354 -0.010793849 0.21708015 -0.03829508 -0.1773468
0.059231203 0.0022474083 -0.28184244 0.15864283 0.062477253 -0.06558894 -0.1286878 -0.015681999
-0.025850292 -0.020843914 0.06869643 -0.10297112 0.07340242 -0.0066602645 0.014121497 0.035403587
-0.01392024 0.0774853 0.045522932 -0.06505159 0.06253745 0.0010384192 0.054594535 0.10123065
-0.0100035565 0.00017023565 -0.055938896 0.09103391 -0.012476267 -0.014586612 0.0061468994 -0.003956478
0.019739227 0.02174201 -0.094053455 0.10197326 -0.09507116 0.033521365 -0.002459184 -0.028944805
0.11519421 0.064594105 0.22324456 -0.21091892 -0.0795534 0.021847855 -0.025402643 0.025097495
0.21516506 0.067806415 0.05578452 0.16670182 -0.023483671 -0.066134535 -0.14423382 -0.06851054
-0.021743922 0.04797057 -0.021102587 0.02290296 -0.04528013 -0.09719569 0.07071408 -0.03383072
0.019506944 -0.063821346 -0.12716536 -0.0081746625 0.06561753 0.05746038 -0.0420568 -0.036815494
0.06422721 -0.029623505 0.011312997 0.04466059 0.07034391 0.005112129 0.03230193 0.005792094
0.0313225 -0.033068787 0.039230876 -0.025457997 -0.050873954 0.04778899 -0.093015075 0.2054986
0.10182096 0.13045725 0.17901883 0.050218303 -0.008402706 0.106124416 0.24741602 -0.16401863
-0.002326583 0.012604392 -0.04431744 -0.011828946 0.039416254 -0.055873618 -0.041709922 0.08015049
00000000: a58c 51bd ff57 1f3e 3221 65be 868d d9bd
00000010: 72de 20be d531 57bd 9f5d 263d 71b5 6d3e
00000020: 7f0c 19bd 8a41 693d 5001 50bd 0bba 463b
00000030: 222e f9bd a5e0 293c 4dba 6a3d 7ed9 083d
00000040: 2d2c 71bb db53 df3b 14c7 1ebd 8a0a 533d
00000050: 9586 fbbd b100 c8bd dc41 f0bc b083 3d3d
00000060: a687 ab3c 34ef 393e b37f b8bd 9108 66bc
00000070: cf22 84bb aca2 8f3d ae81 c23c 503b 7e3d
00000080: b2b2 aebc 4562 56bc 7090 073d d0d4 60bc
00000090: 17f8 dcbc 7153 75bc 2d1f 37bd 0133 91bc
000000a0: 7069 fabb 0293 ce3c ff95 1dbe 81b2 9dbd
000000b0: 1773 febd c8ea 3ebd 10df 2abe cb1e 0f3e
000000c0: 7197 063e 63c4 5ebc fd32 2dbe aefb 52ba
000000d0: 6d9d d7bd 6534 cdbd aa05 5f3d ca18 d73d
000000e0: 6b15 56bd 8036 053e b4ac 993c cbac 6cbd
000000f0: 318f 40bd 90c4 8a3d dada b93c 56fe 993c
00000100: 7db4 7f3b a0d8 bdbd 3787 03bd ec46 1d3c
00000110: 0b36 52bd 9eab e33c 8897 d93d 72e5 2f3d
00000120: b871 953c 2644 8b3d 66ac 273d 79b1 c6bd
00000130: 9f22 233e 9be7 1ebd 5a02 4739 91a3 40bd
00000140: 1080 953c 41d8 0bbd 39fd 0b3c 9ab0 37bc
00000150: c2c7 5cb7 d63d 713c 1771 33bd 4168 373d
00000160: 88e2 9abd d73b 843c 7e92 eebd 0752 063e
00000170: 2d4d e0bd e15f 1ebe c936 4e39 7b46 50be
00000180: ee90 263e 636d 11be 17c0 41bd b236 c8bd
00000190: e35f 8cbd e834 b5bc 2303 263e d519 18bd
000001a0: 3804 bd3d 3254 4a3d 1515 9e3d f70c 93bd
000001b0: f301 003e eb27 b9bd b527 6a3d 935e aabb
000001c0: f9be 803d 842a a73c 2cee 233e 9a25 8a3c
000001d0: 354a e83d 4bfb c33d 763f 47bd 146c 9bbd
000001e0: c011 513d d71b 69bd 0086 8dbd 387a c23a
000001f0: 22b5 39be 28a8 02bb 7b30 80bd b0d8 1dbe
00000200: 59bd fabc bd5e 4e3d 2b35 b13b 355b 073c
00000210: f8fc 73bc bb8f 6aba 72b8 8dbc c144 84bc
00000220: 48c4 083d 7682 773d 009c 433d e700 84bc
00000230: 5aa4 373e fb9d 863d a025 77bd bce8 ff3d
00000240: 737e afbd d4a0 97bd b663 93bd c02d ddbc
00000250: afd8 30bc 424a 5e3e 4ddb 1cbd 669a 35be
00000260: 6b9c 723d 4149 133b a74d 90be 4473 223e
00000270: 26e8 7f3d 7f53 86bd bcc6 03be 8977 80bc
00000280: fec3 d3bc dbc0 aabc b7b0 8c3d 86e2 d2bd
00000290: 0254 963d 593e dabb da5d 673c 5a03 113d
000002a0: b811 64bc 9db0 9e3d 4176 3a3d c539 85bd
000002b0: a213 803d 911b 883a 859e 5f3d 0452 cf3d
000002c0: f5e5 23bc 4981 3239 2f20 65bd fd6f ba3d
000002d0: 4269 4cbc affc 6ebc ee6b c93b 58a5 81bb
000002e0: 29b4 a13c 4d1c b23c 199f c0bd 5bd7 d03d
000002f0: abb4 c2bd b34d 093d 432a 21bb a81d edbc
00000300: f1ea eb3d ea49 843d 399a 643e 21fb 57be
00000310: e5ec a2bd 46fa b23c 3419 d0bc 4399 cd3c
00000320: 3b54 5c3e 17de 8a3d 4f7e 643d e2b3 2a3e
00000330: d460 c0bc 8b71 87bd 08b2 13be 414f 8cbd
00000340: 4f20 b2bc ca7c 443d 55df acbc fd9e bb3c
00000350: a877 39bd 890e c7bd 8bd2 903d 1592 0abd
00000360: 07cd 9f3c c4b4 82bd a337 02be 05ef 05bc
00000370: 7c62 863d 935b 6b3d c043 2cbd d8cb 16bd
00000380: 8e89 833d feac f2bc 265a 393c 06ee 363d
00000390: 7810 903d a583 a73b 074f 043d 9bcb bd3b
000003a0: 064c 003d 2373 07bd 8eb0 203d 4a8d d0bc
000003b0: 3561 50bd 63be 433d b07e bebd 3a6e 523e
000003c0: 8287 d03d 9696 053e b650 373e b5b1 4d3d
000003d0: 81ab 09bc c257 d93d a05a 7d3e 80f4 27be
000003e0: 9679 18bb a782 4e3c 3486 35bd 32ce 41bc
000003f0: f072 213d bcdb 64bd 06d8 2abd f125 a43d

ik_net.sequential_r_leg.0.bias f4 [128]
0.058690656 -0.035812993 0.20526353 -0.05139499 0.102748245 0.0736256 0.12856686 0.12557499
0.2206189 -0.28324077 0.21472256 0.20952907 -0.016327955 0.18541668 0.12786764 0.16602561
0.11166078 0.15936354 0.15831098 -0.03792247 0.057778183 0.12982704 0.14135352 0.03394362
0.31649947 -0.02940693 0.09185446 -0.022301856 0.22700155 0.07374927 -0.054405678 -0.021966485
0.003670811 -0.057524 -0.08005967 -0.040838957 0.044900153 0.010401581 -0.004575969 0.09891558
-0.014307668 0.30574027 0.015636284 -0.052107386 0.2547335 -0.027578106 -0.1246874 0.057306595
0.038108423 0.082218796 0.12800361 0.14376578 -0.051608413 -0.118661456 0.025410984 -0.18156135
-0.11514439 -0.041492335 0.08557881 -0.10034057 -0.21857068 0.29233053 -0.06636259 -0.08808959
0.15217471 0.16825144 0.0370509 0.34209108 -0.19913901 -0.13438275 0.14707021 0.099421725
-0.059002027 0.15465778 -0.0021842476 -0.12524188 -0.1627204 0.07546236 0.32274395 -0.043264095
-0.056993518 -0.16623473 -0.05257088 -0.10698168 0.072091505 0.1691789 0.27307722 -0.017062062
-0.014713674 -0.13517901 -0.057971932 0.101783626 -0.10298412 0.08073716 -0.21473451 0.070013694
0.3554892 0.15117434 0.20460798 0.32461467 0.299059 -0.13938704 -0.040959347 0.010017385
-0.0889973 0.048755277 0.11721736 0.12358907 -0.119214036 0.016818086 -0.06970605 0.14563617
-0.18740478 0.1725798 0.28316602 0.044719104 -0.027716331 -0.102244385 0.13407798 -0.051198192
-0.2686943 -0.088128984 -0.119581304 0.0812593 -0.1961823 -0.10022137 -0.2030659 0.2950825
00000000: 9d65 703d a5b0 12bd 9a30 523e 8e83 52bd
00000010: ac6d d23d 05c9 963d 08a7 033e bb96 003e
00000020: ece9 613e ef04 91be 3be0 5b3e ca8e 563e
00000030: 34c2 85bc dfdd 3d3e bcef 023e 9e02 2a3e
00000040: 68ae e43d 3230 233e 461c 223e 9854 1bbd
00000050: d1a8 6c3d 61f1 043e fabe 103e 7708 0b3d
00000060: 380c a23e cde6 f0bc 311e bc3d 62b2 b6bc
00000070: 1873 683e db09 973d 7dd8 5ebd 0ff3 b3bc
00000080: fd91 703b 499e 6bbd 53f6 a3bd c046 27bd
00000090: 39e9 373d 656b 2a3c 03f2 95bb 4094 ca3d
000000a0: b66a 6abc fd89 9c3e aa17 803c 8e6e 55bd
000000b0: 6e6c 823e 7beb e1bc 1c5c ffbd 52ba 6a3d
000000c0: 9417 1c3d 5462 a83d 6113 033e 5637 133e
000000d0: 5863 53bd c704 f3bd b22a d03c 38eb 39be
000000e0: d2d0 ebbd def3 29bd f143 af3d 5b7f cdbd
000000f0: fed0 5fbe 59ac 953e 1ce9 87bd 5168 b4bd
00000100: b0d3 1b3e 1b4a 2c3e afc2 173d 9026 af3e
00000110: 19eb 4bbe a29b 09be 9399 163e 9e9d cb3d
00000120: 1cac 71bd 9c5e 1e3e 9825 0fbb 683f 00be
00000130: 2da0 26be 038c 9a3d b23e a53e b135 31bd
00000140: 0972 69bd 7039 2abe 9054 57bd 3619 dbbd
00000150: b6a4 933d 3c3d 2d3e c7d0 8b3e bdc5 8bbc
00000160: 9f11 71bc 5e6c 0abe fa73 6dbd ef73 d03d
00000170: 57e9 d2bd 8659 a53d 5de3 5bbe 5763 8f3d
00000180: ae02 b63e 72cd 1a3e c184 513e e533 a63e
00000190: 431e 993e 7abb 0ebe fdc4 27bd f51f 243c
000001a0: 3744 b6bd 9db3 473d a80f f03d 441c fd3d
000001b0: 7d26 f4bd 15c6 893c 0cc2 8ebd a621 153e
000001c0: 0ae7 3fbe c2b8 303e 23fb 903e 612b 373d
000001d0: 5c0d e3bc 8165 d1bd bd4b 093e 32b5 51bd
000001e0: 4d92 89be f87c b4bd 0be7 f4bd 476b a63d
000001f0: 03e4 48be dd40 cdbd 82f0 4fbe 0e15 973e

ik_net.sequential_r_leg.2.weight f4 [128, 128]
0.0562099 -0.029907493 0.04874311 -0.065525696 0.025148287 0.07276262 0.081627786 0.071427286
0.058549087 0.071552284 0.14655848 -0.072161235 -0.10399469 -0.034992754 0.06715312 0.032853696
0.026537862 -0.028003799 -0.011513507 0.010525656 0.03648262 0.10885565 0.032703146 0.028770022
-0.049947333 -0.06667195 -0.005249892 -0.018582495 -0.18767163 0.006855167 -0.05739338 -0.06951546
-0.04582892 0.06187803 0.0019925737 0.020485677 0.058107752 0.03159519 -0.03471241 0.13395514
0.078526475 0.0918398 -0.028123647 0.10189274 0.09027079 0.045040872 0.0218896 -0.10248165
-0.120947935 -0.0058592493 0.0058654165 0.103428945 0.023898596 0.16909227 0.03575836 -0.006002979
-0.11246761 0.0068459236 -0.027319796 -0.019645337 -0.024017137 0.053443458 0.08366123 -0.021279717
-0.0902769 -0.026182313 -0.06114353 4.608013e-05 0.013544216 0.0035833346 0.06745179 0.018311866
-0.10814205 -0.052324448 0.023137126 0.113814294 -0.09436176 -0.046884146 -0.011438412 -0.100471325
-0.0012892771 -0.0066348314 0.00027711573 -0.03634898 0.15285878 0.054892827 -0.03761987 -0.011398634
0.023935404 0.14451566 0.04393638 -0.04612815 -0.018674644 0.0790218 -0.010850194 -0.03570493
0.1746469 0.0012852263 -0.02270019 -0.021997148 0.14655994 -0.09789887 0.103347145 0.012098933
-0.054921705 0.04759422 0.050538346 -0.06371035 -0.07368784 -0.031113034 -0.0067345253 -0.055024017
-0.00314294 0.005651898 0.032247603 0.21094663 0.12833042 0.27162886 0.03993865 -0.013232272
-0.08184341 0.16254549 -0.053408112 -0.019432206 -0.13647632 -0.0887257 0.02479843 0.0905073
0.008092354 0.084708296 0.03549184 0.09322532 0.088398375 0.046206146 0.09682963 0.061129514
-0.03204122 0.10319264 0.017645998 -0.06990966 -0.03029811 -0.034526996 0.016155759 -0.02927823
-0.027738782 0.09652541 -0.0235547 0.017542949 -0.08865636 0.038733114 0.06373083 -0.036418915
0.03492429 0.046267696 -0.042570487 0.06629023 -0.12307001 0.1095774 -0.05093635 -0.01461055
-0.039210405 -0.034247756 0.05312182 0.019893212 -0.06588254 -0.0581726 0.0057125986 0.019164242
-0.008668602 0.004136883 -0.028372983 -0.038213935 0.0577006 0.08056306 -0.041180417 0.017308326
0.05257291 -0.009472046 0.028171165 -0.058053806 -0.07505801 0.07756644 -0.08558393 0.037265833
0.07205781 0.06808668 0.059100028 -0.05585173 0.0013478497 0.034236886 0.0437934 -0.10091081
-0.14663272 0.040647335 -0.1318419 -0.03360991 0.07276591 -0.03112937 -0.07490546 0.040422436
0.066239804 0.05453589 0.016366607 -0.016315736 0.0757489 0.009056108 0.055658873 -0.059159525
0.008402089 0.09669164 0.09483725 0.0070078196 0.008043704 -0.12683703 0.007085367 0.029805882
0.014737916 0.068283565 -0.04595748 0.03308245 -0.048168484 -0.08807 0.023666875 -0.08059439
-0.049517117 -0.052122034 0.044467524 -0.019097 0.01080543 0.12043919 -0.03366346 0.005410972
0.068642385 0.10641488 0.021770786 0.070081085 -0.06884978 0.034278255 -0.0017806737 0.025791166
0.12365226 -0.049481045 0.008395526 -0.07717157 0.06449075 -0.00704999 -0.043632552 0.13267052
0.10005653 -0.059739854 -0.079978086 -0.013410222 -0.103816934 0.062320367 0.11265475 -0.049623366
00000000: 5a3c 663d 8f00 f5bc dba6 473d 5632 86bd
00000010: c803 ce3c 9204 953d 782c a73d 7848 923d
00000020: 2bd1 6f3d 018a 923d 6d13 163e 45c9 93bd
00000030: 2bfb d4bd 9054 0fbd 9387 893d 9991 063d
00000040: ee65 d93c 3968 e5bc 26a3 3cbc cd73 2c3c
00000050: cd6e 153d b6ef de3d bcf3 053d 1caf eb3c
00000060: 9395 4cbd 4e8b 88bd 4907 acbb 513a 98bc
00000070: fe2c 40be 4fa1 e03b 5215 6bbd 1f5e 8ebd
00000080: 1bb7 3bbd d173 7d3d d795 023b 94d1 a73c
00000090: 6502 6e3d f569 013d 9a2e 0ebd 892b 093e
000000a0: 7dd2 a03d 8116 bc3d 9063 e6bc 24ad d03d
000000b0: e4df b83d c77c 383d d251 b33c e6e1 d1bd
000000c0: 8db3 f7bd f2fe bfbb ae32 c03b 8ed2 d33d
000000d0: fdc6 c33c 8626 2d3e 5c77 123d a3b4 c4bb
000000e0: 6b55 e6bd c553 e03b c4cd dfbc 42ef a0bc
000000f0: 96bf c4bc 87e7 5a3d 9456 ab3d cd52 aebc
00000100: 18e3 b8bd 4a7c d6bc a371 7abd 2a46 4138
00000110: 8fe8 5d3c 61d6 6a3b 2a24 8a3d c402 963c
00000120: 9479 ddbd 2952 56bd 128a bd3c 7817 e93d
00000130: bd40 c1bd 9709 40bd 2d68 3bbc e9c3 cdbd
00000140: f6fc a8ba 0069 d9bb d849 9139 abe2 14bd
00000150: 0387 1c3e 4dd7 603d 4b17 1abd 56c1 3abc
00000160: 2e14 c43c eafb 133e a2f6 333d dff0 3cbd
00000170: 91fb 98bc 2ed6 a13d 03c5 31bc 553f 12bd
00000180: a3d6 323e 0a75 a83a c0f5 b9bc 5d33 b4bc
00000190: cf13 163e 347f c8bd aba7 d33d 9a3a 463c
000001a0: 95f5 60bd 28f2 423d 4c01 4f3d 927a 82bd
000001b0: a6e9 96bd c3e0 febc 4bad dcbb dd60 61bd
000001c0: c9f9 4dbb 8f33 b93b 1016 043d 6502 583e
000001d0: 0d69 033e f012 8b3e b696 233d 2ccc 58bc
000001e0: 859d a7bd 5372 263e 77c2 5abd 4a30 9fbc
000001f0: 73c0 0bbe d2b5 b5bd 1426 cb3c e45b b93d
00000200: cb95 043c 8b7b ad3d e45f 113d ebec be3d
00000210: 350a b53d a842 3d3d 9d4e c63d f162 7a3d
00000220: a83d 03bd aa56 d33d 578e 903c cc2c 8fbd
00000230: be33 f8bc 2e6c 0dbd 1559 843c e6d8 efbc
00000240: 713c e3bc 1daf c53d c9f5 c0bc 3bb6 8f3c
00000250: 7791 b5bd 9da6 1e3d 4f85 823d 002c 15bd
00000260: c60c 0f3d 3283 3d3d 645e 2ebd 2cc3 873d
00000270: 210c fcbd 1e6a e03d a2a2 50bd 1761 6fbc
00000280: 179b 20bd 6047 0cbd 4496 593d 17f7 a23c
00000290: 6ded 86bd 6446 6ebd c030 bb3b 54fe 9c3c
000002a0: c106 0ebc b18e 873b 756e e8bc 3786 1cbd
000002b0: 7757 6c3d 3ffe a43d ccac 28bd 31ca 8d3c
000002c0: b156 573d a430 1bbc 37c7 e63c d4c9 6dbd
000002d0: 04b8 99bd 27db 9e3d a146 afbd 0fa4 183d
000002e0: 0c93 933d 0771 8b3d df12 723d c9c4 64bd
000002f0: 55aa b03a fa3b 0c3d b560 333d 54aa cebd
00000300: e326 16be d27d 263d 9001 07be 8caa 09bd
00000310: 4b06 953d 0503 ffbc 0968 99bd ff91 253d
00000320: bca8 873d 0761 5f3d 4313 863c 94a8 85bc
00000330: 3d22 9b3d 1260 143c 8ffa 633d 4251 72bd
00000340: eaa8 093c 4406 c63d 083a c23d daa1 e53b
00000350: bdc9 033c 91e1 01be 5e2c e83b 772b f43c
00000360: 4d77 713c 41d8 8b3d e93d 3cbd 7781 073d
00000370: 514c 45bd 0b5e b4bd 09e1 c13c ac0e a5bd
00000380: 76d2 4abd ea7d 55bd 9423 363d 5071 9cbc
00000390: 4209 313c d2a8 f63d b2e2 09bd 864e b13b
000003a0: 6194 8c3d 0bf0 d93d a658 b23c ac86 8f3d
000003b0: 1d01 8dbd 5b67 0c3d 7f65 e9ba ff47 d33c
000003c0: 653d fd3d a3ac 4abd 638d 093c 210c 9ebd
000003d0: ba13 843d 9a03 e7bb 0cb8 32bd c8da 073e
000003e0: 70ea cc3d c7b1 74bd 8dcb a3bd 8cb6 5bbc
000003f0: f99d d4bd a443 7f3d 89b7 e63d df41 4bbd

ik_net.sequential_r_leg.2.bias f4 [128]
-0.029329296 -0.022449732 0.09786802 -0.03296512 -0.08283541 0.095523536 0.089402966 -0.1659212
0.00070852746 0.2726853 0.10011711 0.07478381 -0.13156283 0.053081125 0.059539597 -0.031152768
0.08461851 -0.19338444 0.10360465 0.0984287 0.047460582 -0.14292811 -0.028694516 -0.045255832
0.15284489 0.07270314 0.20662212 -0.08361584 -0.10339147 0.095594935 -0.010245462 -0.007235025
-0.009713498 0.04761382 0.033147857 0.112653874 -0.035782207 -0.03229007 0.12586239 -0.080295585
0.07052924 -0.21821292 -0.0481436 -0.058930922 0.05645542 -0.06252763 0.1446684 0.05575941
-0.12474485 0.012640669 -0.01231424 -0.06204597 -0.13369665 0.09360312 0.19713604 0.041633014
-0.08330107 0.2983602 0.10791954 -0.012636715 -0.1334322 -0.11754682 -0.03658726 -0.0028696118
-0.011657394 0.050640073 -0.14916722 0.025610153 -0.10645107 -0.12876579 0.113784984 -0.0664599
0.009398976 -0.018390782 0.0478981 -0.041377623 0.039314054 -0.109071806 -0.038443174 -0.05797462
0.09264756 0.008656598 -0.07585704 0.055278655 0.008330411 -0.066572554 -0.043571424 -0.030679045
0.1481454 0.011313348 -0.09758236 -0.13649882 -0.07171693 -0.09517553 -0.13490075 0.22887954
0.02065191 -0.20540966 -0.092494525 0.09505586 -0.06760698 0.14486612 -0.04704594 -0.016786754
0.041891567 0.15285677 -0.03352675 -0.2015852 -0.077961825 -0.03790571 -0.06917325 -0.11955996
0.048296347 0.13294984 -0.022817926 -0.09909265 0.015381676 -0.074949205 -0.10776352 0.0061155776
0.06191955 -0.055892233 -0.022680573 -0.084959924 0.1939062 0.09526151 -0.030433303 0.112364955
00000000: fe43 f0bc 80e8 b7bc 076f c83d 6f06 07bd
00000010: 9da5 a9bd d8a1 c33d e718 b73d 3fe7 29be
00000020: 79bc 393a 689d 8b3e 330a cd3d 4128 993d
00000030: 68b8 06be 986b 593d cbdf 733d 1734 ffbc
00000040: 784c ad3d 9206 46be ad2e d43d fc94 c93d
00000050: 0766 423d bf5b 12be c310 ebbc 2e5e 39bd
00000060: 5f83 1c3e 62e5 943d c094 533e c83e abbd
00000070: e8be d3bd 47c7 c33d 95dc 27bc ca13 edbb
00000080: 5d25 1fbc b506 433d 0cc6 073d 13b7 e63d
00000090: 5d90 12bd 9842 04bd 12e2 003e 0372 a4bd
000000a0: a271 903d 3573 5fbe 3932 45bd 8d61 71bd
000000b0: cc3d 673d 7c0e 80bd f423 143e fb63 643d
000000c0: 3a7a ffbd cf1a 4f3c abc1 49bc ea23 7ebd
000000d0: c6e7 08be feb2 bf3d 08de 493e 6187 2a3d
000000e0: c099 aabd abc2 983e eb04 dd3d 390a 4fbc
000000f0: 73a2 08be 63bc f0bd 86dc 15bd 1910 3cbb
00000100: a7fe 3ebc f76b 4f3d 4bbf 18be 62cc d13c
00000110: 0503 dabd 2edb 03be 1a08 e93d 211c 88bd
00000120: 2afe 193c 44a8 96bc cc30 443d 957b 29bd
00000130: c607 213d 0a61 dfbd 9776 1dbd cc76 6dbd
00000140: 01be bd3d 67d4 0d3c f05a 9bbd df6b 623d
00000150: 477c 083c 3157 88bd f377 32bd 9f52 fbbc
00000160: 6eb3 173e 9f5b 393c 43d9 c7bd 59c6 0bbe
00000170: 53e0 92bd 63eb c2bd 6c23 0abe 665f 6a3e
00000180: 322e a93c e956 52be c56d bdbd a6ac c23d
00000190: 8775 8abd c957 143e 3eb3 40bd 6084 89bc
000001a0: 7e96 2b3d 7c86 1c3e 5853 09bd 5a6c 4ebe
000001b0: 73aa 9fbd 0543 1bbd b4aa 8dbd dadb f4bd
000001c0: 64d2 453d 0124 083e a9ec babc 16f1 cabd
000001d0: 6d03 7c3c f87e 99bd 1fb3 dcbd 2f65 c83b
000001e0: 5b9f 7d3d 41ef 64bd 9ccc b9bc 78ff adbd
000001f0: 598f 463e 7718 c33d 434f f9bc 991f e63d
